Neural_network_Projects/plant_disease_recognition/recognize_disease_test.pt (torch, 171210 bytes, 10 tensors)

weight f4 [16, 3, 3, 3]
0	0x3da52532	0.08063735
1	0x3cd49ec6	0.025954615
2	0xbdbac5b8	-0.09119743
3	0xbdf8873c	-0.12135169
4	0xbd444d53	-0.047925305
5	0x3dec8bba	0.11550088
6	0xbe10d9a6	-0.14145526
7	0xbd3a7df6	-0.045530282
8	0xbb8f5af0	-0.0043748543
9	0xbe187ed3	-0.1489213
10	0x3d913fb9	0.07092232
11	0x3db61be7	0.08892041
12	0xbe6141a8	-0.21997702
13	0xbc5579d0	-0.013029531
14	0x3d56166f	0.052267488
15	0xbe51b0ae	-0.20477554
16	0xbdb45f7b	-0.08807274
17	0xbdb9b6b9	-0.09068055
18	0x3d71f024	0.059066907
19	0xbe00d69c	-0.12581867
20	0x3b94db67	0.0045427564
21	0xbe5974e4	-0.21235996
22	0xbe19e071	-0.15027024
23	0xbe007fde	-0.12548777
24	0x3d9efbf4	0.077629
25	0xbdf29e92	-0.11846651
26	0xbe46f940	-0.19431019
27	0x3d4a708f	0.04942375
28	0x3df5aef0	0.11996257
29	0xbad4bd8a	-0.0016230803
30	0x3db87844	0.09007314
31	0xbca48d0e	-0.020086791
32	0xbd21210d	-0.03933816
33	0xbd6d3139	-0.05790827
34	0xbdd0210b	-0.101625524
35	0xbe6c5a0e	-0.23081228
36	0xbe5121b9	-0.2042302
37	0xbde20fed	-0.11038194
38	0x3d2eedd4	0.04270728
39	0xbb4dc2c0	-0.0031396598
40	0xbc216e64	-0.009852979
41	0x3d51e4ce	0.051243596
42	0xbd99fab4	-0.07518521
43	0xbe7ee83d	-0.2489328
44	0x3d0b6c9c	0.034039125
45	0xbe433a5a	-0.19065228
46	0xbe4df2f9	-0.20112218
47	0x3cd7c975	0.02634118
48	0xbe4de85d	-0.20108171
49	0xbd83afd7	-0.06430023
50	0x3d3bde2f	0.045866188
51	0x3d3f69f5	0.046731908
52	0xbdda54af	-0.10660683
53	0x3be7110c	0.0070515927
54	0x3c8e8851	0.017398985
55	0x3db659f5	0.08903877
56	0xbe46cbb0	-0.19413638
57	0x3e022b2a	0.12711778
58	0xbcdf86ed	-0.027286017
59	0xbe11e8cc	-0.14248961
60	0xbe3c7126	-0.18402538
61	0xbe4dfe5b	-0.2011656
62	0x3e11bae8	0.14231455
63	0xbe68e9da	-0.22745457
64	0xbd27bed5	-0.040953476
65	0xbe015e90	-0.12633729
66	0xbc4a25d3	-0.01233812
67	0xbdc96b77	-0.098349504
68	0xbd1726a3	-0.03690208
69	0xbdc936fe	-0.09824942
70	0x3c99ccc4	0.018774398
71	0xbe0c8a44	-0.13724619
72	0xbc66fbd3	-0.0140981255
73	0xbe5f023f	-0.217782
74	0xbe37df3a	-0.17956248
75	0x3e09d503	0.13460164
76	0x3e060b36	0.13090214
77	0xbaa8eebd	-0.0012888532
78	0x3df1e3f3	0.11811056
79	0x3e09ac7f	0.13444708
80	0xb9ecb274	-0.00045146386
81	0x3de8e16f	0.11371123
82	0xbdfdaa41	-0.12385989
83	0xbdab832d	-0.08374629
84	0x3e1fc045	0.15600689
85	0xbd853aed	-0.0650538
86	0x3e1e5529	0.15462174
87	0x3dbb0aff	0.09132957
88	0xbe0d089b	-0.13772814
89	0x3d067519	0.032826517
90	0x3d15d330	0.036578357
91	0xbe51dd9f	-0.20494698
92	0x3e22e722	0.15908483
93	0xbe1ff59a	-0.15621033
94	0xbd74f678	-0.059805363
95	0xbbfc9110	-0.0077077225
96	0x3ccc2973	0.024922108
97	0xbc8764e9	-0.01652761
98	0xbe22b2ea	-0.15888563
99	0xbc5e76c9	-0.013578125
100	0x3a514714	0.0007983309
101	0x3dca3168	0.09872705
102	0xbd3c5207	-0.045976665
103	0xbdf5d132	-0.120027915
104	0xbdc9a915	-0.09846703
105	0xbd9c136e	-0.076208934
106	0x3d878f02	0.066190735
107	0xbd9e1801	-0.07719422
108	0xbd496ffb	-0.04917906
109	0x3ddde9c5	0.108356036
110	0xbd0923b9	-0.033481333
111	0xbd8c3184	-0.06845382
112	0x3cdefe62	0.027220909
113	0x3d4c72e2	0.04991425
114	0xbd58a145	-0.052888174
115	0xbe16e756	-0.14736685
116	0x3e17934d	0.14802285
117	0xbda28f21	-0.07937456
118	0x3dd39e66	0.103329465
119	0xbde8693e	-0.11348198
120	0xbd11b9dc	-0.03557764
121	0xbdcb5aa4	-0.09929398
122	0x3db70eda	0.089383796
123	0x3e39130a	0.18073669
124	0x3d9ed7b2	0.07755984
125	0xbd2b4306	-0.041811965
126	0x3e2564ab	0.16151683
127	0x3dd96734	0.106153876
128	0x3dfe5d75	0.12420169
129	0x3e3a0310	0.18165231
130	0x3ca2433b	0.019807449
131	0xbbe060fd	-0.0068474994
132	0x3df35820	0.11882043
133	0x3de51b90	0.11186898
134	0xbc9b3d30	-0.018950075
135	0xbd7a2d49	-0.061078344
136	0xbe01e520	-0.1268506
137	0x3d9a5280	0.07535267
138	0xbe1a4c55	-0.15068181
139	0xbe2a6bfe	-0.16642758
140	0xbe7ec568	-0.24879992
141	0x3cce04ee	0.025148835
142	0xbe0d7788	-0.13815129
143	0xbe521d1b	-0.20518915
144	0x3d3bc96c	0.045846388
145	0xbe759a57	-0.23984657
146	0x3dc95886	0.09831338
147	0xbddfecaa	-0.10933812
148	0xbc43b352	-0.011944609
149	0x3d9b6a42	0.075886264
150	0xbdd6b121	-0.104830034
151	0xbdf74268	-0.12073213
152	0x3d121ccd	0.035671998
153	0xbe87193e	-0.26386446
154	0xbd948e2e	-0.07253681
155	0xbe006aeb	-0.12540786
156	0xbe0e2f97	-0.13885342
157	0xbcb6c808	-0.02231218
158	0xbc020af7	-0.007937185
159	0x3da190b2	0.078889266
160	0xbe0fcdb5	-0.14043315
161	0xbe0e18eb	-0.13876693
162	0xbe17fb05	-0.1484185
163	0xbdef5866	-0.116867825
164	0xbd417d7f	-0.047238823
165	0x3ddfffac	0.109374374
166	0xbd8074db	-0.062722884
167	0xbe086254	-0.13318759
168	0xbd6cf03e	-0.0578463
169	0x3cc9c529	0.024630146
170	0xbe23781f	-0.15963791
171	0xbe4c27c0	-0.19937038
172	0xbd478e98	-0.048719972
173	0x3b9809ac	0.004639825
174	0x3db7679c	0.08955309
175	0x3e29a2f4	0.16566068
176	0x3e160767	0.14651261
177	0x3e0e3abf	0.13889597
178	0xbe5c404c	-0.21508902
179	0x3cea69a5	0.028614828
180	0x3d53b339	0.051684592
181	0x3de43e63	0.11144712
182	0xbe073dee	-0.13207218
183	0xbce03e3a	-0.027373422
184	0x3cdbd161	0.026833238
185	0x3cf45400	0.02982521
186	0xbca6566c	-0.020304881
187	0xbe2c9534	-0.16853791
188	0x3daaf97a	0.08348365
189	0x3d0e9ad8	0.03481564
190	0xbe41d892	-0.18930271
191	0x3d376250	0.044771492
192	0x3e24088f	0.1601889
193	0xbdd69c3e	-0.104790196
194	0xbd3491e4	-0.044084445
195	0xbdd72249	-0.10504586
196	0xbd69c576	-0.05707308
197	0xbe379ab4	-0.17930108
198	0x3e22995c	0.15878814
199	0xbd80a065	-0.06280593
200	0xbcefbb0f	-0.029264001
201	0xbe4197bd	-0.1890554
202	0xbded97c6	-0.11601214
203	0xbe5a7fa2	-0.2133775
204	0xbdcd62ae	-0.10028587
205	0x3e049504	0.1294747
206	0x3d0bd9c2	0.034143217
207	0xbe5a7c90	-0.2133658
208	0xbdf64e3d	-0.120266415
209	0xbc82e18c	-0.01597669
210	0xbccf56de	-0.025309976
211	0xbe07b82b	-0.13253848
212	0xb9757b12	-0.00023410868
213	0x3cba5280	0.022744417
214	0x3b36eaf7	0.0027911046
215	0x3cb3c5ba	0.02194487
216	0x3e174b29	0.14774765
217	0x3e23de9a	0.16002885
218	0xbe35c644	-0.17751414
219	0xbe022865	-0.12710722
220	0xbd999d79	-0.07500739
221	0xbe2556f4	-0.16146451
222	0x3ccb7724	0.024837084
223	0xbde22c46	-0.11043601
224	0xbde716eb	-0.11283668
225	0x3c2f1f32	0.01068859
226	0x3d7408fc	0.05957888
227	0xbe56f22b	-0.20990817
228	0xbe394cae	-0.18095657
229	0xbd81a366	-0.06329994
230	0x3ab2cd3e	0.0013641489
231	0x3d847bb7	0.06468909
232	0x3d809375	0.06278125
233	0x3d40d86b	0.047081392
234	0xbe0db947	-0.13840209
235	0xbe5d858e	-0.21632978
236	0x3e1526de	0.14565608
237	0xbe167f3b	-0.14696972
238	0x3d4e36fe	0.050345413
239	0x3db93665	0.09043578
240	0x3d8012a1	0.06253553
241	0xbe20457a	-0.15651503
242	0x3cf4e599	0.029894637
243	0xbdbb3e48	-0.091427386
244	0x3d14e8a3	0.036354672
245	0x3d9591d0	0.07303202
246	0x3e0465bc	0.12929434
247	0xbcd9ac07	-0.026571287
248	0xbe2ad536	-0.16682896
249	0xbbd9421c	-0.0066301953
250	0x3d565121	0.052323464
251	0x3d4264da	0.04745946
252	0xbe2b9014	-0.1675418
253	0x3ca54f72	0.020179484
254	0x3d75e4c5	0.060032625
255	0xbe261fdf	-0.16223095

bias f4 [16]
0	0xbe403bb0	-0.18772769
1	0xbd5d375b	-0.05400787
2	0xbd2d9900	-0.04238224
3	0x3dc3588f	0.095383756
4	0x3de720e4	0.1128557
5	0xbdd50a8c	-0.10402402
6	0x3d622acf	0.055216607
7	0xbd36f1e8	-0.044664294
8	0x3da4e0bb	0.080506764
9	0xbe0e4e4b	-0.13897054
10	0x3ab5c9b3	0.0013869315
11	0x3d6ac751	0.05731899
12	0x3cda16e9	0.026622253
13	0xbe43acaf	-0.19108842
14	0x3cbe707c	0.023246996
15	0xbe407e58	-0.18798196

weight f4 [16, 16, 3, 3]
0	0x3d7d52e2	0.06184662
1	0xbd788197	-0.06067046
2	0x3b0adaf8	0.0021187644
3	0x3d03241a	0.03201685
4	0x3d0bfbc9	0.034175668
5	0xbd9670a8	-0.07345706
6	0xbdd7ba62	-0.105335966
7	0x3cd4c839	0.02597438
8	0xbd6c8793	-0.05774648
9	0xbc61379c	-0.013746168
10	0xbdc14bd3	-0.094382904
11	0xbe120072	-0.14257982
12	0xbdb8d3d6	-0.090247795
13	0xbd87b661	-0.06626583
14	0xbdca90e0	-0.09890914
15	0xbdf5d3ea	-0.1200331
16	0xbe1155dc	-0.14192909
17	0xbe017d0a	-0.12645355
18	0xbdb2025a	-0.08691855
19	0xbe0b08fc	-0.13577646
20	0xbcdafe5e	-0.02673262
21	0xbcbe711d	-0.023247296
22	0xbe02d7f4	-0.12777692
23	0x3c0f2c0e	0.008738531
24	0xbde80ac7	-0.113301806
25	0xbd776fab	-0.06040923
26	0xbdf72aa5	-0.12068681
27	0xbd849c20	-0.06475091
28	0xbdf16119	-0.11786098
29	0xbd10bb4d	-0.035334874
30	0xbe042318	-0.12904012
31	0xbcc11087	-0.023567451
32	0x3c99cf0e	0.01877549
33	0xbda49fdf	-0.080383055
34	0xbd997d59	-0.07494611
35	0xbcf98d53	-0.030462896
36	0xbc5af745	-0.013364618
37	0xbdba6dcb	-0.091029726
38	0xbd5ea1f5	-0.054353673
39	0xbd9d188a	-0.07670696
40	0xbd00759c	-0.03136216
41	0xbe0ed918	-0.13950002
42	0xbd9e652e	-0.07734142
43	0xbd3a4ae2	-0.04548157
44	0xbd508e7e	-0.05091714
45	0x3c19e7c2	0.009393634
46	0x3d13060e	0.035894446
47	0x3d058462	0.032596953
48	0xbd64f5f3	-0.055898618
49	0xbd3a1439	-0.045429442
50	0x3d5711b8	0.052507132
51	0xbe05df41	-0.13073446
52	0xbbeeda77	-0.0072892266
53	0x3de7afce	0.11312829
54	0xbda3f7f4	-0.08006278
55	0xbd153ecf	-0.036436852
56	0xbc93e1ef	-0.01805207
57	0xbe0cb866	-0.13742217
58	0xbd27cb7a	-0.040965535
59	0xbe158956	-0.14603171
60	0x3c78980e	0.015172971
61	0xba666b62	-0.0008789805
62	0xbe0a49de	-0.1350474
63	0xbc2ffef4	-0.010741938
64	0x3c77bf4c	0.015121292
65	0xbd102280	-0.03518915
66	0xbd1c5d53	-0.03817494
67	0xbd8e8203	-0.069583915
68	0xbc529b6a	-0.012854436
69	0xbd8d8bc4	-0.06911424
70	0x3ba334c0	0.0049806535
71	0x3d9906bd	0.07471988
72	0xbdddbb3e	-0.10826729
73	0xbddf8a6a	-0.10915072
74	0xbb23580a	-0.0024924302
75	0xbaf1c34e	-0.0018445046
76	0xbb8620cc	-0.004093265
77	0x3cb102d9	0.021607803
78	0xbda522ec	-0.080633014
79	0xbdc66e2c	-0.09688982
80	0xbdd74ff2	-0.10513295
81	0x3c1bd992	0.009512322
82	0xbe1007f1	-0.1406553
83	0x3c9b2ec7	0.018943204
84	0xbdaf5e14	-0.08562866
85	0xbd5d57de	-0.054038875
86	0xbde5d23a	-0.11221738
87	0xbd8cb43f	-0.06870317
88	0xbdd22fb6	-0.102630064
89	0x3c719666	0.01474533
90	0x3970aa14	0.00022951543
91	0xbd6220bf	-0.05520701
92	0x3bece6a1	0.0072296415
93	0xbd8b3551	-0.06797279
94	0xbd632038	-0.055450648
95	0xbd947b6e	-0.07250105
96	0xbde45e1a	-0.11150761
97	0x3c6ded51	0.014521913
98	0xbded7950	-0.11595404
99	0xbcb3111a	-0.02185874
100	0xbd2919cd	-0.04128437
101	0xbdbcb73e	-0.09214638
102	0xbbaf124d	-0.005342758
103	0x3c6f9bea	0.014624575
104	0xbd72cd19	-0.059277628
105	0xbdc4420a	-0.095829085
106	0xbd6e31f2	-0.0581531
107	0x3c1d082c	0.009584468
108	0xbbcf3608	-0.0063235797
109	0x3bddc2aa	0.0067675905
110	0x3c8e97df	0.017406402
111	0xbbeb2fc6	-0.007177326
112	0xbc796cab	-0.015223662
113	0x3cb64740	0.022250772
114	0x3bf3e10d	0.0074425996
115	0xbc5109a2	-0.012758644
116	0x3c94e809	0.01817705
117	0xbd402abe	-0.046915762
118	0xbdf0dce7	-0.11760884
119	0x3c424bdf	0.011858909
120	0xbd2cac8c	-0.04215674
121	0xbcc7829e	-0.024354275
122	0xbdd809d6	-0.10548751
123	0xbd12b6df	-0.03581893
124	0xbd49b2b8	-0.049242705
125	0xbdcef742	-0.101057544
126	0xbdd76fd8	-0.105193794
127	0xbe162b61	-0.14664985
128	0xbd6511fe	-0.05592536
129	0x3d714509	0.058903728
130	0xbd80c56c	-0.06287655
131	0x3c8aae12	0.016928706
132	0xbda0a906	-0.07844739
133	0xbd2f0068	-0.042724997
134	0xbd966d1e	-0.07345031
135	0xbe1b04f6	-0.15138611
136	0xbc55a784	-0.013040427
137	0xbd9bd14f	-0.07608282
138	0xbd130fbc	-0.035903677
139	0xbda3512e	-0.07974468
140	0xbdd2efec	-0.10299668
141	0xbd829e44	-0.06377843
142	0xbe10ca1f	-0.14139603
143	0xbdd9cb5b	-0.1063449
144	0xbdf9a5f8	-0.12189859
145	0x3c83b0bd	0.016075486
146	0xbdb5f08e	-0.08883773
147	0xbd296c7a	-0.041363217
148	0x3d23d2f3	0.0399961
149	0xbdb16611	-0.08662046
150	0xbd50ef26	-0.05100932
151	0x3db84d1c	0.089990824
152	0x3ddbb86d	0.10728536
153	0x3dde2930	0.108477
154	0x3dab0a80	0.08351612
155	0xbdc6f37b	-0.09714409
156	0x3d9b0336	0.07568972
157	0x3d405f94	0.04696615
158	0xbd860c56	-0.06545322
159	0xbb25a4fb	-0.0025275338
160	0x3db17aee	0.08666025
161	0xbda3038b	-0.0795966
162	0xbd4eee79	-0.050520394
163	0xbce7a1da	-0.028275419
164	0xbd27ce64	-0.040968314
165	0x3c456f22	0.012050422
166	0xbd19adc1	-0.03751922
167	0xbd31d55e	-0.043416373
168	0xbda49579	-0.08036322
169	0xbdc53bba	-0.096305326
170	0xbc8179d9	-0.015805172
171	0xbc6dffe9	-0.014526346
172	0xbdb85e41	-0.090023525
173	0xbcefa7b8	-0.02925478
174	0xbbb47405	-0.0055069947
175	0xba1fcd33	-0.0006095946
176	0xbd7e7471	-0.062122766
177	0xbcd0313e	-0.025414106
178	0xbde3ffce	-0.11132775
179	0xbd4b811d	-0.04968368
180	0xbb7f3488	-0.0038941223
181	0xbd5a283c	-0.053261027
182	0x3cbfdc5e	0.023420509
183	0xbcac056a	-0.020998675
184	0x3d1c7e95	0.038206656
185	0xbdbaca78	-0.09120649
186	0xbd57af91	-0.052657668
187	0xbd04b8cd	-0.032402802
188	0xbdc61f38	-0.09673923
189	0x3c9b30ee	0.01894423
190	0xbbc85622	-0.0061137835
191	0x3a7b55b2	0.000958766
192	0xbc0f7dec	-0.008758049
193	0x3c352ad7	0.011057577
194	0x3d943225	0.07236127
195	0x3dded415	0.10880295
196	0x3d1e6ca8	0.03867784
197	0xbcf6a506	-0.030107986
198	0xbc5486ae	-0.012971563
199	0x3c39c200	0.011337757
200	0xbd48c2ab	-0.049013775
201	0xbdace1dd	-0.084415175
202	0x3cf32456	0.029680412
203	0xbd47e28f	-0.048800047
204	0xbc89be9e	-0.016814526
205	0xbc66fe65	-0.014098738
206	0x391ed80c	0.00015148538
207	0x3c98c0b0	0.018646568
208	0xbbdd0062	-0.0067444304
209	0xbce71d66	-0.02821226
210	0xbd710ae0	-0.05884826
211	0x3c1bfff2	0.009521471
212	0xbb5c6d22	-0.0033634384
213	0x3cc05458	0.023477718
214	0xbca38fc0	-0.019966006
215	0xbd2a9087	-0.04164174
216	0xbd4ab56c	-0.049489424
217	0xbceeab22	-0.029134337
218	0xbce69afe	-0.028150078
219	0xb9721514	-0.0002308677
220	0xbda7b431	-0.08188666
221	0xbd32199c	-0.043481454
222	0xbdf72e58	-0.12069386
223	0x3d04cd71	0.032422487
224	0xbdf322dc	-0.11871883
225	0xbcafff0c	-0.02148392
226	0xbc1f7dc1	-0.009734572
227	0x3cd94bab	0.02652534
228	0xbd09a463	-0.033604037
229	0x3d420a68	0.047373205
230	0xbce96911	-0.028492482
231	0xbc8c1d02	-0.017103676
232	0x3d27f31c	0.04100333
233	0xbd1f9737	-0.03896257
234	0xbd87a2a2	-0.066228166
235	0xbd3f6d44	-0.046735063
236	0xbde7c9e9	-0.11317808
237	0xbdab4c39	-0.08364148
238	0xbd6fd626	-0.058553837
239	0xbd9748b2	-0.073869124
240	0xbd43920d	-0.047746707
241	0x3d31f26b	0.04344408
242	0xbd980d24	-0.074243814
243	0xbdc9b7d4	-0.098495156
244	0xbdc0decb	-0.094174944
245	0x3bb44786	0.0055016903
246	0xbd5666b0	-0.052344024
247	0xbd38398e	-0.044976763
248	0xbcad85dd	-0.021181995
249	0xbcca3de8	-0.024687722
250	0xbddfe5ff	-0.1093254
251	0x3ca95320	0.02066952
252	0xbb82c0e0	-0.0039902776
253	0xbbfc9fec	-0.007709494
254	0x3ce39839	0.027782546
255	0xbcbde686	-0.023181211

bias f4 [16]
0	0xbca41adc	-0.020032339
1	0xbc462a51	-0.01209505
2	0x3c9a4761	0.018832864
3	0x3d2d0fb6	0.04225131
4	0xbc7c223b	-0.015389021
5	0xbc370387	-0.011170275
6	0xbddaef84	-0.10690215
7	0xbd849288	-0.06473261
8	0xbdf7f235	-0.12106744
9	0xbd8af80f	-0.06785595
10	0xbbd49179	-0.0064870683
11	0x3cb69f54	0.02229277
12	0xbe123720	-0.14278841
13	0xbe056d40	-0.13029957
14	0x3c5e8ba3	0.013583097
15	0xbcc69ff0	-0.024246186

weight f4 [32, 16, 3, 3]
0	0x3df2e721	0.118604906
1	0x3cec7db8	0.028868541
2	0xba824909	-0.0009939979
3	0x3da75ea2	0.08172347
4	0x3decb2eb	0.115575634
5	0x3dc6bf70	0.097044826
6	0xbc399757	-0.011327586
7	0xbd0bc7fc	-0.034126267
8	0xbcbdf785	-0.023189316
9	0xbd39e74f	-0.04538661
10	0xbd80d407	-0.06290441
11	0xb7f1c2c0	-2.8820126e-05
12	0xbc85d2dd	-0.016335899
13	0xbd13573f	-0.035971876
14	0xbd06a974	-0.032876447
15	0xbd88ba28	-0.066761315
16	0xbd785aa7	-0.060633328
17	0xbdba9fea	-0.091125324
18	0xbd3cd15c	-0.0460981
19	0xbd104af6	-0.03522774
20	0xbe04c0d8	-0.12964189
21	0xbd2c6247	-0.042085912
22	0xbdb151f3	-0.08658209
23	0xbdd4316b	-0.10360988
24	0x3b27c5dc	0.002560011
25	0xbe0e4aeb	-0.13895766
26	0xbca7a3f1	-0.020463916
27	0xbd008f13	-0.031386446
28	0xbd9985ce	-0.07496224
29	0xbd0a0276	-0.033693753
30	0x3b2a66a5	0.0026001122
31	0xba2f74a4	-0.0006693101
32	0x3d34e052	0.04415924
33	0xbd8136ff	-0.06309318
34	0xb9cea830	-0.0003941669
35	0xbc8d88ff	-0.017277239
36	0xbba04ecb	-0.0048922054
37	0xbe1112e9	-0.1416737
38	0xbdd32643	-0.10310032
39	0xbd3278b9	-0.04357216
40	0xbdb38d9a	-0.08767243
41	0x3c37e463	0.011223885
42	0xbe115e14	-0.14196044
43	0x3c8bc94b	0.017063757
44	0xbcc9815e	-0.02459782
45	0xbd1c3d0d	-0.03814416
46	0x3caa032b	0.020753464
47	0xbd1ed264	-0.038774863
48	0xbd20f909	-0.0393
49	0x3d278005	0.040893573
50	0xbd90592d	-0.07048259
51	0xbb8f4813	-0.0043726056
52	0xbda59b79	-0.08086295
53	0xbddfeefd	-0.10934255
54	0xbd389746	-0.04506614
55	0xbdb323dd	-0.08747075
56	0xbcfb0e9a	-0.030646611
57	0xbd2bf2a5	-0.04197945
58	0xbdece797	-0.1156761
59	0xbe10b348	-0.1413089
60	0xbd994ff7	-0.07485955
61	0x3c070080	0.008239865
62	0x3c76a81d	0.01505473
63	0x37cc0d30	2.4324836e-05
64	0x3d1c1d2f	0.03811377
65	0xbcd78177	-0.02630685
66	0xbbde5fc6	-0.0067863194
67	0x3dd1fb82	0.102530494
68	0xbdd3c8ce	-0.10341035
69	0x3d23ac9e	0.039959542
70	0xbe116544	-0.14198786
71	0xbddb5381	-0.107092865
72	0x3d2c6d34	0.04209633
73	0x3cf10611	0.029421838
74	0xbbe55de4	-0.006999718
75	0x3da82b76	0.082114145
76	0x3c85abd1	0.01631728
77	0xbd8db788	-0.069197714
78	0x3d6aaefa	0.057295777
79	0xbda6b29b	-0.08139535
80	0x3d81b682	0.06333639
81	0xbd6ae273	-0.057344865
82	0xbd191f27	-0.037383225
83	0x3c2e9c43	0.010657373
84	0xbc4fa672	-0.012673961
85	0xbdac29b1	-0.084063895
86	0xbcae82d0	-0.02130261
87	0xbddba7fd	-0.107254006
88	0xbcc4a2ab	-0.024003347
89	0x3d1df3bf	0.038562533
90	0xbe00677d	-0.12539478
91	0xbdadd9e2	-0.084888235
92	0xbd80a216	-0.062809154
93	0xbdeea673	-0.116528414
94	0xbddcbe23	-0.10778453
95	0xbbec65d0	-0.0072142854
96	0xbdf86025	-0.12127713
97	0xbd9f07a9	-0.07765133
98	0x3ca6e9bc	0.020375125
99	0x3d432e64	0.047651663
100	0xbd565c15	-0.05233391
101	0xbe19b7a7	-0.15011464
102	0xbdad6d3c	-0.084681004
103	0x3aa9c891	0.001295345
104	0xbb77024b	-0.0037690576
105	0xbdf25d26	-0.11834173
106	0xbd389482	-0.045063503
107	0xbe0ce5a6	-0.13759479
108	0xbd376269	-0.044771586
109	0x3c350c06	0.01105023
110	0x3c383fe9	0.011245706
111	0x3d3d6956	0.046243034
112	0x3dfb9594	0.12284389
113	0xbd095959	-0.033532474
114	0x3d1fd212	0.039018698
115	0x3dbbefdb	0.09176608
116	0x3c09f616	0.008420488
117	0x3dd90c7b	0.105980836
118	0xbc90a11f	-0.017654954
119	0x3dbcaba8	0.09212428
120	0x3d8ff392	0.07028879
121	0x3dfbb3db	0.12290164
122	0x3dcaeea0	0.09908795
123	0x3d8aa7dd	0.06770299
124	0x3ba42712	0.0050095404
125	0x3dc3a955	0.09553782
126	0xbaa514e0	-0.0012594722
127	0x3d0bfba2	0.034175523
128	0x3dbfefb7	0.09371894
129	0xbc1569a1	-0.009119422
130	0x3d225bfe	0.03963851
131	0xbd933285	-0.0718737
132	0xbc6fec91	-0.014643804
133	0x3d05a662	0.03262938
134	0xbd1adf3b	-0.037810545
135	0xbc973ccd	-0.01846161
136	0x3d9b1d3d	0.07573936
137	0xbc0499d6	-0.008093318
138	0x3dd1444d	0.102181055
139	0xbc16d206	-0.009205347
140	0x3c0e8c2f	0.008700415
141	0x3d91c88d	0.0711833
142	0x3dd8d1b1	0.105868705
143	0x39bff918	0.00036615948
144	0xbd4e1f3b	-0.050322752
145	0xbd58d3ee	-0.052936487
146	0xbe049e2c	-0.12950963
147	0xbe050ad5	-0.12992413
148	0xbd8ea643	-0.06965306
149	0x3c8e2262	0.01735038
150	0xbc95001f	-0.018188534
151	0xbd0805d9	-0.0332087
152	0xbd3d2d50	-0.04618579
153	0xbdfdb65d	-0.12388299
154	0xbe2dff9e	-0.16992041
155	0xbe23953e	-0.159749
156	0x3d16769d	0.036734212
157	0xbddc6893	-0.107621334
158	0xbdf6a3be	-0.1204295
159	0xbe028aed	-0.12748308
160	0xbdbab1ba	-0.0911593
161	0xbd28a9a1	-0.041177396
162	0xbcb091c3	-0.02155388
163	0xbd993b50	-0.07482016
164	0xbd9a03fb	-0.075202905
165	0xbc8eceed	-0.017432654
166	0xbcf4a2c2	-0.029862765
167	0x3ba1e385	0.0049404525
168	0xbdc20651	-0.09473861
169	0xbe01306f	-0.12616132
170	0xbdc91e74	-0.098202616
171	0xbbe52caa	-0.0069938498
172	0xbd8b6070	-0.06805503
173	0x3c8d3925	0.017239163
174	0xbe00a4b2	-0.12562826
175	0x3d049428	0.032367855
176	0x3d0dec93	0.034649443
177	0xbdbe0fc0	-0.09280348
178	0xbc2539aa	-0.010084549
179	0xbd94707a	-0.07248016
180	0xbd9c52f7	-0.07633012
181	0xbde64f43	-0.11245587
182	0xbe20cf85	-0.15704162
183	0xbd4c1778	-0.04982707
184	0xbd97488c	-0.07386884
185	0xbe05bcd8	-0.1306032
186	0xbd351512	-0.044209547
187	0xbd95464f	-0.07288801
188	0xbddd27da	-0.10798617
189	0xbdbd4110	-0.09240925
190	0x3cac8bb9	0.021062719
191	0xbda6bbe5	-0.08141307
192	0x3d32dce6	0.043667696
193	0x3ccfc286	0.02536131
194	0xbdaecdc0	-0.085353374
195	0x3c70d1fa	0.0146985
196	0xbd240bb7	-0.040050235
197	0x3c9e6325	0.019334385
198	0xbd99dd00	-0.075128555
199	0xbdd73c23	-0.10509517
200	0xbda847fd	-0.08216856
201	0xbc47c152	-0.012192087
202	0xbd04e4c0	-0.032444715
203	0xbdf07f1b	-0.117429934
204	0xbdb4562d	-0.08805499
205	0xbdc55d12	-0.096368924
206	0xbcb54258	-0.022126362
207	0x3d01faf5	0.031733472
208	0xbc29594b	-0.0103362305
209	0xbd5aebda	-0.05344758
210	0x3db752f3	0.08951368
211	0x3d201c5c	0.039089546
212	0xbc9148ad	-0.01773485
213	0x3e073ad0	0.13206029
214	0x3c8f823e	0.017518159
215	0xbdb0a5fb	-0.08625408
216	0xbccb0638	-0.024783239
217	0xbd54c2ff	-0.051943775
218	0x3a7149f4	0.000920444
219	0xbdb2ea40	-0.08736086
220	0xbb5a7c68	-0.0033338312
221	0xbd1d5dbc	-0.03841947
222	0xbe110db3	-0.14165382
223	0x3b982c21	0.0046439325
224	0xbcbcec89	-0.023062008
225	0xbda8ba09	-0.082386084
226	0xbdb61fc1	-0.08892775
227	0x3c5b57ef	0.013387664
228	0xbdd5a7f0	-0.10432422
229	0xbdf110e3	-0.11770799
230	0x3ca736fb	0.020411959
231	0xbdc03b95	-0.09386364
232	0xbd140a22	-0.036142476
233	0x3ab1054d	0.0013505608
234	0xbd04794d	-0.032342244
235	0xbdc4c1cd	-0.09607277
236	0xbcb7226b	-0.022355279
237	0xbdf1b4d6	-0.1180207
238	0xbd9debac	-0.077109665
239	0xbde45b03	-0.111501716
240	0xbd4a3d80	-0.049375057
241	0xbda4fa06	-0.08055501
242	0xbd8b7eed	-0.068113185
243	0x3c6d9ca2	0.014502676
244	0xbd635ea2	-0.05551017
245	0xbe0d29d0	-0.13785481
246	0x3d244bbe	0.040111296
247	0xbddfc2d6	-0.10925834
248	0x3d1d3fce	0.038390927
249	0xbd85b857	-0.06529301
250	0xbd7ce457	-0.0617412
251	0xbb9393d4	-0.0045037065
252	0xbd068e63	-0.032850634
253	0xb95cf2d0	-0.0002107129
254	0x3c561229	0.013065853
255	0xbcfc907d	-0.030830616

bias f4 [32]
0	0xbcf3ebed	-0.029775584
1	0xbdf0b9be	-0.117541775
2	0xbd807d41	-0.0627389
3	0xbe04ae06	-0.1295701
4	0xbda0f12c	-0.078585
5	0xbc4f9862	-0.012670608
6	0xbe0ce036	-0.13757405
7	0xbcbc8e5e	-0.023017105
8	0xbdcc2597	-0.09968107
9	0xbdca9c97	-0.098931484
10	0xbd87e7ee	-0.06636034
11	0xbdb61fee	-0.08892809
12	0xbb95c7cd	-0.0045709372
13	0xbc493fc9	-0.012283274
14	0xbbd9c5e5	-0.0066459053
15	0xbe09f165	-0.13470991
16	0x3ba9e896	0.005185197
17	0xbc37c4d4	-0.011216361
18	0xbda66d49	-0.08126313
19	0xbd4f5763	-0.050620448
20	0xbda19069	-0.07888872
21	0xbcbc8001	-0.023010256
22	0xbdfc5dcd	-0.123225786
23	0xbdf87cef	-0.12133204
24	0xbc14a330	-0.00907211
25	0xbcd78611	-0.026309045
26	0xbdce8f6b	-0.100859486
27	0x3a8860d2	0.0010404831
28	0xbd970aab	-0.07375082
29	0xbc8570ed	-0.016289199
30	0xbe1e5ca5	-0.15465029
31	0xbdb1f71e	-0.08689712

weight f4 [32, 32, 3, 3]
0	0x3d67d1dc	0.056596622
1	0xbe07fb29	-0.13279404
2	0xbcdcd451	-0.02695671
3	0xbde0f200	-0.10983658
4	0x3c4a7e18	0.012359165
5	0xbd20295a	-0.039101936
6	0xbdb03f95	-0.08605877
7	0xbc6cd7b7	-0.014455727
8	0x3cc3a28e	0.023881223
9	0x3bbe5012	0.005807885
10	0xbda392d2	-0.07986988
11	0xbd26024d	-0.040529538
12	0xbcfa18a8	-0.030529335
13	0xb936d6a8	-0.00017436838
14	0x3d13b43c	0.036060557
15	0xbc62f4c4	-0.013852302
16	0xbda11d3b	-0.078669034
17	0x3d969f08	0.073545516
18	0xbdf3bd1f	-0.11901306
19	0xbd26b2f9	-0.040698025
20	0xbdabd5ff	-0.08390426
21	0xbdab17c4	-0.08354142
22	0xbd944090	-0.07238877
23	0x3cc818a6	0.024425816
24	0x3c8a8d45	0.016913066
25	0xbdd2a6bb	-0.102857076
26	0xbd8b36b4	-0.06797543
27	0x3c9e3b26	0.019315314
28	0xbcac4427	-0.021028591
29	0x3b5d9981	0.003381342
30	0xbde05f51	-0.1095568
31	0xbc0a7a95	-0.008452077
32	0x3aca283c	0.0015423368
33	0xbdadaec9	-0.08480603
34	0xbbb4ef67	-0.005521703
35	0x3d0aa9bc	0.033853278
36	0x3c4727fb	0.012155528
37	0xbd231b11	-0.039820734
38	0xbdbbc8ea	-0.09169181
39	0xbd5ebed7	-0.054381218
40	0x3cb32ae2	0.021871034
41	0xbce70813	-0.028202092
42	0x3df48a35	0.119404234
43	0x3c4ad7a5	0.012380515
44	0xbc97ffbf	-0.018554566
45	0xbda046ba	-0.0782599
46	0xbd9040ff	-0.07043647
47	0xbdecb46e	-0.11557852
48	0xbdb9478b	-0.09046849
49	0xbd0581b4	-0.032594398
50	0xbdcccf15	-0.10000435
51	0xbdddecfe	-0.10836218
52	0x3d79b638	0.060964793
53	0xbcb39593	-0.021921908
54	0x3c9c0818	0.019046828
55	0xbd3dc489	-0.04633001
56	0x3daf3ad6	0.08556144
57	0x3d51bbde	0.051204555
58	0xbd77c347	-0.060488965
59	0x3ce81635	0.028330902
60	0x3a90a626	0.0011035844
61	0xbc9a93d4	-0.018869318
62	0xbd8e7c89	-0.06957347
63	0xbd322c90	-0.04349953
64	0xbdb0a584	-0.086253196
65	0xbd033cfb	-0.032040577
66	0xbd0d75da	-0.03453622
67	0xbddfe14d	-0.109316446
68	0xbdf11733	-0.11772003
69	0xbc9b5239	-0.018960105
70	0xbc8921b9	-0.016739713
71	0xbda3dc67	-0.08001023
72	0xbbfeae76	-0.007772262
73	0xbcc71994	-0.024304189
74	0xbd63c2a1	-0.055605534
75	0xbd39ac40	-0.045330286
76	0x3bac9993	0.005267331
77	0xbd72df70	-0.059295118
78	0xbde99fb1	-0.11407412
79	0x3d2866fa	0.04111383
80	0xbc180d0e	-0.009280456
81	0xbc5716fa	-0.013128037
82	0xbc443146	-0.011974638
83	0xbd6fe6e9	-0.058569822
84	0xbd6d9036	-0.05799886
85	0xbd804619	-0.0626337
86	0xbde589d6	-0.11207931
87	0xbddd68ab	-0.108109795
88	0xbc4a98a4	-0.012365494
89	0xbd671a2a	-0.056421436
90	0xbcf03a92	-0.029324804
91	0xbc51741d	-0.012784031
92	0xbd42cd90	-0.04755932
93	0x3c20aeea	0.009807328
94	0x3cbef91a	0.02331214
95	0x3d839497	0.06424826
96	0xbc10aef7	-0.008830777
97	0x3c981c18	0.018568084
98	0x3c31a96a	0.010843614
99	0xbd353c63	-0.044247042
100	0xbd3cc793	-0.046088766
101	0xbdcc6c52	-0.09981598
102	0xbc9bb961	-0.019009294
103	0x3d5da32d	0.054110695
104	0xbd9a1acb	-0.075246416
105	0xbcf3c318	-0.029756114
106	0xbd94b010	-0.07260144
107	0x3dce8954	0.10084787
108	0xbdc50b47	-0.096212916
109	0xbc949c2a	-0.018140871
110	0xbd595c60	-0.05306661
111	0xbd1134e0	-0.035450816
112	0xbde94924	-0.113909036
113	0xbd9f1659	-0.07767934
114	0xbd0ca9d2	-0.03434164
115	0xbd1de90a	-0.03855232
116	0xbc03fe89	-0.008056291
117	0xbd77ef11	-0.060530726
118	0xbd4989df	-0.04920375
119	0xbd6346c9	-0.055487428
120	0xbc2c5d2e	-0.010520263
121	0xbdc78ace	-0.09743272
122	0xbd8a801d	-0.06762717
123	0xbd8b9296	-0.068150684
124	0xbd36eb5d	-0.044658054
125	0xbd9618c0	-0.073289394
126	0xbd22031f	-0.039553758
127	0x3d33c7bc	0.043891653
128	0xbcf33c42	-0.02969182
129	0x3d2b89eb	0.041879576
130	0xbd3129c2	-0.043252714
131	0x3d756da8	0.05991903
132	0x3c32ada9	0.010905662
133	0x3c545fdd	0.012962309
134	0xbd72d666	-0.059286498
135	0xbc779fb1	-0.015113757
136	0xbd18eba6	-0.037334107
137	0xbdc98d72	-0.09841432
138	0xbdd8deab	-0.105893455
139	0xb8c0cd50	-9.193516e-05
140	0xbd708e46	-0.058729433
141	0xbcdc00fd	-0.02685594
142	0x3d1e2035	0.038604934
143	0xbd7adb30	-0.06124419
144	0x3d5d0101	0.053956036
145	0x3c93cfbe	0.018043395
146	0x3cc22cea	0.023703057
147	0x3c9f93d0	0.019479662
148	0x3d69962b	0.057027977
149	0xba39ded7	-0.00070903957
150	0x3d0583d1	0.032596413
151	0x3d34da80	0.04415369
152	0xbc269c8f	-0.010169162
153	0xbd8b0a77	-0.067891054
154	0x3d7b7689	0.06139234
155	0xbbf570ef	-0.0074902694
156	0x3cdf3f90	0.027251989
157	0xbdce1388	-0.10062319
158	0x3d421485	0.04738285
159	0xbd112694	-0.03543718
160	0xbbcd9959	-0.006274384
161	0xbda02a55	-0.07820574
162	0xbda0f41a	-0.07859059
163	0xbd9b1c8b	-0.075738035
164	0xbcd54641	-0.026034476
165	0xbdf9a721	-0.121900804
166	0xbd8ad170	-0.06778228
167	0xbd6741ba	-0.056459166
168	0xbcffbbc6	-0.031217467
169	0xbdcadda5	-0.099055566
170	0xbd72716c	-0.0591902
171	0xbda8f9e4	-0.08250788
172	0xbd9ad91b	-0.07560941
173	0xbc16211e	-0.009163169
174	0xbc74b2e3	-0.014935228
175	0x3a5653a4	0.00081759156
176	0xb837f720	-4.3860753e-05
177	0xbcf18b0a	-0.029485244
178	0xbd050fa6	-0.032485627
179	0xbdec1722	-0.1152785
180	0xbdad77f0	-0.08470142
181	0xbc680aaa	-0.014162699
182	0xbd397654	-0.045278862
183	0xbc99ebce	-0.018789198
184	0xbce7dcb5	-0.028303484
185	0xbde2703e	-0.11056565
186	0xbd9317b3	-0.07182255
187	0xbd76cb81	-0.06025267
188	0xbd5cd8e9	-0.0539178
189	0xbd19cca2	-0.03754867
190	0xbc2311a5	-0.009952937
191	0xbdde085e	-0.1084144
192	0xbdb84d98	-0.08999175
193	0xbb1dbc26	-0.0024068444
194	0xbd8623a2	-0.06549765
195	0xbd01b96b	-0.03167097
196	0xbcc13e06	-0.023589145
197	0xbdcf668c	-0.10126981
198	0xbd0a5974	-0.033776715
199	0xbd94f46d	-0.07273183
200	0xbcbec65a	-0.02328794
201	0x3d4367a2	0.047706254
202	0xbad95d68	-0.0016583623
203	0x3ce448d8	0.027866766
204	0xbcdc83cc	-0.026918314
205	0xbc8aea26	-0.016957354
206	0xbcb336d2	-0.021876726
207	0xbd95859e	-0.07300876
208	0x3a8bd4ae	0.0010668242
209	0xbd8a4582	-0.06751539
210	0xbd8c65c3	-0.06855347
211	0x3b8f0c6b	0.004365494
212	0xbbc8afca	-0.0061244713
213	0x3db85f33	0.09002533
214	0x3da109a8	0.0786317
215	0xbc732b9f	-0.014841943
216	0xbdd0bb83	-0.10192015
217	0xbc9b3572	-0.018946383
218	0xbd1b150c	-0.03786187
219	0xbc45575d	-0.012044755
220	0xbcfb4a6e	-0.03067514
221	0x3cb75564	0.022379585
222	0xbdd9f3e3	-0.10642221
223	0xbdbd229a	-0.09235115
224	0x3d2a9c55	0.041652996
225	0xbc0cac3d	-0.008585987
226	0xbda0fa79	-0.07860274
227	0xbdce7819	-0.100815006
228	0xbd3aa67a	-0.04556892
229	0x3cc98fc8	0.024604693
230	0xbc8bcce9	-0.017065482
231	0x3d3fa8de	0.046791904
232	0xbd69c342	-0.057070978
233	0x3c07eb82	0.0082958955
234	0xbdf25d5a	-0.11834212
235	0xbd3a8d3b	-0.045544844
236	0xbcb8f646	-0.02257837
237	0xbdc2cbf1	-0.09511555
238	0xbd28e1f7	-0.041231122
239	0xbd950b7e	-0.072775826
240	0xbd19128f	-0.037371214
241	0xbde57e74	-0.1120576
242	0xbc8c2b04	-0.017110355
243	0xbc88a830	-0.01668176
244	0x3a4450c8	0.0007488844
245	0xbcf9d722	-0.030498091
246	0xbc391139	-0.01129561
247	0xbdcbef6d	-0.09957776
248	0xbb849dda	-0.0040471377
249	0xbc053118	-0.008129381
250	0x3d4b0eb7	0.04957458
251	0xbde1fae2	-0.1103418
252	0xbd20758c	-0.0391746
253	0xbdbfb2f7	-0.09360307
254	0xbba8ec5a	-0.0051551284
255	0xbc98dbdd	-0.018659526

bias f4 [32]
0	0x3b46f34e	0.0030357423
1	0xbd01990d	-0.0316401
2	0xbd4e9db1	-0.050443355
3	0xbd086872	-0.03330273
4	0xbd37a7ee	-0.044837885
5	0xbca56e71	-0.020194264
6	0xbdc41472	-0.09574212
7	0xbc83a705	-0.016070852
8	0xbd563058	-0.052292198
9	0xbdf4e789	-0.11958224
10	0xbd4f076f	-0.0505442
11	0xbdda14b1	-0.10648478
12	0xbd21965d	-0.03945004
13	0xbce8ef34	-0.028434373
14	0xbc422b30	-0.011851117
15	0xbd2482d5	-0.040163834
16	0xbdaf5104	-0.085603744
17	0xbd9983b5	-0.07495824
18	0xbc4e8a7c	-0.012606259
19	0xbd696f12	-0.05699069
20	0xbd09b3f4	-0.033618882
21	0xbc2cfabd	-0.010557828
22	0xbcbf7a50	-0.023373753
23	0xbdb4551f	-0.08805298
24	0xbd319b2c	-0.043360874
25	0xbdf62cd7	-0.12020271
26	0xbdb2dfdb	-0.08734103
27	0xbd403b50	-0.046931565
28	0xbdbd0d28	-0.09231025
29	0xbd1914f3	-0.037373494
30	0x3c1e77f5	0.009672155
31	0xbd7ed176	-0.062211476

weight f4 [3, 8192]
0	0x3d011215	0.031511385
1	0x3d0ab5c4	0.03386475
2	0x3d48aa98	0.048990816
3	0x3d45f21d	0.0483266
4	0x3d15207a	0.036407925
5	0xbd114ba8	-0.035472542
6	0x3d21326c	0.039354727
7	0x3d4460a9	0.047943745
8	0x3d3e15cc	0.046407506
9	0x3d623aac	0.055231735
10	0x3d432c48	0.04764965
11	0x3d59d916	0.053185545
12	0x3d3c170c	0.045920417
13	0x3d60a2ee	0.05484288
14	0x3d3f9d7c	0.04678105
15	0x3d4dd549	0.050252233
16	0x3d797adc	0.060908183
17	0x3d55ddd5	0.05221351
18	0x3d407057	0.046982136
19	0x3d541987	0.051782157
20	0x3d04ffa5	0.032470364
21	0x3d628dce	0.055311017
22	0x3d1fe9de	0.039041393
23	0x3d4e43d1	0.050357644
24	0x3d571d4f	0.052518185
25	0x3d40cea5	0.04707207
26	0x3d599536	0.053120814
27	0x3d64782f	0.05577868
28	0x3d0aed11	0.03391749
29	0x3d7a4929	0.061104927
30	0x3d33c604	0.043890014
31	0x3d6d4fc3	0.057937395
32	0x3d25d485	0.040485878
33	0x3d12b2dc	0.035815105
34	0x3d6c6f4b	0.057723325
35	0x3d379fba	0.04483006
36	0x3d4693c9	0.048480783
37	0x3d472067	0.048614886
38	0x3d4e8c3e	0.050426714
39	0x3d60dc46	0.05489757
40	0x3d672aa9	0.05643717
41	0x3d6b9cbd	0.057522524
42	0x3d2b199a	0.041772462
43	0x3d242e9f	0.040083524
44	0x3d65c835	0.056099135
45	0x3d470d93	0.04859693
46	0x3d1f24e4	0.03885354
47	0x3d6f01f8	0.058351487
48	0x3d378985	0.044808883
49	0x3d3c8fca	0.046035565
50	0x3d660e70	0.056166112
51	0x3d62758f	0.055287894
52	0x3cd463d9	0.025926517
53	0x3d758045	0.05993678
54	0x3d7ee1e9	0.062227163
55	0x3d6775ac	0.056508705
56	0x3d69a406	0.05704119
57	0x3d56fcbb	0.052487116
58	0x3d7376e3	0.05943955
59	0x3c7846f9	0.01515364
60	0x3d0dbf09	0.034606013
61	0x3d221fbb	0.03958104
62	0x3d46ba1f	0.048517343
63	0x3d37b79d	0.04485284
64	0x3d41b805	0.047294635
65	0x3d774c1a	0.06037531
66	0x3d1f2b54	0.03885968
67	0xbc370d4e	-0.011172606
68	0x3d16c136	0.036805354
69	0x3d35d7ed	0.044395376
70	0x3d367277	0.044542756
71	0x3d654b7e	0.055980198
72	0x3d35768d	0.044302512
73	0x3d17f352	0.037097283
74	0x3d6669a5	0.056253094
75	0x3d1aaafa	0.037760712
76	0x3d401564	0.0468954
77	0x3d31ec53	0.043438267
78	0x3d48bf29	0.04901043
79	0x3c4fedff	0.01269102
80	0x3d41e6c0	0.0473392
81	0x3d5e0bde	0.054210536
82	0x3d496bd6	0.049175106
83	0x3d2bea15	0.041971285
84	0x3d23c273	0.039980363
85	0x3d2946c4	0.041327253
86	0x3d4b353a	0.049611308
87	0x3d2462a2	0.040133126
88	0x3d596512	0.053074904
89	0x3d3f2d05	0.046673793
90	0x3d3d3c76	0.04620024
91	0x3d6b6315	0.05746754
92	0x3d24421d	0.040102113
93	0x3d4ab39f	0.049487706
94	0x3d67998f	0.05654293
95	0x3d609411	0.054828707
96	0x3d372592	0.044713564
97	0x3d52ce9b	0.051466566
98	0x3d38b75b	0.045096736
99	0x3d667db5	0.056272227
100	0x3d22ae10	0.03971678
101	0x3d26376c	0.0405802
102	0x3d315028	0.043289334
103	0x3d3242c2	0.043520696
104	0x3d269fa3	0.040679585
105	0x3d2136b8	0.039358824
106	0x3d25b11a	0.0404521
107	0x3d2f61f4	0.042818025
108	0x3d40a25d	0.04702984
109	0x3d754687	0.059881713
110	0x3d2cc328	0.042178303
111	0x3d29c315	0.04144581
112	0x3d290bbd	0.04127096
113	0x3d6ffa73	0.058588456
114	0x3d58902a	0.05287186
115	0x3d6d8b1f	0.057994004
116	0xbd909976	-0.0706052
117	0x3d693f8d	0.056945372
118	0x3d425769	0.047446642
119	0x3d6fac5c	0.058513984
120	0x3d36b67b	0.04460762
121	0x3d4248c8	0.04743269
122	0x3d481d8d	0.048856307
123	0x3d1aaa38	0.03775999
124	0x3d1be660	0.0380615
125	0x3d4546ca	0.048163213
126	0x3d5239ec	0.05132477
127	0x3d5e83ba	0.054324843
128	0x3d25e61a	0.040502645
129	0x3d496e9c	0.04917775
130	0x3d6dae81	0.058027748
131	0x3d400283	0.046877395
132	0x3d3fd440	0.046833277
133	0x3d4f69ec	0.050638124
134	0x3d62d51f	0.05537903
135	0x3cb24adf	0.021764217
136	0x3d79ba91	0.06096894
137	0x3d50e4e1	0.050999526
138	0x3d65709d	0.0560156
139	0x3d386f9c	0.045028314
140	0x3d580ace	0.05274468
141	0x3d6ebb1e	0.058283918
142	0x3d4923d8	0.04910645
143	0xbd3a838a	-0.0455356
144	0x3d2a4ee5	0.041579146
145	0x3d3b0498	0.045658678
146	0x3d628f74	0.05531259
147	0x3d2a32f7	0.04155251
148	0x3d46f360	0.048571944
149	0xbd4bc1ba	-0.0497453
150	0x3d425641	0.04744554
151	0x3d21ca38	0.03949949
152	0x3d73bdf5	0.05950733
153	0x3d3fd548	0.04683426
154	0x3d4a9066	0.049454115
155	0x3d68f3bb	0.056873064
156	0x3d7295b4	0.0592248
157	0x3d6d2ff2	0.057907052
158	0x3d4ada59	0.04952464
159	0x3d3e8f8e	0.046523623
160	0x3d1e5fce	0.038665585
161	0x3d4dc838	0.05023977
162	0x3d65c40b	0.056095164
163	0x3d541df4	0.051786378
164	0x3d0f2841	0.0349505
165	0x3d26b933	0.040703963
166	0x3d3a459c	0.04547654
167	0x3d4c6540	0.049901247
168	0x3d2fc214	0.042909697
169	0x3d4abf58	0.049498886
170	0x3d2e094f	0.042489346
171	0x3d3b1790	0.045676768
172	0x3d68130d	0.056658793
173	0x3d14e65d	0.036352504
174	0x3d59593a	0.05306361
175	0x3d39bc8e	0.045345835
176	0x3d043f9a	0.032287218
177	0x3d75676a	0.059913076
178	0x3d4288a4	0.047493592
179	0x3d2a8e4e	0.04163962
180	0x3d659ec1	0.056059603
181	0x3d690043	0.056885015
182	0x3d1157ed	0.035484243
183	0x3d54f5ca	0.051992215
184	0x3d57adea	0.05265609
185	0x3d7bd373	0.06148095
186	0x3d4c6959	0.049905155
187	0x3d5c23ee	0.053745203
188	0x3d5112d4	0.051043347
189	0x3d454ef3	0.048170995
190	0x3d2b6f2f	0.04185408
191	0x3d490ab4	0.049082473
192	0x3ccbd62f	0.024882404
193	0x3d45e012	0.048309393
194	0x3d6cd6f9	0.0578222
195	0x3d6f1aab	0.058375042
196	0x3d4c23d9	0.049838874
197	0x3d171679	0.036886666
198	0x3d738b1f	0.059458848
199	0x3d1dcc54	0.03852494
200	0x3d22e1e3	0.039766204
201	0x3d404fd3	0.046951126
202	0x3d496f04	0.04917814
203	0x3d50e62b	0.051000755
204	0x3d2f0725	0.042731423
205	0x3d491572	0.049092717
206	0x3d62e415	0.055393297
207	0x3d2e792c	0.042596027
208	0x3d126401	0.035739902
209	0x3d3d6bd2	0.046245404
210	0x3d37ee46	0.04490497
211	0x3d38159e	0.04494249
212	0x3d62baf6	0.05535408
213	0x3d5f8134	0.054566577
214	0x3d225e94	0.039640978
215	0x3d57ae16	0.052656256
216	0x3d6349e8	0.055490404
217	0x3d676f23	0.056502473
218	0x3d2d6081	0.04232836
219	0x3d6b98ad	0.05751865
220	0x3d4cc3a1	0.049991254
221	0x3d291eda	0.041289188
222	0x3d61bcef	0.05511182
223	0x3d3265a8	0.04355398
224	0x3d3b13d7	0.045673218
225	0x3d3d0698	0.046148866
226	0x3d3589e4	0.044320956
227	0x3d3bcc4a	0.045849122
228	0x3d59584a	0.053062715
229	0x3d2c2263	0.04202498
230	0x3d1471b1	0.036241237
231	0x3d449bbe	0.04800009
232	0x3d4492a1	0.0479914
233	0x3d7429f5	0.059610326
234	0x3d3793bd	0.04481863
235	0x3d77ab7c	0.060466275
236	0x3d2b4314	0.041812018
237	0x3d5ac068	0.05340615
238	0x3d4ac835	0.04950734
239	0x3d2939f6	0.04131504
240	0x3d6275d7	0.055288162
241	0x3d2f15d7	0.042745437
242	0x3d2dc48c	0.04242377
243	0x3d75e175	0.060029466
244	0x3d051d92	0.032498904
245	0x3d290966	0.04126873
246	0x3c3b0e09	0.01141692
247	0x3d50ec95	0.051006872
248	0x3d1e233f	0.038607832
249	0x3d58b46c	0.05290644
250	0x3d3a1058	0.045425743
251	0x3d55d6b1	0.0522067
252	0x3d7201c4	0.059083715
253	0xbd9a49ba	-0.075335935
254	0x3d42ad5e	0.047528617
255	0x3d585f19	0.052825067

bias f4 [3]
0	0x3b1f9a58	0.002435347
1	0xbcc0eb86	-0.023549806
2	0x3cfb3ce8	0.03066869
