Neural_network_Projects/plant_disease_recognition/recognize_disease_test.pt (torch, 171210 bytes, 10 tensors)

weight f4 [16, 3, 3, 3]
000000 31 a1 22 3e c0 da 84 bc 7b 01 08 be 8a 95 8d 3d
       0.15881802 -0.01621759 -0.13281815 0.06913288
000010 40 9a 20 be b8 c1 0a 3d 86 cb f8 3d e0 2a 7e bd
       -0.15683842 0.03387615 0.12148194 -0.062052608
000020 98 9a a7 bc b8 35 33 bd a5 e4 e5 bd 80 89 05 bc
       -0.020459458 -0.043752402 -0.11225251 -0.008150458
000030 d8 58 a8 bc 30 78 19 bd e8 dc a6 bc e3 27 ee bd
       -0.020550177 -0.037468135 -0.020369008 -0.116287015
000040 c8 59 7d bd 80 e0 fc 3c 19 0c 3a be 40 c2 36 3c
       -0.0618532 0.030868769 -0.18168677 0.011154711
000050 31 3a 0f be a8 80 83 bd 2e 39 cf bd c0 62 6a bc
       -0.13987042 -0.064210236 -0.10118328 -0.01430577
000060 d0 51 48 3d c8 e9 a3 bc 58 9b 4a 3d 60 e1 e5 bc
       0.048906147 -0.020008937 0.049464554 -0.028061569
000070 35 0c ff bd 24 a4 10 3d ee 1f 39 be e0 62 ec bc
       -0.124535 0.035312787 -0.18078586 -0.028855741
000080 a8 b6 b6 3c 8a 1e 0f be ab a4 04 3e 20 fe b4 3b
       0.022303894 -0.13976493 0.12953441 0.005523458
000090 f7 51 04 3e da 7e ef 3d 88 d5 89 bc 2b c9 06 3e
       0.12921892 0.11694117 -0.016825452 0.13162677
0000a0 1f 8d 9e bd 28 2e 0a be 46 b6 41 be 90 4d 0d bc
       -0.077417605 -0.1349417 -0.18917188 -0.008624449
0000b0 5d 25 02 3e 50 b4 3c 3c c0 c0 42 3d 28 83 2f be
       0.12709565 0.011517599 0.047547102 -0.17139876
0000c0 32 9e c8 bd e8 9e 38 bd d5 54 1d be 0e be 19 be
       -0.09795798 -0.04507342 -0.15364392 -0.15013906
0000d0 28 b8 2c bd 05 74 e4 bd 09 da 31 be 35 75 e2 bd
       -0.042167813 -0.111549415 -0.1736833 -0.11057512
0000e0 81 0b b9 bd b0 d1 58 bc 60 63 dd bd 75 43 33 be
       -0.09035397 -0.013233587 -0.1080997 -0.17506202
0000f0 30 13 e3 3c 13 b0 03 3e a3 84 15 3e eb 6e e4 bd
       0.02771911 0.12860136 0.14601378 -0.111539684
000100 0d 76 95 bd 8f 8a 27 3e 46 1c ff bd 60 e9 84 bc
       -0.07297907 0.1636145 -0.124565646 -0.016224563
000110 b0 9e b5 bc 80 94 64 bd ce c8 dd bd 59 8a d1 bd
       -0.022170395 -0.055805683 -0.10829316 -0.10231466
000120 20 83 d8 3c ee 40 03 be e0 f7 3f 3c 80 bc 8a ba
       0.026429713 -0.12817737 0.011716813 -0.0010584742
000130 f0 37 06 3d 2b 74 e3 bd 50 79 bd bd c0 04 41 3b
       0.03276819 -0.11106142 -0.09251654 0.0029452294
000140 9f 07 44 3e d1 66 0c 3e e6 28 b9 3d ed 74 1a 3e
       0.19143532 0.13711096 0.09041004 0.15083666
000150 3d 2b 39 3e 00 97 af 3c 8c b6 77 3d 3a 53 a6 3d
       0.180829 0.021434307 0.060476825 0.08121343
000160 58 f0 e2 bc ca 24 a4 3d 68 46 e2 bc 2a 27 f2 3d
       -0.027702495 0.080148295 -0.027621463 0.11823876
000170 53 33 22 3e be 46 9e bd 95 78 a8 bd 70 d4 da 3c
       0.15839891 -0.07728337 -0.08226124 0.026712626
000180 c9 2f 07 3e 04 3b 4c 3d a4 f6 15 be 88 36 e8 bc
       0.13201822 0.04986097 -0.14644867 -0.028346315
000190 aa 41 bb 3d 2e 1d ac 3d fa 73 f9 3d eb 52 3e 3e
       0.09143384 0.08404003 0.12180324 0.18586318
0001a0 35 c3 05 3e c6 a7 c3 3d b0 b3 08 bc 30 17 23 be
       0.13062747 0.095534846 -0.008343622 -0.15926814
0001b0 6d 91 35 3e 18 b2 eb bc d2 77 9c 3d 84 57 78 3d
       0.17731257 -0.028771445 0.076400414 0.060630336
0001c0 d6 01 ad 3d 86 3a a4 3d 9d b7 dc bd 4d b5 0b 3e
       0.08447616 0.08018975 -0.10777209 0.1364338
0001d0 9b 05 28 3e 60 3b 9f 3c f6 bd c0 3d 2d 03 9f bd
       0.16408388 0.019437492 0.09411232 -0.077642776
0001e0 e5 91 8c bd a6 0f 81 3d 94 97 ad bd cb ed 28 3e
       -0.06863765 0.06301813 -0.08476177 0.16496961
0001f0 d0 05 68 bc 00 5f 65 3c 36 54 16 be 82 61 b0 bd
       -0.014161542 0.013999701 -0.14680561 -0.08612348
000200 89 7d a4 bd c9 49 3f be cb b4 bd bd 20 1c ee bc
       -0.080317564 -0.1868049 -0.09262999 -0.029066145
000210 0b 3a 41 3e 94 84 9c bd 24 07 23 3d 0a 51 d9 3d
       0.18869798 -0.07642475 0.03980173 0.1061116
000220 b0 b2 0c bd d7 29 3d 3e f7 2a 35 3e 1a 1e e8 3d
       -0.034350097 0.18472992 0.17692171 0.113338664
000230 5d 36 0c 3e 62 ee d0 3d 7f 2e 09 3e 42 09 b9 bd
       0.13692613 0.10201718 0.13396643 -0.09034969
000240 00 77 3f bc 67 d9 11 3e 52 5d 29 be 00 ba c4 3a
       -0.011686087 0.14243089 -0.16539505 0.0015009046
000250 80 15 ca bb 00 57 1a 3a 00 3b 9a bc 18 37 9f 3c
       -0.006167114 0.0005887598 -0.018826962 0.01943545
000260 7d 85 8f bd 96 a6 cd 3d 9d 1c 19 3e 60 2c 63 3d
       -0.07007883 0.10041539 0.14952321 0.05546224
000270 0d 08 10 3e 46 ac 37 be 80 4d b3 3a ad a4 09 3e
       0.14065571 -0.17936811 0.0013679713 0.13441725
000280 be 92 b9 3d e8 58 a2 bc b0 0b 21 3d 1a 85 ff bd
       0.09061192 -0.019817784 0.039317787 -0.12476559
000290 00 75 18 bb 40 12 43 3d 68 59 9e bc 2e d6 d3 3d
       -0.0023263097 0.047624826 -0.019329742 0.10343586
0002a0 55 ec 3d 3e 38 42 8f 3c 50 ac 5e bc 8e db af 3d
       0.18547185 0.01748763 -0.013590887 0.085867986
0002b0 28 aa c9 bd f8 45 98 bc 5f 9d 9e bd 8b ce 11 3e
       -0.09846908 -0.018588051 -0.0774486 0.14238946
0002c0 88 e2 15 be c3 f6 24 3e 20 e9 f8 bc 33 1b de bd
       -0.14637196 0.16109757 -0.0303846 -0.108450316
0002d0 28 a5 d3 bc 78 27 5c 3d 23 9f d5 bd dc 22 0b bd
       -0.025835589 0.053748578 -0.104307435 -0.03396879
0002e0 e5 41 10 3e 82 64 32 be 80 c6 96 bc d0 c5 0f 3c
       0.14087637 -0.17421153 -0.018405199 0.0087751895
0002f0 00 f5 47 3c aa 6b 26 be 05 cf 1d be 1c 0a 1b be
       0.012204409 -0.16252008 -0.15411003 -0.15140575
000300 34 75 32 bd 9e 04 f9 3d 98 56 47 bd 94 d8 13 3d
       -0.043568805 0.12159084 -0.048666567 0.036095217
000310 20 ea 92 3b cc e9 60 bd 50 fc d0 3c 9a 2a b2 3d
       0.0044834763 -0.054910466 0.025510937 0.08699532
000320 01 7c 04 3e 3b 58 2d be 9b 0a 07 3e 7e c8 f9 3d
       0.12937929 -0.16928189 0.1318764 0.12196444
000330 00 69 8a bc 7a 8b 80 bd d8 a2 f2 bc 55 b8 17 be
       -0.016895771 -0.06276603 -0.029618666 -0.14816411
000340 c0 76 08 be da 92 c8 bd c7 28 09 be ed 81 30 3e
       -0.1332655 -0.09793635 -0.13394462 0.17237063
000350 b4 0c 41 3d 29 54 1d be ba 5e 13 be 60 01 ff bc
       0.047131255 -0.15364136 -0.14391604 -0.031128585
000360 7c 29 9d bd 20 37 5d bc 14 ce 0d 3d b7 11 ff bd
       -0.07673928 -0.013501912 0.03462036 -0.12454551
000370 27 f0 24 3e 30 70 f5 bd f8 63 35 bd e8 ef a2 3c
       0.16107236 -0.11984289 -0.04428479 0.019889787
000380 67 9f 07 3e 1c e1 0e bd 0f 90 c8 bd eb cd 13 3e
       0.13244401 -0.03488265 -0.09793102 0.1443402
000390 88 3b 02 3d 40 fa 59 3d b1 6c 30 3e a2 36 a7 3d
       0.031795055 0.053217173 0.17228962 0.08164717
0003a0 d8 7a da bd 66 97 aa bd 47 95 10 3e 32 33 c3 bd
       -0.10667962 -0.08329658 0.14119445 -0.09531249
0003b0 c5 de ad bd df 34 2d 3e e5 f9 cd bd a8 c5 e8 bc
       -0.084897555 0.169147 -0.10057429 -0.028414562
0003c0 20 d0 9b bb b2 5c 8a 3d 80 91 2e bb e6 ea 39 be
       -0.004755035 0.067559615 -0.0026637018 -0.18156013
0003d0 0a a2 42 be a4 4a cb bd 03 32 3c 3e c6 ec b4 3d
       -0.19007125 -0.09926346 0.18378453 0.088342234
0003e0 ef 1d 22 be 96 e6 fe 3d 4c 5d 01 bd b8 90 90 3c
       -0.15831731 0.124463245 -0.031583115 0.017647132
0003f0 02 d5 c0 3d f0 bc 7d 3c 60 81 19 3c 20 69 a8 bd
       0.09415628 0.015486941 0.009369224 -0.08223176

bias f4 [16]
000000 73 64 26 3e 60 2b 23 be 6c 7f a9 bd de 2c d9 3d
       0.16249256 -0.15934515 -0.08276257 0.10604261
000010 2e 8e 3c be 19 93 32 3e c0 81 d1 3b e2 5c e3 3d
       -0.18413612 0.17438926 0.0063936412 0.111017
000020 60 eb fa 3c 5d 6c 2b be 20 9e 04 be ed 0a 21 3e
       0.030629814 -0.16740556 -0.12950945 0.15726824
000030 23 44 34 be c4 46 26 3d f0 5e d6 bd e8 32 d3 bd
       -0.17604117 0.04059483 -0.10467327 -0.10312444

weight f4 [16, 16, 3, 3]
000000 c8 52 1b bc de 1c 6c bd 0a dc 47 3d 5c 16 af bc
       -0.009480186 -0.057644717 0.04879383 -0.021372966
000010 b8 24 17 3c 80 6c 43 3c de 87 22 bd 34 cf 80 bc
       0.009225063 0.011927724 -0.039680354 -0.015723802
000020 98 01 18 bc dc 51 ac bc 9b 8d 80 3d 76 b5 6a 3d
       -0.009277724 -0.021035127 0.06277009 0.05730196
000030 76 b0 6b bd 00 70 99 b9 dd 11 99 3d 26 62 ba bc
       -0.057541333 -0.0002926588 0.0747411 -0.022751879
000040 a1 53 98 3d ae 56 2c 3d d6 3a 62 3d 67 52 8c 3d
       0.07437826 0.04207485 0.05523189 0.068516545
000050 c0 b2 03 bd 00 32 68 3b ea 9c 1b 3d 79 45 a6 3d
       -0.03215289 0.0035430193 0.03799144 0.081187196
000060 b8 ab 94 bd 04 fa 8f bc d8 1a 10 3d b8 5c 76 bc
       -0.07259315 -0.017575271 0.03518185 -0.015036754
000070 20 30 0b bb 5b 33 8e 3d 7a 99 7a 3d 6c 12 83 3c
       -0.0021238402 0.06943389 0.061181523 0.015999995
000080 6a 6c 51 3d 9a 95 46 3d 7c 36 a1 bc 8e 2f 97 bd
       0.051128782 0.048482515 -0.0196793 -0.07382117
000090 80 b5 39 ba 42 f8 0a 3d 68 a5 01 3c 30 15 ba 3b
       -0.00070842355 0.033928163 0.007912971 0.0056787953
0000a0 9a 5b 79 3d 90 5f bb 3c b2 96 59 3d 3e 57 27 3d
       0.060878374 0.022872716 0.05312223 0.040854685
0000b0 ab 64 78 bd 66 72 2c bd e0 d5 94 bc 78 57 1d 3d
       -0.06064288 -0.042101286 -0.01816839 0.038413495
0000c0 66 7f 13 bd 1b f9 0e bd 60 af 17 3d be d1 2b bd
       -0.03601017 -0.034905534 0.037032485 -0.041948073
0000d0 53 cd 44 bd 58 33 15 3d 93 96 96 3d 2c cb d0 bc
       -0.048047375 0.03642592 0.073529385 -0.025487505
0000e0 7b 70 65 bd e8 ee 2e bd 90 0e c3 bc c0 37 21 3d
       -0.056015473 -0.042708308 -0.023810655 0.039359808
0000f0 4c a0 93 bc 68 18 0b 3d f2 1d 98 bd a3 98 98 bd
       -0.018020771 0.033958822 -0.074275866 -0.07450988
000100 45 46 8d 3d da 5f 73 3d aa e3 0f 3d 42 3c 28 3d
       0.068981685 0.059417583 0.035129227 0.04107309
000110 d3 1a 35 bd 40 c0 22 bc 72 b1 0f 3d a8 ff 17 3c
       -0.044215035 -0.009933531 0.035081334 0.009277262
000120 b3 d0 70 bd e6 e5 7a bd 18 d6 74 bd ab 76 22 bd
       -0.05879278 -0.061254404 -0.05977449 -0.03966395
000130 6b c6 a0 bd 9c 89 dc 3c 15 bd a6 3d a0 62 4d bb
       -0.07850345 0.026921086 0.08141533 -0.0031339303
000140 56 0d 65 3d 0e fb 84 bd 63 ad 84 3d 60 db a7 bc
       0.05592092 -0.064931974 0.064783834 -0.020490348
000150 f0 0a a2 bb fa dd 38 3d c3 a6 4a bd 3c a0 df bc
       -0.0049451515 0.04513357 -0.049475443 -0.027298085
000160 6a 55 61 3d 80 62 ce 3c 91 b8 91 3d 82 1b 60 3d
       0.055013098 0.025193453 0.071152814 0.054713733
000170 a6 c3 61 bd b6 46 cf bc 60 cc f5 3c c3 e9 8d 3d
       -0.055118226 -0.025302272 0.03000468 0.06929352
000180 74 99 a8 bc c0 a1 a4 3c 24 15 c7 3c bc 89 f1 3c
       -0.020580985 0.02009666 0.024302073 0.029484622
000190 47 e1 92 bd 26 de 9f bd 9e 67 22 3d e8 3a 86 bd
       -0.071718745 -0.07806043 0.0396496 -0.06554204
0001a0 ac d5 c7 3c 78 79 31 bc 14 7e a3 3c 10 1b 18 bd
       0.024393879 -0.010832183 0.01995758 -0.037135184
0001b0 a0 21 76 bb f5 e2 89 3d 02 e4 32 3d 40 e3 e0 ba
       -0.0037556663 0.06732742 0.043674476 -0.001715757
0001c0 01 7a 8d 3d 6c 23 9a 3c 3c 9d 81 bc ce 2f 91 bd
       0.06908036 0.018815719 -0.015822046 -0.07089196
0001d0 1d 0c 85 3d 4c 4f aa bd 2c 12 ad bc 5e d4 7c bd
       0.06496451 -0.08315906 -0.02112683 -0.061725967
0001e0 c0 fe ea 3a 6a dc 14 3d 78 93 0c 3d 8e a6 42 bd
       0.0017928705 0.036343016 0.034320325 -0.04752212
0001f0 30 9b cb 3b dc 30 98 bc 8c bf c1 bc 64 6b aa bc
       0.006213568 -0.018577985 -0.023650907 -0.020803161
000200 dc fe 98 bc 5c 55 c4 3c 98 7e 94 bd b0 4a e6 bb
       -0.018676214 0.023966484 -0.07250708 -0.0070279464
000210 a8 e7 39 bc 7c e4 e6 3c 78 73 40 3c 98 9e 66 bc
       -0.011346735 0.028185122 0.01174628 -0.014075898
000220 6a 11 7b 3d 44 f0 91 bc 00 ba 02 3b c0 c8 89 3c
       0.061295904 -0.017814763 0.001994729 0.016819358
000230 a8 95 a9 bd 86 70 1b bd 9e 77 8c bd 34 55 b4 3c
       -0.08280498 -0.037949108 -0.06858753 0.022013284
000240 20 ad 3a bc 98 b2 27 3c f8 25 27 3d 56 2c 2d 3d
       -0.011393815 0.010235451 0.040807694 0.04227861
000250 25 3a 9f 3d 53 1e 81 bd ee cb 37 bd a8 9c 01 bc
       0.07774762 -0.06304612 -0.044872217 -0.007910885
000260 a6 c4 fe bc 08 1a 2c bd ce 39 6f bd 68 1c 5b bd
       -0.031099629 -0.042017013 -0.058404736 -0.053493887
000270 1a 6d 4d 3d 8b 36 3c bd 88 66 2f 3c 18 6a 52 bd
       0.050152875 -0.045950454 0.010705598 -0.05137071
000280 8c fa f7 bc 9a b7 61 3d ee a5 1a 3d 20 40 69 3b
       -0.030270837 0.055106737 0.0377559 0.00355912
000290 ab 84 8f bd 08 17 2c 3c 10 70 6d bd a0 b1 18 3c
       -0.07007726 0.010503538 -0.0579682 0.009319693
0002a0 d8 a1 73 bd 36 41 98 bd 08 a2 45 3c 4a 46 84 bd
       -0.059480518 -0.07434313 0.012062557 -0.06458719
0002b0 81 6a a1 3d fd e4 95 3d fd cf 9d 3d 98 46 71 bc
       0.07881642 0.07319067 0.07705686 -0.0147263035
0002c0 77 35 99 bd ff a6 95 3d 1a 8f 7f 3d b6 a8 aa bd
       -0.07480901 0.073072426 0.06239233 -0.0833296
0002d0 50 a7 8b 3b 3e 3f 99 bd 90 a1 25 3d ec da 87 bd
       0.0042618886 -0.074827656 0.04043728 -0.06633553
0002e0 e0 65 a0 bd 06 1f 2a 3d 10 f2 41 bd a2 1d 7a 3d
       -0.07831931 0.041533493 -0.04734999 0.061063416
0002f0 00 7d e2 3a ce 8e 19 3d 6b 6f 71 bd ec bc ea 3c
       0.0017279685 0.037489705 -0.058944147 0.028654538
000300 c4 be 9d bd a8 7a 2e bc e0 17 ae bc 06 86 23 3d
       -0.07702401 -0.010649361 -0.021251619 0.039922737
000310 3d ec a5 3d 62 2b 2e 3d 01 2e 9c 3d 0c 3e a4 bd
       0.081016995 0.04252184 0.07625962 -0.08019647
000320 65 d7 a5 3d 62 56 48 3d 58 e3 04 3c b8 e0 9d bd
       0.08097724 0.048910506 0.008110844 -0.07708877
000330 ae 98 a4 bd 0b 43 33 bd 5e 24 34 3d 76 dd 58 3d
       -0.08036934 -0.04376511 0.043979995 0.052945577
000340 dc a5 92 3c 00 5b 47 bc ac bf 98 bd e0 0f 6d 3c
       0.017901354 -0.012167692 -0.074584335 0.014469117
000350 d2 b0 a8 bd 8d 9a 86 3d 1a 31 7f 3d 22 26 48 3d
       -0.08236851 0.06572447 0.062302686 0.04886449
000360 d1 48 a9 3d 38 fe 00 3c 06 97 04 3d 07 c6 88 bd
       0.08265842 0.0078731105 0.03237059 -0.06678396
000370 18 a6 2c bd a0 3a 5f bc b6 ba a6 bd 3c 8d 83 bc
       -0.042150587 -0.013624817 -0.08141081 -0.016058557
000380 25 f9 a6 3d b0 fe 92 3b 5b 5d 98 bd 2f 0e a7 3d
       0.08152989 0.0044859275 -0.07439681 0.08157002
000390 8a f7 7c 3d e6 08 49 bd 94 81 b3 3c be 85 23 bd
       0.06175951 -0.04908075 0.021912374 -0.03992247
0003a0 f2 ac 90 bd fd 94 97 3d db 18 70 bd 7c b5 a1 bc
       -0.07064237 0.07401464 -0.058617454 -0.019739859
0003b0 a0 4f 2d bc 43 45 83 3d c0 6a 88 3b e0 60 54 bc
       -0.010578066 0.06409695 0.004163116 -0.01296255
0003c0 96 4c f0 bc 82 24 29 3d c0 07 b3 bb 86 cb 75 bd
       -0.029333394 0.041294582 -0.0054635704 -0.06000855
0003d0 28 5d 5c bc 70 1a 80 bc 73 90 a0 3d 98 83 28 bc
       -0.013449945 -0.015637606 0.078400515 -0.010285281
0003e0 a3 08 52 bd 00 2f c3 3c 06 e2 b9 bc a2 4b 52 3d
       -0.051277768 0.023826122 -0.022690784 0.05134166
0003f0 f6 42 bc bc bc 8c 83 3c 22 37 61 3d 28 08 0f bd
       -0.022981148 0.016058318 0.05498422 -0.034919888

bias f4 [16]
000000 a6 7e bb bc 58 56 a8 bd 9e 0c 1b 3d 23 1f 38 bd
       -0.02288754 -0.08219594 0.03785383 -0.04495157
000010 f3 5b 26 bd 86 0a cf bc 0e 0b 4c 3d c0 7e a4 bd
       -0.040615033 -0.025273573 0.04981523 -0.08031988
000020 cd 97 a5 3d 20 f8 e1 3c 50 90 b4 3c 48 1b 4b 3c
       0.08085594 0.027584136 0.02204147 0.012396641
000030 00 ba a2 bc 56 6a 37 3d c0 fc bf 3b db dd a4 bd
       -0.019864082 0.044779144 0.0058589876 -0.08050128

weight f4 [32, 16, 3, 3]
000000 e4 d5 ab 3c f5 d2 90 3d a2 71 53 3d 89 45 a8 3d
       0.020976014 0.07071487 0.05162204 0.08216388
000010 b0 d7 b7 3b e7 1b 9c bd 05 61 a7 3d 5c 6f f2 3c
       0.0056104288 -0.076225094 0.08172802 0.029594116
000020 2c df cd 3c 27 da 8f 3d 5c f2 df 3c da 01 7d 3d
       0.02513083 0.07024031 0.027337246 0.061769344
000030 c0 80 fa 3b 76 42 f8 bc 44 8f 8e bd 40 02 86 3c
       0.0076447427 -0.030305129 -0.069609195 0.016358495
000040 0b ea 8b 3d c4 1b 86 bd 86 64 7f 3d 0f 7d 91 3d
       0.068317495 -0.065482646 0.062351726 0.07103931
000050 f3 e4 9f 3d 74 1c 87 bd 66 6a d8 bc 5e 72 78 3d
       0.078073405 -0.06597224 -0.026417922 0.060655944
000060 e6 fc b0 bc 8b f9 a2 3d 88 42 a7 bd 84 28 82 3c
       -0.021604966 0.07957753 -0.08166987 0.01588846
000070 c0 27 34 bc cf 70 9c bd dc 97 d8 bc 86 c2 35 bd
       -0.010995805 -0.07638704 -0.0264396 -0.044374965
000080 0a c1 58 3d c0 76 63 bc ba 2b 5a 3d db 3a a3 bd
       0.05291847 -0.013883293 0.053264357 -0.0797021
000090 46 ee e6 bc 43 72 96 bd 78 ca 67 bc 56 6c 7e 3d
       -0.02818979 -0.073460124 -0.014147393 0.062115036
0000a0 86 f2 01 bd c8 fb 04 bc c8 5b 67 bc d1 58 a8 3d
       -0.03172543 -0.00811667 -0.014121003 0.082200654
0000b0 a0 d0 41 bb 56 d7 32 bd 26 b7 0e 3d 0f 8f 81 3d
       -0.0029573813 -0.04366239 0.034842633 0.063261144
0000c0 36 7d 94 bd 6b b2 9d 3d e0 98 34 3b 18 31 79 bc
       -0.072504446 0.07700046 0.002755694 -0.015209459
0000d0 00 48 9d 3c 2e f2 4d bd 22 2d 09 3d 92 10 02 3d
       0.019199371 -0.05027979 0.033490308 0.031754084
0000e0 12 b0 98 bd ae 3f 28 bd 08 de 21 bd 62 85 4c 3d
       -0.07455458 -0.041076355 -0.039518386 0.04993189
0000f0 5e ce 2c 3d 9e ee 9b bd 90 0e c8 3b 8a b6 0f 3d
       0.042188995 -0.07613872 0.0061052516 0.035086192
000100 15 f2 8c 3d 1a 45 84 bd c6 ed 6b 3d a2 c7 85 bd
       0.06882111 -0.064584926 0.057599805 -0.065322176
000110 00 36 06 3c 54 d4 81 3c 42 c5 09 3d 12 c7 68 3d
       0.008191586 0.015848316 0.033635385 0.056830473
000120 78 d6 3d bc 0a a8 7d 3d df 15 a1 bd e6 2a b9 bc
       -0.011586778 0.061927833 -0.078655 -0.022603463
000130 c0 2d a9 3a f2 e5 64 3d 80 09 ed 3c 68 3a 5c bc
       0.0012907311 0.055883355 0.028935194 -0.0134416595
000140 ad cb 90 3d a4 84 b0 3c f6 ee 49 3d 46 1d 1b 3d
       0.07070098 0.021547623 0.049300157 0.037869714
000150 00 eb 61 3c 00 0f 4e 3b e0 25 50 bd ad 0a aa 3d
       0.0137889385 0.0031442046 -0.05081737 0.083028175
000160 f0 43 b3 3c 72 2e a7 bd c3 ec 9e 3d a9 b3 8c 3d
       0.021882981 -0.081631556 0.077600025 0.06870205
000170 e0 99 24 bb e4 bf b8 3c d5 6d a9 3d 60 f0 08 bd
       -0.002511613 0.022552438 0.08272902 -0.033432364
000180 d6 3c 02 bd 90 90 0b 3d e0 7a 72 bc e5 ba 9b 3d
       -0.0317963 0.034073412 -0.0147998035 0.07604007
000190 4c 82 f0 3c 0b 45 43 bd 8e 6b a2 bd b2 eb 2d 3d
       0.029359005 -0.047673266 -0.07930671 0.042461105
0001a0 bb 04 8f 3d e0 ed bc 3c 2c 07 e4 3c c0 d8 6e 3c
       0.06983324 0.023062646 0.027835451 0.014578044
0001b0 e2 e5 13 3d 5c 25 84 bc dc 9f 89 bc 8e 25 20 3d
       0.036107905 -0.016131096 -0.01679986 0.039098315
0001c0 20 09 6d bc 63 f2 80 bd ce 3b 39 3d aa 89 05 3d
       -0.014467508 -0.062962316 0.04522305 0.03260199
0001d0 24 eb b2 3c b7 2b 99 bd 2e 77 50 3d 93 15 8a 3d
       0.02184064 -0.07479041 0.05089491 0.06742396
0001e0 c8 ec 6c 3c 3d d3 8d 3d 10 c8 35 bd ef c7 8f bd
       0.01446075 0.06925056 -0.044380248 -0.07020556
0001f0 04 71 d8 3c 80 55 cd bb 00 68 81 3a 54 ba f6 3c
       0.026421078 -0.006266296 0.0009872913 0.030118145
000200 78 46 3a bc 7e 36 0f 3d ae c0 6a bd b8 32 61 bd
       -0.01136934 0.034964077 -0.05731266 -0.05498001
000210 ee cc 6d 3d bd 18 88 3d f6 73 4b 3d a6 82 d2 bc
       0.058056764 0.066453435 0.049671136 -0.025697064
000220 fc 0a d8 3c ee 9d 06 bd 6a 72 73 3d c1 19 80 3d
       0.026372425 -0.032865457 0.059435286 0.06254912
000230 52 3a 1d 3d 70 74 aa 3c c8 dd 6f 3c 53 95 05 bd
       0.038385697 0.020807475 0.014640279 -0.03261311
000240 cf 7e 9f bd bc 01 a5 bc c9 ea 8b 3d 4f 4f a0 bd
       -0.07787859 -0.020142429 0.06831891 -0.07827627
000250 f1 8f 86 3d ed 2f 92 3d 36 47 63 3d 0c 86 dc bc
       0.065704234 0.07138047 0.055487834 -0.026919387
000260 70 d7 b4 3b 38 f9 02 3c 10 70 fd 3c 83 1c 74 bd
       0.005518846 0.007993989 0.030937225 -0.059597503
000270 f6 39 97 bd 1f dd 9f bd 09 b4 95 3d e6 15 01 3d
       -0.07384102 -0.078058474 0.073097296 0.031515025
000280 fb 74 48 bd 90 54 af bc f0 bc e7 bc 3c c2 a0 3c
       -0.048939686 -0.021402627 -0.028288335 0.019623868
000290 d6 68 5a 3d 48 9e 1b bc 82 06 7d 3d 83 5a 81 3d
       0.053322636 -0.009498186 0.061773784 0.06316092
0002a0 8e f9 54 bd 4e b7 64 bd 02 7f 1d 3d 07 41 86 bd
       -0.051995806 -0.055838875 0.038451202 -0.06555372
0002b0 f4 74 9c bd 23 b7 a0 bd da 2c 48 3d 3e 18 29 bd
       -0.076394945 -0.078474306 0.0488709 -0.041282885
0002c0 e8 cc 2b 3c 18 1f 7e bd 80 fc 27 bd 7c df 9e 3c
       0.010485865 -0.062041372 -0.041012287 0.019393675
0002d0 ab f5 3e bd 00 16 9f ba 0a 6b 18 3d 96 51 2f 3d
       -0.046621006 -0.0012137294 0.037211455 0.042802416
0002e0 40 06 83 ba 63 30 a1 bd 6c 8c 80 3c 6e c0 65 3d
       -0.000999637 -0.07870557 0.015691958 0.05609172
0002f0 41 f7 98 3d aa 23 76 3d 9a 77 51 3d 8a 7b 99 bd
       0.07469035 0.060092606 0.05113945 -0.07494266
000300 f6 7a 8c bd a0 53 51 3b e3 52 89 3d 50 1e a5 bc
       -0.068593904 0.0031940714 0.067052625 -0.020156056
000310 d2 c7 44 3d 06 9f 6e 3d e6 7a 29 bd 72 6a 79 3d
       0.048042126 0.058257125 -0.04137697 0.06089253
000320 d2 1c 4c 3d a3 47 54 bd 33 12 8a bd 70 86 eb bc
       0.049832173 -0.05182613 -0.067417525 -0.028750628
000330 56 8f 0a bd 69 8c 92 3d 86 ec d3 bc 9a 06 2b 3d
       -0.033828102 0.07155687 -0.02586962 0.041754343
000340 8c c8 85 3c 0b f0 86 3d da 74 7a 3d b0 b5 39 bd
       0.01633098 0.06588753 0.061146595 -0.045339286
000350 26 23 ed bc 5d fb 90 3d 6b a5 60 bd 80 09 82 3c
       -0.028947424 0.07079194 -0.054845255 0.01587367
000360 60 45 11 3b 26 ef 7f bd 9e 9d 40 3d 83 f0 48 bd
       0.0022166595 -0.06248393 0.047025315 -0.049057495
000370 60 fb 67 3c fe fc 3e 3d 70 22 f6 bc 53 73 69 bd
       0.014159054 0.04662799 -0.030045718 -0.056994747
000380 20 cd 17 bb 80 c4 eb bb a4 92 a4 3c 40 33 0b bd
       -0.0023163036 -0.0071950555 0.020089455 -0.033984423
000390 80 6e 6a bb a6 0b 2f bd 55 0e a5 3d a0 69 02 bd
       -0.003577143 -0.04273572 0.08059374 -0.031839013
0003a0 4c 10 ed 3c 18 eb 0f bd 03 87 98 bd 04 27 89 bd
       0.028938435 -0.035136312 -0.074476264 -0.06696895
0003b0 c0 77 c7 bc ab 03 19 bd 80 82 86 3c 8a d0 2a 3d
       -0.024349093 -0.037357014 0.01641965 0.041702785
0003c0 ee 91 32 3d 50 ae 94 3c 6a 95 77 3d 48 5a 27 bd
       0.0435962 0.018149525 0.060445227 -0.040857583
0003d0 ba 11 19 3d 94 85 ce 3c 93 a9 7a bd 56 c2 1b 3d
       0.03737042 0.02521018 -0.061196875 0.03802713
0003e0 0c 1a a6 3c 1c a1 b6 3c 9c da a7 3c 8d 36 8f 3d
       0.020276092 0.02229362 0.020489983 0.069928266
0003f0 50 0b 43 bd ff 66 a9 3d 0c 64 82 3c 10 84 b1 3c
       -0.04761821 0.08271598 0.015916847 0.021669418

bias f4 [32]
000000 ce ec 88 bd a3 48 01 bd ba cf 6c 3d 14 76 a3 bc
       -0.06685792 -0.031563412 0.05781529 -0.019953765
000010 00 8d 48 bc 05 f1 82 3d 5d d4 84 3d 20 30 06 bd
       -0.012240648 0.06393627 0.064858176 -0.03276074
000020 3c 8b d3 bc de 90 98 bd ff 59 85 bd 56 8e 0a bd
       -0.025823228 -0.07449506 -0.06511306 -0.03382715
000030 43 95 8b bd e4 41 c3 3c 00 e6 1f 39 57 9d 9c 3d
       -0.06815579 0.02383513 0.00015249103 0.07647198
000040 aa ef 49 3d 1e c4 37 3d 31 cf a3 3d 30 d0 9e bb
       0.049300827 0.044864766 0.07998503 -0.004846595
000050 8a da 42 3d d0 41 9c 3b f0 72 dd bc 4b 2e 90 bd
       0.047571696 0.0047685876 -0.027032346 -0.0704008
000060 e0 1d 92 bc a4 14 a3 3c 88 28 91 bd 7b b3 91 bd
       -0.017836511 0.019907303 -0.07087809 -0.07114311
000070 ea 17 31 3d 58 28 53 3c 00 49 ac ba 1a 49 33 3d
       0.043235697 0.012888037 -0.0013144314 0.043770887

weight f4 [32, 32, 3, 3]
000000 b3 b9 6e bd dc 66 49 bd 80 00 ab b9 34 4a 3a bc
       -0.058282565 -0.04917036 -0.00032616034 -0.0113702305
000010 a7 af 2d 3d 44 c4 a8 bc 7c 78 26 bd d8 8d ab 3b
       0.042403843 -0.0206014 -0.040642247 0.005235415
000020 e0 48 ba bb 8f 01 42 bd 44 b8 6e 3c aa 9a 37 bd
       -0.005684957 -0.047364768 0.0145703 -0.044825234
000030 94 41 34 bc c6 9d 69 bd aa 9d 9c bc 60 70 21 bb
       -0.011001963 -0.05703523 -0.019118149 -0.002463363
000040 a4 58 77 bc 80 a5 89 ba b7 fe 6e bd 32 41 96 3c
       -0.015096817 -0.0010501593 -0.058348384 0.018341634
000050 f0 62 67 bd d9 df 1e 3d ab f2 31 3d 22 2d 4f bd
       -0.05649084 0.038787697 0.043444317 -0.05058015
000060 94 ef 6e bd c7 10 23 3d 14 2e 42 bd a0 21 4d 3b
       -0.05833395 0.039810922 -0.047407225 0.003130056
000070 74 ad 3f bd 2e 28 c9 3c 39 a2 2b bd a8 2b c7 bc
       -0.046796277 0.024555292 -0.041902754 -0.02431281
000080 36 e0 d7 3c f9 77 51 3d a1 56 68 3d 94 98 57 3c
       0.02635203 0.051139805 0.05672324 0.013158936
000090 48 d4 c1 3b a2 ac e0 3c db b2 f5 bc 38 43 39 bc
       0.0059151985 0.027426068 -0.029992511 -0.01130753
0000a0 86 9f 25 bd 25 ce 16 bd 90 2b 59 bd e6 49 c5 bc
       -0.040435337 -0.03681769 -0.05302006 -0.02408309
0000b0 d6 d2 ab 3c 2e f6 c3 3c 44 aa de bc c5 8c 2a 3d
       0.020974558 0.023921099 -0.027180798 0.041638155
0000c0 ac 0b f6 bc 4c 13 14 3c eb c7 5d 3d 66 54 d2 3c
       -0.030034862 0.009037804 0.054145735 0.02567501
0000d0 cf d0 01 3d 1c 4c 4c bd 6b 3a 2e 3d f4 b5 50 bc
       0.031693276 -0.04987727 0.04253618 -0.0127386935
0000e0 90 94 9f bc 6c ed 67 3c 66 b5 a1 3c 18 98 a9 bc
       -0.01948002 0.014155727 0.019739818 -0.020702407
0000f0 d8 fd 8d bc 34 81 fe bc 14 5b 69 bd d6 7f ef 3c
       -0.017332956 -0.031067468 -0.056971624 0.029235762
000100 fe f5 af 3c d2 2e 64 bd 35 74 3f bd 35 ad 28 bd
       0.021479603 -0.055708714 -0.046741683 -0.041180808
000110 e0 af 2f 3b da 9b aa bc b5 e1 fd bc 3c 94 22 3c
       0.002680771 -0.020826269 -0.030991415 0.009923037
000120 a6 48 a2 bc 24 ca 3c 3c 3b 05 1e 3d 55 b6 66 3d
       -0.019810032 0.011522803 0.038579207 0.05632623
000130 cc 9f 0f bd 58 33 a3 3b d0 87 d2 bc 10 8d dc bb
       -0.035064504 0.004980486 -0.025699526 -0.006730683
000140 40 d0 13 3b d2 62 17 bd 1b 04 3a 3d 2e e5 e7 3c
       0.0022554547 -0.036959477 0.04541407 0.028307524
000150 c5 c2 3e 3d 80 8a b6 b9 4e 1e 6a bd 3f 73 44 bd
       0.046572465 -0.00034816936 -0.057157807 -0.04796147
000160 76 6c e1 3c d4 5c 05 3c 18 e8 8a bb c4 4d 4c 3c
       0.027517539 0.008139808 -0.0042390935 0.012469713
000170 09 2b 67 bd 21 1d 27 3d a8 1a 0b bc 47 5b 1f 3d
       -0.056437526 0.040799264 -0.008490242 0.03890541
000180 83 5d 0f 3d c7 cb 4e 3d b1 32 45 3d 55 ad 2b 3d
       0.03500129 0.050487306 0.048144046 0.04191335
000190 98 fb db bc b8 45 ed bb 95 df 44 bd 10 e8 87 bb
       -0.026853368 -0.007240977 -0.048064787 -0.004147537
0001a0 cf 46 11 3d 30 7b c3 bb 1f e6 26 3d 60 1f 2c bb
       0.03546792 -0.005965613 0.040746804 -0.0026263818
0001b0 b0 33 a5 bc e5 7e 4f 3d 51 5d 2d 3d 77 52 4e 3d
       -0.020166248 0.050658125 0.04232532 0.050371613
0001c0 d4 ca 18 bd 06 d6 30 bd fe 6d 43 bd a6 62 f5 3c
       -0.037302807 -0.04317286 -0.04771232 0.029954266
0001d0 da 09 a0 bc b0 03 0e bc 7b c5 3e bd 60 aa fc 3a
       -0.019535948 -0.008667871 -0.04657505 0.001927685
0001e0 16 ff f6 3c 0c d1 67 3c 0c 77 12 3c 40 81 8b bc
       0.030150931 0.014148962 0.008939516 -0.017029405
0001f0 db 9a 34 3d d0 5a 02 bd b0 5f 54 3b 73 aa 55 3d
       0.044092994 -0.031824887 0.0032405667 0.052164506
000200 b1 05 65 bd e0 cf af 3a e4 b2 48 3c e0 1e 94 3a
       -0.05591363 0.0013413392 0.012249682 0.0011300705
000210 c0 20 37 ba 10 0d 71 bc 48 cd e0 bc 6a 9c 56 bd
       -0.0006985776 -0.014712587 -0.027441636 -0.05239526
000220 69 ab 28 bd 20 da 60 bb 74 76 ba bc a3 00 4f bd
       -0.041179094 -0.00343097 -0.022761561 -0.050537717
000230 85 3b 24 3d fe d3 84 3c bd cb 0d bd 54 f7 a1 bc
       0.040095825 0.016214367 -0.034618128 -0.019771256
000240 f6 10 d5 3c ca d8 ca 3c b8 e4 9b 3b 70 e2 64 bc
       0.026009064 0.024761576 0.00475749 -0.0139700025
000250 48 e0 48 bd c0 ac 60 3b c9 7a 0d 3d 54 42 69 3c
       -0.049042016 0.0034282655 0.034540925 0.014237005
000260 b2 c9 00 bd 42 72 cb bc 74 39 e6 bc 1c 51 50 bc
       -0.03144235 -0.024834756 -0.028103568 -0.0127146505
000270 f8 af 4e bc 06 d6 eb 3c 00 c2 f0 b8 11 bf 70 bd
       -0.012615196 0.028788578 -0.00011480227 -0.058775965
000280 c0 66 67 bc 40 f7 cf bb 6a 72 cf bc 23 90 e7 bc
       -0.014123619 -0.006346613 -0.025323112 -0.028266972
000290 7a 02 23 bd 5c e1 4f 3c 65 7f 0f 3d 40 1f 87 bc
       -0.039797284 0.012688007 0.035033602 -0.016494393
0002a0 63 b2 34 bd 00 c2 2e b9 f2 66 df bc d7 53 2a 3d
       -0.044115435 -0.00016666204 -0.027270768 0.041583862
0002b0 f4 00 58 bc 85 06 6a 3d 9c 47 15 bd e6 81 ae bc
       -0.013183821 0.057135124 -0.036445245 -0.021302175
0002c0 03 0e 0e 3d 58 88 83 3b ee aa e1 3c c0 7c 1e 3b
       0.03468133 0.004014056 0.027547326 0.0024183244
0002d0 f2 97 cb bc d4 0b b4 bc 30 48 a8 bb 54 ba 79 3c
       -0.024852727 -0.021978296 -0.0051355585 0.015242178
0002e0 6c fc 64 3c d2 4c b4 bc 50 89 1b bb 90 d3 2c bd
       0.013976198 -0.022009287 -0.0023732968 -0.04219395
0002f0 c6 56 fc 3c 65 66 48 bd 4a d0 4d bd 49 e3 10 3d
       0.030803096 -0.048925776 -0.050247468 0.035373006
000300 44 4b 37 bd 19 1d 35 3d 97 c0 f0 bc 40 e5 01 bd
       -0.044749513 0.044217203 -0.029388709 -0.03171277
000310 52 00 cf 3c 10 e6 6a 3b b5 fe 05 3d 9e f4 1d bd
       0.025268707 0.0035842694 0.03271361 -0.038563363
000320 51 6b 13 3d a0 9c 9e ba 80 df 5b bc 98 bd 46 bd
       0.035991017 -0.0012101121 -0.013419986 -0.048520654
000330 d8 46 f3 3b 0f 7a 10 3d e6 11 a3 3c 40 22 99 ba
       0.0074242167 0.035272654 0.019905996 -0.0011683181
000340 fa f7 a3 3c 0d 64 07 3d f5 6e 40 3d 84 40 76 3c
       0.020015705 0.0330544 0.046980817 0.01503003
000350 03 e1 29 3d 32 be cc 3c 00 8d 4a 3a 7b 6f 3d 3d
       0.041474354 0.024993036 0.0007726699 0.046248894
000360 90 20 0f bd ac 54 6d bd 55 cb 3b 3d 9a 0d 80 bc
       -0.034943163 -0.057942078 0.04584821 -0.015631486
000370 f0 42 65 bb 9b be 43 3d 98 6d c7 3b c1 db 24 3d
       -0.0034982525 0.047789197 0.0060860626 0.040248636
000380 30 78 6a bd d2 3d d7 3c ae 59 06 bd 31 5f 47 3d
       -0.057243526 0.026274595 -0.03280037 0.048674766
000390 fb 85 6d 3d de 63 e0 3c 54 4d 20 bd 40 e5 f3 3a
       0.0579891 0.02739137 -0.039136246 0.001860775
0003a0 3a 87 a3 3c f5 21 f4 bc d0 8a 17 bb 07 35 32 3d
       0.019961942 -0.029801348 -0.002312351 0.043507602
0003b0 5c 47 5c bd 62 4d b2 3c 09 9d 3e bd f3 b4 67 3d
       -0.05377899 0.021765415 -0.04653648 0.05656905
0003c0 a4 5d 1b 3c ae ea 35 bd a8 9a 7f bc d1 ff 4d 3d
       0.009482775 -0.04441326 -0.015600838 0.050292794
0003d0 d7 ba 4e 3d 00 50 c3 bb 44 ae 3e 3c b6 d2 e3 bc
       0.050471153 -0.0059604645 0.011638228 -0.027810436
0003e0 d5 ff 04 3d c9 31 3b 3d 1c d5 17 3c 8c 32 4e bc
       0.032470543 0.045701776 0.009267118 -0.0125852935
0003f0 f9 f2 1e 3d 58 0d d2 bb fe b9 89 3c 40 40 66 bc
       0.038805936 -0.006410282 0.01681232 -0.014053404

bias f4 [32]
000000 e7 a7 52 bd b9 2a 52 3d cd d5 53 bd db 56 07 bd
       -0.051429655 0.051310275 -0.05171757 -0.033041816
000010 37 dc 15 3d d8 5a c8 3b 47 07 54 bd 5e 2c e1 3c
       0.036586966 0.006114345 -0.051764753 0.027486976
000020 88 0e 8d bb 47 d6 5f bd 00 dd 50 ba bb b5 4d 3d
       -0.004304711 -0.05464771 -0.0007967502 0.05022214
000030 9d ac 07 3d 40 c9 76 bc ea ed fb bc c0 8c 8f bb
       0.0331236 -0.01506263 -0.030753095 -0.0043807924
000040 a4 af ae bc 00 c6 c7 3a 17 62 07 3d 48 f4 ab 3b
       -0.021323986 0.0015241504 0.03305253 0.0052476265
000050 58 7a 8a bc 67 86 28 3d 9f 06 6e 3d 15 19 4d 3d
       -0.016904041 0.0411438 0.058111783 0.05007275
000060 0a 98 92 3c a6 cf 2f bd e6 39 fd bc a6 69 ff 3c
       0.017894763 -0.04292264 -0.030911397 0.031178307
000070 30 59 4c bd 58 99 d2 bc 0c e2 00 3c 2c 5a 84 bc
       -0.049889743 -0.025707886 0.007866394 -0.016156279

weight f4 [3, 8192]
000000 a6 aa be 3b 90 4d 39 bb 0a b5 d9 3b 17 81 33 3c
       0.0058186827 -0.002827499 0.006643896 0.01095607
000010 bf f4 c2 bb 34 0d 33 bc 29 36 e5 bb 75 60 2e bc
       -0.005949586 -0.010928441 -0.006994982 -0.010643114
000020 b6 e7 9d 3b de 6f e0 3b a0 5d 68 ba 26 5f a5 3b
       0.004818882 0.006849273 -0.0008864049 0.005046743
000030 e0 e8 34 bc 80 86 20 bb 28 64 97 3a d4 e4 40 3b
       -0.01104185 -0.002449423 0.0011550235 0.0029433267
000040 a3 78 c6 bb 80 f5 e9 38 c5 11 32 3c 5a ac b3 3b
       -0.0060568615 0.00011156034 0.010868494 0.0054831924
000050 fa bb a4 3b 4a c2 f3 3b 4c 17 01 bb 43 fc ce bb
       0.0050272914 0.0074389325 -0.0019697724 -0.006316693
000060 dc b3 a2 bb 61 4e 2d 3c 78 25 c5 bb e5 fb 18 3c
       -0.0049652886 0.010577769 -0.0060164295 0.0093374
000070 7a a2 fc 3b 7f 16 16 bc 0b ae 24 bc 62 1c fe 3b
       0.0077097984 -0.009160637 -0.010051261 0.0077548483
000080 63 e4 07 3c c7 4f 01 bc f0 8a e2 ba 43 e7 8c bb
       0.008294198 -0.007892556 -0.0017283838 -0.0043000295
000090 b6 7e b4 3b 58 7d d5 ba dc 28 02 bc 28 fd 2a bb
       0.005508269 -0.0016287966 -0.007944312 -0.0026090834
0000a0 fd 59 00 3c 5e 1b c4 bb 40 d1 9c ba 10 f9 11 ba
       0.007833955 -0.0059847077 -0.0011964217 -0.0005568424
0000b0 a0 d5 9e b9 55 52 26 3c de 1f c0 3b f0 cd 2a bc
       -0.0003029527 0.010151465 0.005863174 -0.010425076
0000c0 34 01 dd bb f8 24 c1 3a 20 e6 13 3b ea d2 ae 3b
       -0.006744528 0.0014735749 0.0022567585 0.0053352015
0000d0 f0 7b 14 bc 94 aa ce bb 00 3f a6 b9 f2 13 d1 3b
       -0.009062752 -0.0063069556 -0.00031708926 0.0063805515
0000e0 e4 9f 15 3b 3b 28 0e 3c b6 ec f2 3b 45 06 17 3c
       0.0022830898 0.008676584 0.007413472 0.009217803
0000f0 f1 a4 c2 bb e0 9d 4b ba 00 9a 96 b7 00 3d ec ba
       -0.0059400727 -0.00077673607 -1.7953105e-05 -0.001802355
000100 59 06 08 3c b8 3b bb 3a 12 f1 9a 3b 8e 40 6e bb
       0.008302295 0.0014284765 0.004728445 -0.0036354396
000110 19 17 92 bb 31 6b ad bb b8 1e f2 3a bf 91 1c 3c
       -0.00445832 -0.005292319 0.001847229 0.009556233
000120 78 7d 12 bb f0 79 fa 3a 9e 2f 03 bc 6b 2e 00 3c
       -0.0022352617 0.0019109827 -0.008006958 0.007823567
000130 fd cd 0f 3c b1 20 af bb a0 27 37 3a 15 18 94 bb
       0.008777139 -0.0053444733 0.00069868006 -0.0045194724
000140 cf db 06 3c 0f 6f 1d 3c ff 13 2e 3c 3a 32 1e bc
       0.008231117 0.009608998 0.010624885 -0.00965553
000150 b1 72 25 3c 8c c6 51 bb 3b 48 17 3c d9 92 05 3c
       0.010098145 -0.0032009212 0.00923353 0.008152687
000160 70 d6 35 3a 24 07 4d 3b 80 25 4f bb 64 52 b9 bb
       0.0006936556 0.0031284774 -0.0031608045 -0.0056555737
000170 e0 2b 3e 3a fa ae dc 3b df 7a 2d 3c f0 3d 4f 3b
       0.00072544627 0.006734726 0.010588377 0.003162261
000180 86 18 fb bb 14 31 0a 3b 0a c4 58 bb 5e c1 f5 3b
       -0.0076628355 0.0021086382 -0.0033075833 0.007499858
000190 08 ae 11 bc 82 04 68 bb 01 05 05 3c d3 99 96 bb
       -0.00889159 -0.0035403077 0.008118869 -0.004595974
0001a0 48 22 fd ba 8d 79 2b 3c 64 fe 83 bb 8a 18 8f 3b
       -0.0019312585 0.010465992 -0.0040281285 0.004366939
0001b0 7a f2 d4 3b 6e 91 f4 bb f8 4d 15 bb 3e 45 b6 3b
       0.006498632 -0.0074636256 -0.0022782069 0.0055624535
0001c0 fa 05 b2 3b e0 53 ef 3a be cd d9 3b 09 c5 ba bb
       0.0054328414 0.001825925 0.006646841 -0.005699758
0001d0 c2 45 bb 3b 1b b9 2d 3c ae 4b c9 3b 13 73 1b bc
       0.005715103 0.010603215 0.006143055 -0.009487885
0001e0 ba e1 aa 3b 30 8a 68 ba 62 59 09 bc d0 fb 1e bc
       0.005214897 -0.0008870689 -0.008383127 -0.0097035915
0001f0 1c d9 12 bb 69 31 20 3c 0b 49 03 bc 11 99 0e bc
       -0.002240724 0.009777405 -0.00801302 -0.008703486
000200 0e 03 a8 3b 5d 13 bc bb d0 4c 59 3a 59 6e 02 3c
       0.0051273173 -0.005739613 0.0008289339 0.007960879
000210 5a 8a bc 3b 08 1d ac 3a cc 9e 29 bc a3 10 14 3c
       0.0057537975 0.001313121 -0.0103528015 0.00903717
000220 22 eb 9e bb 62 94 a5 3b f8 21 a2 ba 64 77 14 bc
       -0.0048498074 0.005053089 -0.0012369743 -0.009061668
000230 bf ad 81 bb 40 df 8a b9 3f b9 e8 bb cb e4 2e 3c
       -0.0039574797 -0.00026487745 -0.007102161 0.010674666
000240 de 12 e9 3b 60 12 6d 3a 35 f6 b9 bb a6 77 df 3b
       0.007112845 0.00090435706 -0.005675102 0.006819683
000250 a9 f6 16 3c 36 a2 c0 bb ca cf 26 bc f2 d3 b6 3b
       0.009214082 -0.005878712 -0.010181377 0.005579465
000260 7e a6 a7 3b ae 8e f0 bb 2a 66 f2 3b 7a e7 9f 3b
       0.005116283 -0.0073412275 0.007397433 0.004879889
000270 05 2f 31 bc a9 fd 14 bc d0 0b 6a 3b 0e 32 f9 3b
       -0.010814433 -0.00909368 0.0035712607 0.007604844
000280 9e c2 59 bb 6b 94 1e 3c 38 8e 83 ba e4 6f 65 bb
       -0.0033227573 0.00967894 -0.0010036891 -0.003500932
000290 bd 2e 14 bc 6e 68 ce 3b a1 a6 0e bc d5 0c c5 bb
       -0.009044346 0.00629907 -0.00870672 -0.0060134926
0002a0 88 fb 1b bb 1e 6d 0f bc 59 e6 1d 3c 57 83 15 3c
       -0.0023801047 -0.008754043 0.009637439 0.009125552
0002b0 12 1e 9c 3b 3e 00 ce 3b ba c8 fd 3b aa c7 ef 3b
       0.004764327 0.00628665 0.0077448757 0.007317503
0002c0 57 af dd bb 3b a0 29 3c 72 d5 a4 bb 58 2b d1 3a
       -0.006765287 0.010353143 -0.0050303275 0.0015958352
0002d0 1b 26 df bb 58 e0 e0 3a ce b8 90 bb 10 d5 fa 3a
       -0.0068099624 0.0017156703 -0.0044165617 0.0019136984
0002e0 76 37 92 bb e8 43 18 bb e0 d0 4d bb 48 96 fb ba
       -0.004462178 -0.0023233835 -0.0031405017 -0.0019194568
0002f0 20 7b ff 3a 93 b2 c4 bb 2c 41 12 bc 32 85 b1 3b
       0.001949165 -0.006002733 -0.008926671 0.0054174894
000300 80 dc 8d b9 17 a9 26 3c d2 7f dc 3b 90 ce 49 ba
       -0.000270579 0.01017215 0.0067291046 -0.0007698322
000310 68 e2 81 3a 22 0c 96 3b 1c f0 38 3b b4 88 55 3b
       0.0009909393 0.004579083 0.0028219288 0.0032582702
000320 a0 eb db b9 ed eb cb bb 70 f8 83 3b d3 2e 00 3c
       -0.0004194649 -0.006223193 0.004027419 0.007823664
000330 76 31 ea bb ba b4 b7 3b 17 ad ed bb ed db 0c 3c
       -0.0071470095 0.005606261 -0.0072533 0.008597356
000340 ed 0e 07 bc f2 31 9d bb dc 1f 36 3b 02 81 b0 bb
       -0.008243305 -0.0047972137 0.0027789986 -0.0053864727
000350 60 3b d1 3a 8c 1d fc bb a4 19 19 3b 50 d2 cd ba
       0.001596313 -0.007693952 0.002336123 -0.0015702937
000360 b3 7d a6 bb 89 60 1c 3c 44 18 82 bb 68 eb 52 bb
       -0.0050809025 0.0095445 -0.003970178 -0.003218377
000370 b3 74 11 3c 5b 27 03 3c d0 99 21 3b e2 d3 92 bb
       0.008877921 0.008004989 0.002465833 -0.004480825
000380 e0 cf 94 b9 08 a6 a5 3a 3d 8b ef bb 18 48 22 bc
       -0.0002838364 0.0012637982 -0.0073102997 -0.009904884
000390 3c cc 16 bc c2 f9 a8 3b 10 0d 9f 3a 00 a5 e6 b8
       -0.009203967 0.0051567266 0.001213463 -0.00010997988
0003a0 d4 43 36 3b a6 1c 1d bc d8 9d a2 ba 98 fd 49 3b
       0.0027811425 -0.00958935 -0.001240666 0.003082132
0003b0 4b 6d f4 bb b0 ae 47 3b b2 d6 b7 3b 7a 24 da 3b
       -0.007459318 0.0030469112 0.0056103105 0.0066571804
0003c0 57 7f a9 bb 60 2b af 3a 08 ad 08 bc ea 81 b3 3b
       -0.005172651 0.0013364367 -0.008342035 0.0054781334
0003d0 e6 36 dd bb 73 75 17 bc 1b b2 2d bc a3 78 17 bc
       -0.006750929 -0.009244311 -0.010601546 -0.009245071
0003e0 75 76 01 3c ee 46 d6 3b 28 6d 50 3b 00 45 2d b8
       0.0079017775 0.006539217 0.0031803343 -4.1310675e-05
0003f0 a7 2a 09 3c dd aa 0a 3c bb 46 25 3c 1a 0d d5 3b
       0.0083719855 0.008463589 0.010087664 0.006501806

bias f4 [3]
000000 2e f1 df bb de a4 7c bb 35 e2 33 3c
       -0.006834171 -0.0038550417 0.010979225
