Neural_network_Projects/plant_disease_recognition/recognize_disease_test.pt (torch, 171210 bytes, 10 tensors)

weight f4 [16, 3, 3, 3]
0.07161118 -0.029339556 0.09003613 0.026227001 0.017486377 -0.12197807 -0.1451085 -0.0041043675
0.09173401 0.100655824 0.07982206 -0.09399662 -0.003659257 0.1643588 0.02625627 0.07457917
-0.14674532 0.0012425284 -0.09328588 0.121623345 -0.06930375 0.18733893 0.17639257 -0.06517502
-0.15499073 0.047153484 -0.19063908 0.06355111 0.1690344 0.045873985 0.1750062 -0.102504596
-0.1815176 -0.11592547 -0.12684043 0.14793985 -0.07899463 -0.022832131 -0.15015396 0.13757412
0.08736269 -0.09545328 -0.09694149 -0.116441466 0.13122818 0.14532648 0.07762884 -0.12904547
0.04801322 -0.13375583 0.030618815 -0.18605335 0.12696233 0.051820368 0.14235447 0.13049953
-0.17530686 -0.07905494 0.083022006 0.053026855 0.06669845 -0.03744559 0.045704283 -0.16119123
0.1842526 0.16854946 -0.101652205 -0.134432 -0.062265225 -0.10905769 -0.12245708 -0.1746441
0.053217944 -0.06687037 -0.10480681 0.10031792 -0.07897486 0.015579832 -0.018179402 0.18276002
-0.07490276 0.0030301735 -0.09415424 0.084786594 0.11431854 -0.02419175 0.13418864 0.15801547
0.044470634 -0.018044235 -0.05983447 0.030415362 -0.05304079 -0.14958902 -0.16501395 0.038085807
0.060515508 0.10236383 -0.057426203 0.18462048 -0.11809057 -0.066156626 -0.040990237 -0.16038223
0.071911626 0.12599526 -0.17876598 -0.028979622 -0.1378302 0.1880546 -0.009354041 -0.0421295
-0.18420097 0.040632945 -0.08867081 0.15925303 0.182559 -0.11772885 -0.0064344928 -0.12173541
0.08476971 0.11244988 0.1764182 -0.0419574 0.061719578 -0.15737574 -0.16680588 -0.13484487
-0.17433539 -0.16600485 0.054724503 0.11993109 0.14000739 -0.03899684 0.1658112 0.05810679
0.03544244 0.1817313 -0.11722215 0.009963101 0.15782902 0.04667877 0.08619585 -0.1804657
-0.051407274 0.098192215 0.124472976 -0.036949232 -0.106985115 -0.14370322 -0.11012866 -0.10128046
0.08344866 0.08591003 0.028110495 0.112933904 -0.17177428 -0.06451865 -0.0914112 0.12226411
0.035929464 0.025225474 0.1867657 0.051353414 0.17108822 0.09755413 -0.008189738 -0.017230958
0.0104361335 -0.14810117 -0.09265026 -0.0559099 0.14580606 -0.062343545 0.13797931 0.04766503
0.1554362 0.11143552 0.039812453 0.16958219 0.122599624 0.06868208 0.11572836 0.16079663
0.10977279 -0.14479645 0.15250696 -0.07275847 -0.08143121 0.1145647 0.0789823 0.13538648
-0.09775451 -0.13614321 -0.107839175 -0.08173873 0.043248568 -0.17600645 -0.039283462 0.17657793
-0.15502566 -0.037912954 0.019475456 0.13327602 0.08307108 0.17363644 -0.11332624 -0.0012303325
0.18804911 -0.1751968 0.16606618 -0.15929145 0.18388422 -0.14266683 -0.04616029 -0.05098781
-0.021821165 -0.037990626 -0.14851448 0.17872654 -0.037480008 -0.06805063 -0.15336066 0.054186128
-0.08605878 -0.11071365 0.022247078 -0.058949765 -0.15782516 -0.060047846 0.032273132 -0.160503
0.15105483 0.01590775 -0.18395296 0.18979682 0.04156291 -0.15090577 -0.1342256 -0.010859954
0.07489199 -0.080980174 0.1813653 -0.09370151 4.9082286e-05 0.10591732 -0.105719045 -0.049415853
0.046938088 0.08461021 -0.08901978 0.001515517 -0.12757224 -0.017867448 -0.044839315 0.06304254
00000000: e2a8 923d 8259 f0bc dd64 b83d 02da d63c
00000010: 973f 8f3c a3cf f9bd 5397 14be ee7d 86bb
00000020: 0adf bb3d a424 ce3d c079 a33d 4d81 c0bd
00000030: 25d0 6fbb ac4d 283e 6417 d73c f7bc 983d
00000040: 6844 16be 56dc a23a ab0c bfbd a915 f93d
00000050: 20ef 8dbd c7d5 3f3e 41a0 343e 7b7a 85bd
00000060: e4b5 1ebe 0324 413d e436 43be 1627 823d
00000070: 5b17 2d3e 5ce6 3b3d d334 333e eeed d1bd
00000080: c0df 39be 556a edbd 75e2 01be 8b7d 173e
00000090: f0c7 a1bd 730a bbbc f6c1 19be 3be0 0c3e
000000a0: 36eb b23d 027d c3bd 4389 c6bd dd78 eebd
000000b0: ae60 063e 77d0 143e dffb 9e3d 7f24 04be
000000c0: 83a9 443d 4af7 08be 4fd4 fa3c c584 3ebe
000000d0: 6a02 023e 9841 543d 5fc5 113e aba1 053e
000000e0: a483 33be 8ee7 a1bd 7107 aa3d b032 593d
000000f0: 3299 883d 8c60 19bd 6a34 3b3d 500f 25be
00000100: b7ac 3c3e 3b98 2c3e 082f d0bd 8ba8 09be
00000110: d209 7fbd a359 dfbd c7ca fabd e7d5 32be
00000120: 0ffb 593d 55f3 88bd f4a4 d6bd 7b73 cd3d
00000130: 92bd a1bd 8d42 7f3c f8ec 94bc 7125 3b3e
00000140: 9e66 99bd e095 463b f0d3 c0bd 98a4 ad3d
00000150: d71f ea3d c72d c6bc bf68 093e cfce 213e
00000160: d726 363d 81d1 93bc fd14 75bd a329 f93c
00000170: 4d41 59bd dd2d 19be 6bf9 28be ddff 1b3d
00000180: 1cdf 773d 21a4 d13d bd37 6bbd 270d 3d3e
00000190: 78d9 f1bd 207d 87bd 61e5 27bd 3d3b 24be
000001a0: 6746 933d e704 013e 6e0e 37be ac66 edbc
000001b0: 5c23 0dbe 6391 403e b141 19bc fc8f 2cbd
000001c0: 2e9f 3cbe bb6e 263d 0b99 b5bd 3a13 233e
000001d0: bff0 3a3e d31b f1bd 70d8 d2bb 6a50 f9bd
000001e0: be9b ad3d 1f4c e63d f9a6 343e 86db 2bbd
000001f0: abcd 7c3d 1b27 21be 29cf 2abe c614 0abe
00000200: fa84 32be 2dfd 29be cd26 603d 6e9e f53d
00000210: 195e 0f3e 27bb 1fbd 69ca 293e 6301 6e3d
00000220: 182c 113d c517 3a3e 2b12 f0bd 463c 233c
00000230: ee9d 213e 3d32 3f3d 7387 b03d 00cc 38be
00000240: 6f90 52bd 0019 c93d b0eb fe3d 1458 17bd
00000250: 031b dbbd f026 13be 238b e1bd 216c cfbd
00000260: 22e7 aa3d 99f1 af3d fb47 e63c e449 e73d
00000270: 99e5 2fbe 5b22 84bd cc35 bbbd 9b65 fa3d
00000280: c62a 133d a7a5 ce3c 823f 3f3e f557 523d
00000290: c031 2f3e 76ca c73d 402e 06bc f027 8dbc
000002a0: 51fc 2a3c d5a7 17be 6bbf bdbd c801 65bd
000002b0: 2f4e 153e f25b 7fbd 734a 0d3e 683c 433d
000002c0: ab2a 1f3e 4e38 e43d 6212 233d f4a6 2d3e
000002d0: 8315 fb3d 31a9 8c3d fe02 ed3d dfa7 243e
000002e0: 8ed0 e03d 8545 14be c92a 1c3e 6502 95bd
000002f0: 68c5 a6bd e6a0 ea3d 79c1 a13d c1a2 0a3e
00000300: 8433 c8bd 2069 0bbe c9da dcbd a366 a7bd
00000310: 6925 313d 093b 34be b2e7 20bd d8d0 343e
00000320: 0cbf 1ebe 9d4a 1bbd fe8a 9f3c 8279 083e
00000330: 2c21 aa3d c0cd 313e 9617 e8bd 1c43 a1ba
00000340: f28f 403e ca66 33be 410d 2a3e 4c1d 23be
00000350: 254c 3c3e 4117 12be 9212 3dbd 98d8 50bd
00000360: 4dc2 b2bc 0f9c 1bbd 2e14 18be 1704 373e
00000370: a384 19bd 215e 8bbd 940a 1dbe 46f2 5d3d
00000380: 963f b0bd d7bd e2bd 813f b63c 4f75 71bd
00000390: eb9c 21be bbf4 75bd d530 043d e65a 24be
000003a0: 1eae 1a3e f850 823c 2a5e 3cbe 195a 423e
000003b0: df3d 2a3d 0b87 1abe 7072 09be f3ed 31bc
000003c0: f960 993d efd8 a5bd d3b7 393e 94e6 bfbd
000003d0: b4dd 4d38 2eeb d83d 3a83 d8bd 4768 4abd
000003e0: 2742 403d 1e48 ad3d 0150 b6bd 50a4 c63a
000003f0: 4ca2 02be c15e 92bc 6ea9 37bd 721c 813d

bias f4 [16]
-0.14122958 0.14248894 0.16640994 -0.09176329 -0.18869235 -0.12679009 0.10213517 0.16108213
-0.06481854 -0.006616315 0.022173645 0.18108658 0.065080404 -0.09228687 0.07908348 -0.09226618
00000000: 7d9e 10be 9fe8 113e 5e67 2a3e 64ee bbbd
00000010: 9138 41be 43d5 01be 3e2c d13d b7f2 243e
00000020: 95bf 84bd accd d8bb 81a5 b53c c36e 393e
00000030: e048 853d e600 bdbd 85f6 a13d 0df6 bcbd

weight f4 [16, 16, 3, 3]
-0.003545382 -0.018914882 -0.009116105 -0.052203882 0.0507727 -0.030774789 0.06652554 0.007854321
-0.010579838 -0.01117702 -0.010719881 0.027901182 -0.062091604 -0.007180265 -0.06726423 0.025109023
-0.012809405 0.07097744 -0.00015501594 0.047882836 0.06737148 0.015376685 0.0640299 0.075838275
-0.026967384 -0.013508503 -0.027250832 0.050840374 0.04679666 0.026683727 0.030471984 -0.038207445
0.080336824 -0.055134803 -0.0354247 -0.003963817 0.057888772 0.03270646 0.02699314 0.07341476
0.016567484 0.03629834 0.00027677152 0.0017421998 -0.007743111 -0.0702485 -0.06817942 0.020695776
-0.042420585 0.06898335 -0.050240822 0.0798256 0.061308995 -0.05652187 0.01613994 0.0192544
0.04811147 0.047262494 0.06579076 -0.071628965 0.020871613 0.030977895 0.041886847 -0.04165271
0.06827751 -0.01412039 0.008610502 0.020821184 0.072360195 -0.065935515 -0.00836806 0.042008527
0.06194345 -0.055154312 0.044495877 -0.044152945 -0.0034951142 -0.025881363 0.043821506 -0.023721883
-0.015153195 -0.07890781 -0.032235276 0.08173325 0.068377644 -0.0027862547 -0.029292881 0.04965149
0.05791061 0.07604798 0.07166658 -0.022029769 -0.0418947 0.020812765 0.019324504 0.029358927
0.06854285 0.001119278 0.038966123 -0.0835896 0.065544784 0.052211218 0.04383 -0.07121984
-0.035000622 0.058003243 -0.030694434 -0.043341137 -0.018278295 0.044371977 0.07149703 2.0255902e-05
-0.053577285 0.04034257 -0.06576665 -0.06760788 0.0039800336 0.035435595 -0.01755364 -0.002931034
-0.017813401 0.006962179 -0.051460385 0.06237096 -0.00029104782 -0.07850423 0.04903848 0.028490957
-0.026703652 0.07489904 0.069152 -0.053306166 -0.024987886 -0.059870873 0.0021453921 -0.06237649
-0.033083424 0.020452727 -0.012875464 -0.07403008 -0.057109736 -0.006065971 -0.06805564 -0.019089885
0.05409637 0.0633987 -0.031290557 -0.043649755 -0.044435002 -0.06918421 -0.067832366 0.03136453
0.041096054 0.018675681 -0.072782554 -0.023812369 -0.010343821 -0.05124505 0.042059094 0.07049026
-0.028364979 0.059866562 0.042610742 -0.021450484 0.0418348 -0.031823434 -0.05482456 -0.072379306
-0.038333666 -0.06507566 -0.0795334 -0.00026201492 0.06989271 0.034009762 -0.019727439 -0.080878295
-0.052755825 0.01373151 -0.014769316 -0.059409175 0.0006180606 0.0031873777 0.045168478 -0.0151620805
0.02152209 -0.049950726 0.026391882 -0.06395706 -0.026102338 0.034854643 -0.006040812 0.06474532
-0.079016946 -0.041995823 0.055022176 0.07048572 0.068585925 0.04353538 0.057227213 0.05650618
0.08055075 0.0061851786 -0.0527948 -0.053672347 0.0074762926 -0.05870349 0.033068176 -0.034768548
0.07525528 0.013706116 0.027717626 -0.057284273 0.010995163 -0.062238432 0.07774011 -0.015180228
0.067105256 -0.061007395 -0.0035386444 -0.055059377 0.00059768267 0.07594613 0.015156289 -0.0054785376
-0.04318312 -0.07645647 0.011559661 0.022526802 -0.058773126 -0.008886374 0.06102289 0.0127738975
-0.08016463 -0.04830144 -0.03009529 0.058932617 -0.0644033 -0.057289023 -0.060917992 0.021602523
0.05869722 0.003106229 -0.009832452 -0.070887476 -0.04610064 -0.03456516 -0.026583573 0.013269523
-0.059778877 -0.059632055 0.0005345658 0.015266277 -0.042811975 0.030734401 0.080737785 0.067655735
00000000: a459 68bb 62f3 9abc b75b 15bc bdd3 55bd
00000010: 09f7 4f3d 691b fcbc 8b3e 883d 69af 003c
00000020: 0f57 2dbc d21f 37bc 71a2 2fbc 0591 e43c
00000030: c453 7ebd 6e48 ebbb d4c1 89bd 70b1 cd3c
00000040: 8ade 51bc 9f5c 913d c68b 22b9 cb20 443d
00000050: 0ffa 893d 7eee 7b3c 1c22 833d 1951 9b3d
00000060: b4ea dcbc c552 5dbc 233d dfbc ff3d 503d
00000070: dbad 3f3d d597 da3c 62a0 f93c 697f 1cbd
00000080: a287 a43d 08d5 61bd 7d19 11bd e8e2 81bb
00000090: c71c 6d3d 36f7 053d b820 dd3c 7a5a 963d
000000a0: 88b8 873c 91ad 143d a51b 9139 865a e43a
000000b0: ecb9 fdbb 72de 8fbd a7a1 8bbd 308a a93c
000000c0: 35c1 2dbd 2547 8d3d 52c9 4dbd 9b7b a33d
000000d0: 241f 7b3d 7a83 67bd e837 843c 67bb 9d3c
000000e0: 8810 453d 5196 413d 4ebd 863d 35b2 92bd
000000f0: f2fa aa3c 5bc5 fd3c 8b91 2b3d 089c 2abd
00000100: 14d5 8b3d 3559 67bc 1013 0d3c 3091 aa3c
00000110: 9531 943d 3309 87bd 301a 09bc 2211 2c3d
00000120: 6ab8 7d3d 7de9 61bd 4f41 363d b8d9 34bd
00000130: 490e 65bb 2705 d4bc 2e7e 333d 6554 c2bc
00000140: 1b45 78bc 6b9a a1bd 2309 04bd c363 a73d
00000150: 9409 8c3d 9999 36bb a0f7 efbc 5c5f 4b3d
00000160: ad33 6d3d 0bbf 9b3d eec5 923d c677 b4bc
00000170: c799 2bbd 887f aa3c 6c4e 9e3c 2282 f03c
00000180: 3260 8c3d bdb4 923a f19a 1f3d 0631 abbd
00000190: 583c 863d 6edb 553d 1687 333d b5db 91bd
000001a0: d05c 0fbd cf94 6d3d e572 fbbc 7a86 31bd
000001b0: 5dbc 95bc 64bf 353d 096d 923d 38eb a937
000001c0: db73 5bbd 403e 253d aab0 86bd 0076 8abd
000001d0: f16a 823b ea24 113d a7cc 8fbc 9716 40bb
000001e0: 69ed 91bc fe22 e43b 20c8 52bd b178 7f3d
000001f0: c797 98b9 d3c6 a0bd 93dc 483d de65 e93c
00000200: 9ec1 dabc ab64 993d 909f 8d3d 9157 5abd
00000210: 65b3 ccbc 293b 75bd b599 0c3b 7e7e 7fbd
00000220: 7c82 07bd 7a8c a73c 9cf3 52bc 159d 97bd
00000230: e6eb 69bd 0ec5 c6bb c160 8bbd 6462 9cbc
00000240: 2894 5d3d 2dd7 813d 872a 00bd 16ca 32bd
00000250: 7a01 36bd 73b0 8dbd b2eb 8abd 1878 003d
00000260: 5654 283d befd 983c 050f 95bd 2812 c3bc
00000270: 2179 29bc 54e6 51bd 2846 2c3d 335d 903d
00000280: ac5d e8bc a436 753d 9a88 2e3d edb8 afbc
00000290: f85a 2b3d 4a59 02bd b88f 60bd 9a3b 94bd
000002a0: c303 1dbd 6346 85bd 68e2 a2bd 0c5f 89b9
000002b0: e923 8f3d d24d 0b3d 709b a1bc 85a3 a5bd
000002c0: 7e16 58bd 21fa 603c 00fb 71bc 0957 73bd
000002d0: 5805 223a 53e3 503b 9502 393d 606a 78bc
000002e0: 184f b03c 2299 4cbd ca33 d83c ebfb 82bd
000002f0: 92d4 d5bc bec3 0e3d 01f2 c5bb 3299 843d
00000300: a3d3 a1bd d003 2cbd ef5e 613d d15a 903d
00000310: c776 8c3d 2852 323d 1567 6a3d 0673 673d
00000320: cbf7 a43d 0aad ca3b 5c3f 58bd 89d7 5bbd
00000330: b0fb f43b 1273 70bd 7f72 073d 7769 0ebd
00000340: 711f 9a3d 9e8f 603c 1310 e33c eaa2 6abd
00000350: 0e25 343c baed 7ebd 3536 9f3d 7eb6 78bc
00000360: 7b6e 893d e4e2 79bd 9ae8 67bb f185 61bd
00000370: cead 1c3a a589 9b3d 1552 783c 4e85 b3bb
00000380: c9e0 30bd 3695 9cbd bb64 3d3c 218a b83c
00000390: 17bc 70bd 2798 11bc 23f3 793d 9c49 513c
000003a0: 5b2d a4bd bbd7 45bd 668a f6bc 5463 713d
000003b0: e1e5 83bd e5a7 6abd 2585 79bd c6f7 b03c
000003c0: 7f6c 703d e091 4b3b 4b18 21bc 742d 91bd
000003d0: 06d4 3cbd 3294 0dbd cbc5 d9bc 6a68 593c
000003e0: b2da 74bd be40 74bd 1b22 0c3a 681f 7a3c
000003f0: 9c5b 2fbd b6c6 fb3c da59 a53d 178f 8a3d

bias f4 [16]
0.00048101 -0.054621052 0.018830204 -0.034846183 -0.0040144227 -0.02097286 0.06147978 -0.07024663
-0.0019306198 0.02257607 0.034404352 0.07815353 0.02192092 -0.030812575 0.012544566 -0.07710589
00000000: 1230 fc39 53ba 5fbd cd41 9a3c dfba 0ebd
00000010: 6b8b 83bb 46cf abbc 39d2 7b3d 77dd 8fbd
00000020: da0c fdba 73f1 b83c 94eb 0c3d f50e a03d
00000030: 8093 b33c a76a fcbc b987 4d3c b1e9 9dbd

weight f4 [32, 16, 3, 3]
0.03948795 0.016291903 -0.049329016 0.026545893 -0.047406655 -0.07843154 -0.039695922 0.054922473
0.080141015 -0.06495714 -0.015637819 0.0039150184 -0.051275462 0.07805447 0.00097140676 0.04888832
-0.048598967 -0.019049611 -0.039343715 -0.065497585 0.05848819 0.012618243 -0.04762418 -0.027615616
0.04427131 -0.019779338 -0.029502027 0.025087683 0.059084833 0.03687958 0.021198364 0.06463268
-0.045424357 -0.015727114 0.025903301 0.03566444 -0.013111423 -0.011971394 0.031069484 0.044508513
-0.07524039 -0.059052203 -0.02315651 0.034728065 0.030605502 0.077427514 -0.008618938 0.07436172
-0.043012705 0.027116414 -0.0798473 0.03246992 0.017464375 -0.0022572356 -0.011173091 0.005820042
0.00072737643 0.003938076 -0.06694466 0.014072896 0.035670117 0.039969027 0.075205185 -0.028018104
-0.009181897 0.017860344 -0.076736026 -0.0064914795 -0.070673235 0.047269642 0.02978219 0.024343396
0.051866755 0.029814593 0.05104505 0.059898715 -0.0056287437 0.080453455 -0.017934676 0.055506263
0.07109232 -0.06771177 -0.017915117 -0.021780066 0.07457776 -0.036185753 0.009738916 -0.07718145
0.02195264 0.065411486 0.0033204246 0.070446566 -0.047320142 -0.015155501 0.03854209 -0.07151853
0.053496294 -0.07753557 0.06822741 0.07332305 0.03499785 0.04297433 0.05590487 0.005392646
0.07768911 0.04048667 0.06825052 -0.06986649 0.07548043 -0.005506597 0.07829032 -0.0671285
0.04869611 0.00028987456 -0.016368624 0.031560805 0.07686416 -0.07559193 0.023502365 0.0026025043
0.076213874 0.032927964 -0.049391866 -0.048477445 0.06561841 -0.06301468 -0.0775347 -0.02364225
-0.01723274 0.021005359 -0.016733749 -0.072835974 -0.07373532 -0.0064046276 -0.07643868 -0.05187693
-0.05778928 -0.005415624 0.03649931 -0.055428028 -0.045059364 0.05070857 0.042392187 0.04727436
0.06792032 0.04689029 0.046280306 0.026749488 -0.011820372 0.03766428 0.045491766 -0.062205985
-0.028571976 -0.04720593 -0.027756857 0.07548072 0.048587643 0.031301063 -0.0509102 -0.0652271
-0.02925599 -0.04010302 0.03661378 -0.046268117 0.05379394 -0.075926065 0.054799143 0.0761701
0.024559673 -0.054282255 0.068287 0.07132908 -0.041627534 0.004984355 0.040996812 -0.015454867
0.0204891 -0.015510248 -0.066587515 0.07637951 0.070476495 0.06513644 0.02269655 -0.064948015
0.004582581 0.05499584 -0.0010445542 -0.0060842615 0.03842524 -0.01408082 -0.059175164 -0.039169155
0.05566678 0.04464287 -0.038941126 0.052139904 0.08041524 -0.030565958 0.06828858 0.031910397
0.08039766 -0.080088586 0.024199035 -0.010942071 0.043959316 0.0122833345 -0.057707675 0.042949956
-0.0006714562 0.043394413 0.04077278 -0.07643261 -0.034924116 0.006542591 0.03498589 -0.07198637
0.015731929 -0.04864254 -0.047934987 0.034194347 -0.045287196 -0.0025068952 0.0785316 -0.07419353
-0.078948416 0.061655626 0.07912194 -0.0634602 -0.024724226 0.00328271 -0.078963205 0.06692301
-0.07699467 -0.04167592 0.060137026 0.02967698 0.0621193 -0.042158615 -0.039194647 -0.06613214
0.016073497 0.023171803 0.02362849 0.03656565 -0.07531347 -0.017103462 -0.019291649 0.048416432
-0.0048542703 -0.03603699 0.066964455 0.07225788 0.072069824 -0.070095055 0.07309935 0.01791019
00000000: 1ebe 213d 9976 853c 390d 4abd c676 d93c
00000010: 7b2d 42bd b7a0 a0bd 3198 22bd 63f6 603d
00000020: f920 a43d 4008 85bd e21a 80bc 8e49 803b
00000030: 3806 52bd 06db 9f3d 01a6 7e3a 1e3f 483d
00000040: b60f 47bd ee0d 9cbc e026 21bd 9923 86bd
00000050: 5091 6f3d bfbc 4e3c 9211 43bd 253a e2bc
00000060: d555 353d 4708 a2bc 3cae f1bc af84 cd3c
00000070: f002 723d 0b0f 173d 31a8 ad3c 235e 843d
00000080: e40e 3abd 26d6 80bc 2933 d43c e014 123d
00000090: 4bd1 56bc aa23 44bc 6e85 fe3c 8f4e 363d
000000a0: a217 9abd b9e0 71bd b9b2 bdbc 043f 0e3d
000000b0: 64b8 fa3c 5192 9e3d 7236 0dbc f54a 983d
000000c0: 172e 30bd 3e23 de3c fb86 a3bd 2eff 043d
000000d0: 7311 8f3c 21ee 13bb 570f 37bc 0db6 be3b
000000e0: 68ad 3e3a fa0a 813b 481a 89bd 0192 663c
000000f0: d41a 123d 90b6 233d 2d05 9a3d 3986 e5bc
00000100: ab6f 16bc db4f 923c c727 9dbd 7ab6 d4bb
00000110: 21bd 90bd d09d 413d c8f9 f33c cd6b c73c
00000120: 3c72 543d bc3d f43c 9d14 513d 5b58 753d
00000130: 5371 b8bb c8c4 a43d beeb 92bc 895a 633d
00000140: da98 913d 78ac 8abd b9c2 92bc 1c6c b2bc
00000150: 3abc 983d 8337 14bd f98f 1f3c 4f11 9ebd
00000160: 06d6 b33c 75f6 853d 7b9b 593b 4a46 903d
00000170: c4d2 41bd c74e 78bc 50de 1d3d 4f78 92bd
00000180: ee1e 5b3d f8ca 9ebd d0ba 8b3d 652a 963d
00000190: e859 0f3d da05 303d 81fc 643d cbb4 b03b
000001a0: 781b 9f3d 5ad5 253d eec6 8b3d 2a16 8fbd
000001b0: 7c95 9a3d af70 b4bb ad56 a03d ab7a 89bd
000001c0: 9275 473d 4efa 9739 7e17 86bc e745 013d
000001d0: f56a 9d3d f1cf 9abd 0888 c03c c78e 2a3b
000001e0: 0516 9c3d 79df 063d 204f 4abd 4990 46bd
000001f0: f262 863d d70d 81bd 83ca 9ebd 64ad c1bc
00000200: ad2b 8dbc 6e13 ac3c 3715 89bc 072b 95bd
00000210: 8b02 97bd e9dd d1bb e28b 9cbd e77c 54bd
00000220: 74b4 6cbd 8c75 b1bb 4d80 153d 8008 63bd
00000230: 2b90 38bd cab3 4f3d 6ea3 2d3d c2a2 413d
00000240: cf19 8b3d 0810 403d 6b90 3d3d be21 db3c
00000250: 3caa 41bc dc45 1a3d 9355 3a3d b4cb 7ebd
00000260: c70f eabc 015b 41bd 5962 e3bc a395 9a3d
00000270: d603 473d 8b35 003d 3787 50bd c995 85bd
00000280: 42aa efbc 1043 24bd 55f8 153d a383 3dbd
00000290: 0957 5c3d 207f 9bbd 1175 603d 12ff 9b3d
000002a0: 5e31 c93c 1257 5ebd 0eda 8b3d fb14 923d
000002b0: a281 2abd cd53 a33b 46ec 273d 6936 7dbc
000002c0: c2d8 a73c b21e 7ebc 095f 88bd dc6c 9c3d
000002d0: fb55 903d 4166 853d 1dee b93c 7703 85bd
000002e0: 7a29 963b 5143 613d 6ce9 88ba 7c5e c7bb
000002f0: c963 1d3d 3db3 66bc a861 72bd d66f 20bd
00000300: d902 643d 71db 363d bb80 1fbd a790 553d
00000310: bfb0 a43d 7665 fabc e2da 8b3d 7ab4 023d
00000320: 87a7 a43d 7c05 a4bd 0e3d c63c 5f46 33bc
00000330: af0e 343d 0a40 493c e25e 6cbd 4bec 2f3d
00000340: aa04 30ba 57be 313d 5c01 273d b388 9cbd
00000350: 970c 0fbd 3b63 d63b 5d4d 0f3d 976d 93bd
00000360: 3fe0 803c 663d 47bd 7a57 44bd 5f0f 0c3d
00000370: 117f 39bd b94a 24bb 2dd5 a03d c7f2 97bd
00000380: b5af a1bd 9c8a 7c3d af0a a23d 6cf7 81bd
00000390: 768a cabc bc22 573b 76b7 a1bd ee0e 893d
000003a0: 62af 9dbd 5fb4 2abd 3e52 763d 231d f33c
000003b0: cf70 7e3d 83ae 2cbd 918a 20bd 4a70 87bd
000003c0: 91ac 833c cbd2 bd3c 8990 c13c ddc5 153d
000003d0: f33d 9abd 8f1c 8cbc 8509 9ebc 4f50 463d
000003e0: 9210 9fbb 869b 13bd a924 893d f0fb 933d
000003f0: 5899 933d ff8d 8fbd 1db5 953d 64b8 923c

bias f4 [32]
-0.032095484 -0.0059471955 -0.028553938 0.038978875 -0.07094008 0.017587285 0.034702305 -0.04287711
0.06893031 0.021546958 0.05892626 0.023594888 -0.045033917 0.025036218 -0.045928042 -0.0037979044
-0.0504953 -0.07904813 0.08030319 0.06505662 0.018300923 0.055775974 0.06397867 -0.0003961275
-0.045586154 -0.0006594377 -0.015136317 0.055714794 -0.040738225 0.0270249 -0.06159373 -0.081238285
00000000: 8e76 03bd b1e0 c2bb f3e9 e9bc 50a8 1f3d
00000010: 0849 91bd 3613 903c 0124 0e3d e99f 2fbd
00000020: 562b 8d3d 3f83 b03c a95c 713d 114a c13c
00000030: 7c75 38bd c118 cd3c 0b1f 3cbd 43e6 78bb
00000040: 29d4 4ebd fce3 a1bd 0076 a43d 683c 853d
00000050: d1eb 953c 5975 643d 4007 833d 55af cfb9
00000060: 8cb8 3abd 1dde 2cba 51fe 77bc 3235 643d
00000070: 20dd 26bd 5363 dd3c b549 7cbd 4260 a6bd

weight f4 [32, 32, 3, 3]
0.035324253 -0.027913293 -0.006914979 0.041084178 -0.0035863218 0.033500347 -0.03432128 0.020613374
0.052512284 -0.05258197 -0.0592167 0.021870831 -0.008467685 -0.014969612 0.054217845 -0.0120145725
0.029058184 0.0043799183 -0.043759357 -0.006419922 -0.02746765 -0.05345504 -0.011994351 0.05289962
0.017926212 0.051655088 0.027600372 -0.024941003 -0.043415044 0.027970113 -0.025105523 -0.027290378
0.01537296 -0.009300007 0.026502453 -0.020785773 0.0079828985 -0.011714423 0.022970425 0.0017336496
0.040596403 0.0005722716 0.042900186 -0.034206443 -0.000847643 -0.03825164 0.027358506 -0.039374564
0.044231642 -0.030739767 -0.02903011 0.049867835 -0.028589545 0.049108285 0.04574277 0.055631537
-0.0023738735 -0.020483876 0.04011124 0.0025244833 0.055871632 0.048914947 0.04893539 -0.012503408
0.016122926 -0.026911236 -0.016578136 0.02517158 0.05739996 -0.045138855 0.04470451 0.02483342
0.0129712485 0.03293124 -0.032747667 -0.0048402157 0.014407372 0.025173124 -0.019595759 -0.028574826
0.023617523 -0.058828663 0.029537283 0.024734378 0.01576969 -0.04372026 -0.038653452 0.015659433
0.027626794 0.0035562066 -0.031398207 0.038753938 -0.05359815 0.058160875 -0.031439133 0.0492832
-0.013664179 0.056864157 0.015953101 -0.014477473 -0.04084535 -0.04442168 0.0038563407 -0.047677368
0.004745604 -0.017863967 0.047798187 -0.047913697 -0.03963286 0.047353506 -0.029174447 0.03335463
-0.058718715 0.03355867 0.011803362 -0.031089624 -0.029521137 -0.04843184 0.015378899 -0.018558519
0.044946577 0.022698112 0.044801954 -0.008759635 -0.021094574 0.026941445 0.047767434 -0.042009577
-0.00070728024 0.023878524 0.009069375 -0.00094596867 -0.0536178 -0.027625961 0.018937571 0.03359517
-0.00030054396 -0.00049859175 -0.0062583187 0.023917543 0.03622422 0.011402708 0.015754128 -0.030734885
0.055210337 0.0034509192 0.01053086 -0.058521084 0.008101687 0.04412319 -0.021768106 0.048280686
0.014272075 -0.016603453 0.050243042 -0.047238454 -0.020167228 -0.016463175 -0.011662355 -0.05545776
0.038747456 0.034495573 -0.023024885 -0.048169073 0.046303086 0.021361388 -0.047392562 -0.03055236
-0.049642637 -0.018876575 0.04925287 0.0059258784 -0.006377347 -0.026073733 -0.03030075 -0.052447796
-0.04731375 0.057535496 0.055185374 0.056860343 0.042752758 0.051006448 0.027776826 0.025019731
-0.04778973 -0.008714521 -0.03777125 0.031399205 -0.03197611 0.0044867005 0.0047908193 0.026498964
0.02994778 -0.03748217 0.038575567 -0.055897046 0.04278551 -7.697584e-05 -0.03689409 0.025240429
-0.04090745 0.018058699 -0.056255605 0.007017208 -0.015837412 -0.008820789 0.0001563932 0.02475095
0.03637878 -0.004878181 0.011806788 -0.0001428398 0.0333035 -0.04316515 -0.051854044 -0.024873499
0.004123589 -0.012624956 -0.03461793 -0.020983964 0.018577244 -0.013040975 0.040629506 -0.024318982
0.018357275 -0.013327767 0.047657292 0.025083093 0.0068790256 -0.009441718 -0.04486315 0.028924499
-0.032270417 0.050033927 -0.01201148 -0.021492423 0.029719302 -0.034063492 -0.056087296 -0.015061089
-0.019746676 -0.019778276 0.026734425 -0.010356836 0.0034819287 -0.008215274 -0.039127752 0.041273717
0.046274174 0.026941469 0.045198843 -0.058354396 0.056378398 0.03735269 0.03295376 -0.053194553
00000000: 2ab0 103d 6baa e4bc 0c97 e2bb e247 283d
00000010: 7f08 6bbb a937 093d 7894 0cbd 61dd a83c
00000020: 1f17 573d 3160 57bd 368d 72bd 752a b33c
00000030: 0cbc 0abc 1a43 75bc 8813 5e3d c5d8 44bc
00000040: 6e0b ee3c 6b85 8f3b 033d 33bd 365e d2bb
00000050: d603 e1bc acf3 5abd f483 44bc 46ad 583d
00000060: fed9 923c 4994 533d 2d1a e23c 1351 ccbc
00000070: f9d3 31bd 9421 e53c 19aa cdbc 1290 dfbc
00000080: dede 7b3c 0e5f 18bc ac1b d93c ed46 aabc
00000090: b4ca 023c daed 3fbc 792c bc3c a13b e33a
000000a0: 6a48 263d 7f04 163a 1bb8 2f3d 0e1c 0cbd
000000b0: 5c34 5eba c0ad 1cbd f21e e03c 3947 21bd
000000c0: 3d2c 353d f7d1 fbbc 8ed0 edbc 3742 4c3d
000000d0: 9f34 eabc c525 493d c55c 3b3d e5dd 633d
000000e0: fd92 1bbb cdcd a7bc af4b 243d cd71 253b
000000f0: a7d9 643d 0a5b 483d 7a70 483d 18db 4cbc
00000100: 3a14 843c f474 dcbc dfce 87bc a134 ce3c
00000110: 381c 6b3d 85e3 38bd 141c 373d 756f cb3c
00000120: 5c85 543c e8e2 063d 6b22 06bd ac9a 9ebb
00000130: e60c 6c3c de37 ce3c 4987 a0bc c115 eabc
00000140: 8979 c13c 53f6 70bd 2cf8 f13c c09f ca3c
00000150: 702f 813c 0414 33bd 1553 1ebd 3648 803c
00000160: 9651 e23c 3f0f 693b 689b 00bd 73bc 1e3d
00000170: bc89 5bbd 193a 6e3d 52c6 00bd 2edd 493d
00000180: b8df 5fbc 64ea 683d 14b0 823c ec32 6dbc
00000190: 744d 27bd 82f3 35bd a9ba 7c3b 5849 43bd
000001a0: 0381 9b3b 7457 92bc 08c8 433d 2741 44bd
000001b0: 1156 22bd c0f5 413d 40ff eebc dd9e 083d
000001c0: 0983 70bd d174 093d e362 413c abaf febc
000001d0: 50d6 f1bc 7760 46bd c7f7 7b3c 0908 98bc
000001e0: e719 383d 64f1 b93c 4182 373d 9284 0fbc
000001f0: 87ce acbc 4eb4 dc3c c9a7 433d 3c12 2cbd
00000200: c668 39ba e59c c33c b797 143c e2fa 77ba
00000210: 579e 5bbd d74f e2bc f722 9b3c 179b 093d
00000220: 5492 9db9 edb3 02ba 9512 cdbb b9ee c33c
00000230: d95f 143d 6cd2 3a3c cd0e 813c bac7 fbbc
00000240: 3c24 623d d128 623b a189 2c3c ceb3 6fbd
00000250: f0bc 043c 85ba 343d 0753 b2bc f8c1 453d
00000260: 6cd5 693c f703 88bc a6cb 4d3d 1c7d 41bd
00000270: be35 a5bc c8dd 86bc 7613 3fbc ad27 63bd
00000280: a7b5 1e3d 3b4b 0d3d af9e bcbc ef4c 45bd
00000290: 4ea8 3d3d 14fe ae3c b41e 42bd f148 fabc
000002a0: 1456 4bbd 0ca3 9abc 61bd 493d df2d c23b
000002b0: 10f9 d0bb 9598 d5bc 4739 f8bc 80d3 56bd
000002c0: 10cc 41bd 57aa 6b3d 0f0a 623d 64e6 683d
000002d0: 841d 2f3d 23ec 503d 3a8c e33c 2ef6 cc3c
000002e0: 2abf 43bd 5ac7 0ebc 07b6 1abd 749c 003d
000002f0: 62f9 02bd 2c05 933b 4efc 9c3b 5b14 d93c
00000300: 0c55 f53c e786 19bd 6a01 1e3d 4df4 64bd
00000310: dc3f 2f3d 176e a1b8 421e 17bd 04c5 ce3c
00000320: 928e 27bd d6ef 933c 476c 66bd 9bf0 e53b
00000330: 76bd 81bc 1285 10bc 7bfd 2339 81c2 ca3c
00000340: ea01 153d 26d9 9fbb 4271 413c 44c7 15b9
00000350: 4069 083d f1cd 30bd e864 54bd 82c3 cbbc
00000360: 2c1f 873b e7d8 4ebc 88cb 0dbd 90e6 abbc
00000370: 4e2f 983c d0a9 55bc 206b 263d 9a38 c7bc
00000380: ff61 963c b55c 5abc 4b34 433d 0f7b cd3c
00000390: 7369 e13b 70b1 1abc 6cc2 37bd 12f3 ec3c
000003a0: fc2d 04bd 60f0 4c3d cccb 44bc e110 b0bc
000003b0: e575 f33c 2986 0bbd cbbb 65bd c9c2 76bc
000003c0: c8c3 a1bc 0d06 a2bc 2702 db3c b8af 29bc
000003d0: 1231 643b 5b99 06bc 6c44 20bd a10e 293d
000003e0: fd89 3d3d 5bb4 dc3c 6c22 393d 0505 6fbd
000003f0: 09ed 663d 22ff 183d 86fa 063d 88e2 59bd

bias f4 [32]
0.04739987 0.051470358 -0.014122111 0.033150673 -0.02077074 -0.026537254 0.057750195 -0.025265861
0.033460025 0.017081289 -0.0186207 -0.024731223 -0.02774364 0.011587913 0.011059958 -0.03335252
0.05123016 0.039211806 -0.021529645 0.032234214 0.03232471 0.016149068 0.05411047 0.008405377
-0.0052843504 0.0051879524 -0.023371829 0.021622652 0.03572058 0.054322753 0.03475902 -0.0080428105
00000000: 5e26 423d 95d2 523d 6d60 67bc 00c9 073d
00000010: 6627 aabc a864 d9bc 788b 6c3d 5afa cebc
00000020: 610d 093d 0fee 8b3c 708a 98bc 2299 cabc
00000030: a146 e3bc 3bdb 3d3c d334 353c a79c 08bd
00000040: b7d6 513d 8f9c 203d f05e b0bc 0608 043d
00000050: ea66 043d 0d4b 843c f1a2 5d3d b5b6 093c
00000060: 5828 adbb b3ff a93b 4776 bfbc fd21 b13c
00000070: be4f 123d 8981 5e3d 795f 0e3d fec5 03bc

weight f4 [3, 8192]
-0.0080732135 -0.009312657 0.0072684046 -0.009969409 -0.0096012335 -0.0018098636 0.007491716 -0.0061676875
-0.010583649 -0.00849568 -0.006233465 0.007054732 -0.0038352078 0.00270794 0.0013264838 -0.010952672
-0.0009898854 -0.009906642 0.0006318831 0.003922552 0.009592191 0.003691046 0.0039536487 0.011279614
-0.008688753 0.009103664 0.008514506 -0.0017080362 -0.0003064107 -0.0029770094 0.0016648867 0.0052856645
0.004439626 0.0075193313 -0.0004395707 0.011051135 0.0036527894 0.004145126 -0.005043916 -0.0037235485
-0.008927871 0.006268771 0.0022510595 -0.0009670244 -0.008430106 0.008695952 0.0050308467 -0.00066737336
-0.00680454 0.0010870324 -0.0013376104 0.0004871762 0.0051625096 0.0097417 0.008083741 -0.005998383
0.0042076446 -0.007455766 0.0027306713 0.00058716594 0.00718036 -0.0018366461 -0.0074698427 -0.0013999168
0.0063263243 0.0023346967 -0.007712335 0.0062450566 -0.005160185 0.007847421 0.0008160024 -0.0024129993
-0.006438332 0.0026151938 0.008256516 0.0028811158 -0.0077005755 0.007378794 0.006031171 0.009065829
-0.0017735629 -0.008638215 -0.00981618 -0.001740392 -0.0013246785 -0.0040745656 -0.00041776814 -0.009514278
0.0064868773 -0.009308193 0.00712178 0.0055715716 0.01092507 -0.00053219823 -0.009641058 0.0039579887
0.003224509 -0.005960298 0.005577612 0.001980625 0.0016143816 -8.124557e-05 -0.002438364 0.0018550758
0.005713167 0.009827761 -0.003822845 0.0028561205 0.0057354355 -0.0053214706 -0.010172413 -0.0005620633
-0.0053642956 -0.0073124957 -0.0045193667 -0.0068884757 -0.0073901406 -0.009821699 0.009524745 -0.0052606333
0.0023448602 0.0023573814 -0.010728994 0.002407875 0.005816424 -0.0010235651 0.0046167583 0.0062701507
-0.010629209 -0.0036539887 0.0016325251 0.009107805 -0.008898767 -0.008434813 -0.004670728 0.0008770761
0.009828124 0.0057449955 -0.009132629 0.0051910724 -0.010866082 -0.0031596068 0.0037194854 -0.006959383
-0.0037967763 0.0096463235 0.010534617 0.008114193 -0.0058641024 0.003935919 -0.0086850235 0.005298185
-0.00517205 0.010965303 0.004482178 -0.0048231925 0.005673199 -0.0015157212 -0.0024742933 -0.0021241766
0.0011577272 0.00076154363 0.0013444102 -0.000402262 -0.0078841625 0.008365376 0.0051507787 -0.008607827
-0.004744166 0.0017255509 -0.0028076137 -0.0015516578 -0.0013049861 0.0014300832 0.0005213039 0.0024514261
-0.005958975 -0.0069372305 -0.0016859032 0.0103554 0.007114021 -0.007823237 -0.0026164197 -3.6971804e-05
0.0072224895 0.002368565 -0.0007014256 0.0005464381 0.0022954 0.0007315861 -0.0087282555 0.0075322334
0.00585719 -0.010170598 -0.00036341295 0.0071367784 0.0009853404 0.004117181 0.009734856 -7.882655e-05
0.0055374526 0.0028345243 -0.008011896 0.0075872163 -0.004515319 -0.0033135877 -0.0026353295 0.005773976
0.009247212 0.010534619 -0.00097501336 0.010216426 -0.0069671664 -0.004870376 0.005642775 -0.00023471788
0.0075556175 0.0069668973 -0.0003826168 -0.0048130224 -0.0076744445 -0.0023893428 -0.0021602828 0.005843495
-0.00461329 0.00037481874 0.009672669 -0.0082871225 -0.0037279106 -0.0003886449 0.009109209 0.0033907578
-0.010281162 0.002627307 0.0066171186 -0.008153624 -0.0043922956 -0.0022309225 0.010812648 0.0018813388
0.005229726 0.0039522145 0.006681671 0.0028001328 -0.00019355264 -0.010381174 -0.003259842 -1.9046525e-05
0.00029751347 -0.0013263603 0.003630426 0.010214281 0.009690604 -0.0026717084 0.0062361434 -0.002127182
00000000: 8345 04bc 1d94 18bc cc2b ee3b bb56 23bc
00000010: 7e4e 1dbc f238 edba 127d f53b 501a cabb
00000020: 0b67 2dbc 7731 0bbc 1842 ccbb 622b e73b
00000030: 1c58 7bbb b277 313b 69dd ad3a d672 33bc
00000040: 0bbf 81ba 784f 22bc f5a4 253a c088 803b
00000050: 9128 1d3c 7ae5 713b 9c8d 813b 21ce 383c
00000060: 455b 0ebc 8927 153c 6d80 0b3c 2fe0 dfba
00000070: bfa5 a0b9 ee19 43bb 5438 da3a 5e33 ad3b
00000080: 487a 913b b964 f63b 2e76 e6b9 d20f 353c
00000090: a363 6f3b d6d3 873b 6f47 a5bb c706 74bb
000000a0: 3446 12bc 436a cd3b 8386 133b e97f 7dba
000000b0: 6d1e 0abc 7779 0e3c cdd9 a43b abf2 2eba
000000c0: 9ef8 debb c17a 8e3a c252 afba af6b ff39
000000d0: 452a a93b a79b 1f3c ab71 043c 158e c4bb
000000e0: 48e0 893b 804f f4bb 10f5 323b 0aec 193a
000000f0: 3a49 eb3b 9ebb f0ba 95c5 f4bb 6a7d b7ba
00000100: 0e4d cf3b b601 193b c1b7 fcbb 55a3 cc3b
00000110: c516 a9bb 7892 003c fee8 553a 6923 1ebb
00000120: a5f8 d2bb ac63 2b3b 5746 073c 1ad1 3c3b
00000130: 1c55 fcbb cfc9 f13b 21a1 c53b d888 143c
00000140: e576 e8ba 4d87 0dbc 0bd4 20bc dd1d e4ba
00000150: d6a0 adba ef83 85bb e407 dbb9 c6e1 1bbc
00000160: df8f d43b 6481 18bc d25d e93b bb91 b63b
00000170: 11ff 323c 3883 0bba 87f5 1dbc 04b2 813b
00000180: 4952 533b 9a4e c3bb 67c4 b63b 60cd 013b
00000190: a899 d33a 6262 aab8 f6cc 1fbb 0426 f33a
000001a0: 8535 bb3b 9e04 213c b288 7abb c02d 3b3b
000001b0: 52f0 bb3b bb5f aebb 31aa 26bc 6e57 13ba
000001c0: f9c6 afbb a99d efbb 3217 94bb b9b8 e1bb
000001d0: fe28 f2bb 31eb 20bc ad0d 1c3c 6461 acbb
000001e0: 3aac 193b 4c7e 1a3b aac8 2fbc 70cd 1d3b
000001f0: b397 be3b 2529 86ba 2d48 973b d675 cd3b
00000200: 2226 2ebc c277 6fbb 74fa d53a e738 153c
00000210: 22cc 11bc 2b32 0abc e80c 99bb 95eb 653a
00000220: 2406 213c 8440 bc3b 06a1 15bc df19 aa3b
00000230: a707 32bc 6811 4fbb 9cc2 733b 890b e4bb
00000240: 56d3 78bb 9d0b 1e3c 6399 2c3c 64f1 043c
00000250: a827 c0bb e2f8 803b a14b 0ebc 669c ad3b
00000260: 4d7a a9bb d0a7 333c 3cdf 923b df0b 9ebb
00000270: 3ee6 b93b 2aab c6ba c127 22bb c535 0bbb
00000280: e1be 973a 54a2 473a ec36 b03a b1e6 d2b9
00000290: 932c 01bc ee0e 093c ddc7 a83b d807 0dbc
000002a0: f374 9bbb e12b e23a f1ff 37bb ff60 cbba
000002b0: 110c abba a171 bb3a 1da8 083a 1ba8 203b
000002c0: 8143 c3bb b551 e3bb 86f9 dcba b2a9 293c
000002d0: bc1c e93b 092d 00bc 3d78 2bbb 2c12 1bb8
000002e0: a2aa ec3b ed39 1b3b e0df 37ba d73e 0f3a
000002f0: 6c6e 163b e9c7 3f3a f500 0fbc f4d0 f63b
00000300: aced bf3b 94a2 26bc 7688 beb9 a3db e93b
00000310: 8a26 813a 6be9 863b f27e 1f3c af4f a5b8
00000320: 8573 b53b 6dc3 393b 5444 03bc 2f9e f83b
00000330: 3ef5 93bb c728 59bb 7eb5 2cbb 9f33 bd3b
00000340: 9e81 173c 6599 2c3c 0a98 7fba cc62 273c
00000350: d44c e4bb ad97 9fbb 07e7 b83b 9a1e 76b9
00000360: 1d95 f73b 924a e43b f599 c8b9 8fb6 9dbb
00000370: e879 fbbb 8596 1cbb 8893 0dbb ca7a bf3b
00000380: 152b 97bb 5283 c439 1d7a 1e3c b6c6 07bc
00000390: f64f 74bb 09c3 cbb9 cb3e 153c 7a37 5e3b
000003a0: 5272 28bc e62e 2c3b 6ad4 d83b c796 05bc
000003b0: 3fed 8fbb ab34 12bb 8827 313c 4197 f63a
000003c0: 1f5e ab3b 9481 813b ebf1 da3b 6f82 373b
000003d0: 64f4 4ab9 cd15 2abc 13a3 55bb 1ac6 9fb7
000003e0: 95fb 9b39 44d9 adba 71ec 6d3b cd59 273c
000003f0: 57c5 1e3c d417 2fbb 9058 cc3b 3168 0bbb

bias f4 [3]
-0.009680532 -0.0022161622 0.0029317786
00000000: 189b 1ebc 083d 11bb 1523 403b
