Neural_network_Projects/plant_disease_recognition/recognize_disease_25_12.pt (torch, 171224 bytes, 10 tensors)

weight f4 [16, 3, 3, 3]
000000 d7 b8 fc bd 36 52 84 3d 66 42 14 bd 88 77 1d 3e
       -0.12339943 0.06460993 -0.036196135 0.15377629
000010 9a 99 a8 bb 6b a4 03 be db 04 8e bd 4f cf c6 3b
       -0.005145264 -0.12855689 -0.0693452 0.0060671936
000020 d8 8f a6 3c 26 50 4f bb d9 7d 98 bd b4 34 a2 3c
       0.020332262 -0.0031633466 -0.074458785 0.019800521
000030 1b 96 ed bd 63 e7 12 3d a6 cc fc bd 3e 7c 09 3d
       -0.11600896 0.0358652 -0.12343721 0.033565752
000040 f2 20 f0 3d be 3c 35 bd 20 a3 0a 3c 69 e7 fe bc
       0.11725034 -0.04424738 0.008461744 -0.031116204
000050 6d d7 2f 3e f7 79 30 be be 55 a8 bd 0e c9 ad bd
       0.17172022 -0.17234026 -0.08219479 -0.08485614
000060 fc cf 36 bd dd 90 35 3d 76 32 3c bd a9 1e c7 bd
       -0.044631943 0.044327606 -0.04594656 -0.09722645
000070 00 41 05 3e bf 77 a7 bd 8d 1b c5 bc 99 94 d3 bd
       0.13013077 -0.08177137 -0.024060989 -0.10331077
000080 aa f5 cc bd e0 6e 29 3e b2 86 2c be 0b 06 3f 3e
       -0.10007794 0.16546202 -0.16848257 0.18654649
000090 12 32 81 bd fc de 41 be 54 0c 50 3d d8 9b fa 3c
       -0.06308378 -0.18932718 0.050793007 0.03059189
0000a0 af a0 62 3c 35 96 49 bd 36 68 0b be 30 1d 08 3e
       0.013832255 -0.049215514 -0.13613972 0.13292384
0000b0 64 37 24 be b3 b0 f8 bd 0b f1 0c be ff 9a 10 be
       -0.16036755 -0.12143078 -0.13763826 -0.14121626
0000c0 51 bd 0f be 91 34 95 3d eb 4a ac 3d 3c be d6 bc
       -0.14037062 0.07285417 0.08412727 -0.026213758
0000d0 04 7f 38 be b6 6c ac bd 40 36 25 3e 84 8d 99 3c
       -0.18017203 -0.084191725 0.16133976 0.018744238
0000e0 0b ab 01 3e 23 96 2f be d4 a5 39 be ce 39 39 3e
       0.12662904 -0.17147116 -0.18129665 0.18088457
0000f0 aa 48 1b bb d4 24 3c 3d c8 c0 a0 bd d8 c2 18 bd
       -0.0023694434 0.04593356 -0.0784927 -0.037295192
000100 93 2c 8d 3d 58 30 8f bd 14 1c 3f 3e c3 f3 4f 3d
       0.068932675 -0.06991643 0.18663055 0.05076958
000110 9a 2b a6 3d f0 c9 1d be 0a 9b 2a 3e a0 b0 14 be
       0.08113785 -0.15409064 0.16660705 -0.14520502
000120 81 bd 1e 3d cd 47 89 3d 49 a1 8c bc e1 7d 41 3e
       0.038754944 0.06703148 -0.01716675 0.18895675
000130 a5 7a f0 bd dc c6 75 3d b1 61 e1 3d fd 29 d3 3c
       -0.117421426 0.0600041 0.11004961 0.025776858
000140 0c e6 18 3e 0a 56 bf 3d 36 06 24 be 3a 6d fc 3d
       0.14931506 0.093425825 -0.16017994 0.12325521
000150 1f 81 a9 3d 6c 3f 8f 3d c9 83 1b bd 06 6c 19 3e
       0.08276581 0.06994519 -0.037967477 0.14982614
000160 93 ca de bd 0f f7 9d bd 53 71 c8 ba 79 1d 53 3d
       -0.10878482 -0.07713138 -0.0015292562 0.05154178
000170 ab e9 24 3e d0 ad 02 3e 9f a1 1f 3e d0 5b 1c bd
       0.16104762 0.12761617 0.15588997 -0.038173497
000180 67 29 c4 bc a0 10 d0 3d 45 85 ce 3b 7c ad bf bd
       -0.023945523 0.10159421 0.006302508 -0.093592614
000190 e2 cc 0f 3e 73 3a a7 bb 3a a9 ec bd ab a2 36 be
       0.14043 -0.0051034032 -0.11555715 -0.1783549
0001a0 62 48 92 3d fb e8 06 3d 81 6f 0f 3d c6 05 ea 3d
       0.07142712 0.03293703 0.035018448 0.114268824
0001b0 08 fd f8 bd 53 f4 03 be 98 3a 8a bd 14 66 f2 bd
       -0.12157637 -0.12886171 -0.06749457 -0.11835876
0001c0 2c ad e6 bc f6 68 3d be 86 3a 38 be 4b ae ca 3d
       -0.028158747 -0.1849707 -0.17991075 0.09896525
0001d0 05 8b bf 3d 6e ea f3 bc 58 51 32 3e 71 98 4a bd
       0.09352688 -0.02977487 0.17413843 -0.049461786
0001e0 01 26 44 3b 4a ab 3a 3e 4f 6f ba bd 00 dd 7d 3d
       0.0029929879 0.18229404 -0.09103262 0.06197834
0001f0 c6 50 24 3e 1d 07 17 be a0 5c 8b 3d d5 cb 90 bd
       0.16046438 -0.14748807 0.06804776 -0.07070128
000200 5e cd 0f be e2 9a 09 be e0 a9 20 be 3a 8a 29 be
       -0.14043185 -0.1343799 -0.15689802 -0.16556635
000210 7e 63 a5 3d 24 84 21 3d a1 36 8c bd 15 27 30 bd
       0.08075617 0.03943266 -0.06846357 -0.04300602
000220 14 45 d9 3d 6f b7 2e bc 30 30 25 bc a5 d7 78 3c
       0.10608879 -0.010663851 -0.01008229 0.015188132
000230 24 f1 a6 bc 3d a1 df bd b4 b0 88 bb 21 34 dc bd
       -0.020378657 -0.10919426 -0.0041714553 -0.1075213
000240 cf 14 0e be da 40 10 3e fa 48 1f 3e 9e 79 b7 3c
       -0.13875125 0.14087239 0.15555182 0.022396859
000250 e5 e8 32 be f5 4b dd 3d 34 e3 1e 3e 7e 72 90 3d
       -0.17471655 0.10805503 0.15516359 0.07053088
000260 4f 06 31 3e f1 d4 b3 bc 67 28 8d bd 19 ea 9e bd
       0.17287563 -0.021952124 -0.06892472 -0.07759494
000270 bd b9 42 be c3 44 a5 bd a3 fa 7d bb be c5 36 3d
       -0.19016166 -0.08069756 -0.0038754127 0.044622175
000280 73 c6 a2 bd 37 6f c3 bd 7e f7 f1 bb 99 a5 97 3d
       -0.079480074 -0.09542697 -0.0073842397 0.07404632
000290 84 22 7d bd 42 e9 e9 bd 29 00 0f bd d1 03 0a be
       -0.061800495 -0.114214435 -0.034912262 -0.13478018
0002a0 c4 e1 21 bd db b8 28 be b0 f4 a7 3c ec e2 a7 3d
       -0.039521948 -0.16476767 0.020502418 0.08197579
0002b0 2e d7 e3 bb d0 31 7e 3d e9 9d 0e 3e e3 65 ca 3d
       -0.0069531417 0.062059224 0.13927425 0.098827146
0002c0 4c 8f 2d be 97 52 19 be 45 03 f1 3d 17 9a d5 bd
       -0.16949195 -0.14972912 0.11768202 -0.10429781
0002d0 00 e1 8b 3d b6 cd 25 be f4 52 b6 bd ce 6c 63 bc
       0.06830025 -0.16191754 -0.08902541 -0.0138809215
0002e0 16 3c 04 be 45 8d 58 bb 6f b2 01 3d 8c 9d 22 be
       -0.12913546 -0.0033043188 0.03166431 -0.15880412
0002f0 28 f0 8d bd fd d8 02 be 1f 1e 9b 3d 7a f2 0c be
       -0.06930572 -0.12778087 0.075741045 -0.13764372
000300 12 92 e6 bb c0 3f bd bd dd b8 39 bd e8 43 41 3e
       -0.007036456 -0.09240675 -0.045342315 0.1887356
000310 3c bd 1f 3e 90 2c f1 bd e7 2e b0 3d 2b 9e fc 3d
       0.15599531 -0.11776078 0.08602696 0.12334856
000320 d3 42 89 3d e0 aa f5 3d b0 df 92 bd 2b be cb 3c
       0.06702199 0.119954824 -0.07171571 0.024870953
000330 55 99 31 3e f2 65 3a 3d 02 4d 8c 3d b5 4a 06 3e
       0.17343648 0.04550738 0.068506256 0.13114436
000340 f8 85 28 be 7d 9e 74 3d 8b 51 29 bd 15 28 01 be
       -0.16457355 0.05972146 -0.04133753 -0.12612946
000350 06 54 0d 3e 34 d0 37 3d a8 94 5c 3d 29 96 a2 bc
       0.13801584 0.044876292 0.053852707 -0.019846993
000360 70 a2 77 bd b5 af 00 3e 6c 18 45 3e 3d 88 d7 3d
       -0.060457647 0.12567027 0.19247597 0.10524032
000370 08 03 d8 bd a3 da 19 3d 2c f3 93 3d d0 86 2b 3e
       -0.10547453 0.037562024 0.07224116 0.16750646
000380 f3 8d 1e 3e d4 ec fb 3d 78 56 85 3c 48 27 35 3e
       0.15483837 0.12301031 0.016276583 0.17690766
000390 c1 42 01 3d 59 e0 12 be d0 f3 75 bd 98 88 40 3e
       0.031557802 -0.14343394 -0.06004697 0.18802106
0003a0 93 e5 fc bd 89 70 05 be 0c 51 42 3e 92 57 30 3e
       -0.12348475 -0.1303121 0.1897623 0.17220905
0003b0 f0 24 00 3d 1c 01 cf bb 3a 42 0b 3d 27 b5 43 be
       0.031285226 -0.006317271 0.033998705 -0.19112073
0003c0 86 10 ba 3b 0c 43 07 be f8 b3 be bd 2b 64 86 3b
       0.0056782393 -0.1320917 -0.0931167 0.0041012964
0003d0 c9 fa 1d 3e 28 ca 7b bc 74 43 28 be 67 ad 04 3e
       0.15427698 -0.015368022 -0.16431981 0.12956773
0003e0 dd 72 11 3e ea af ed 3d 65 69 f0 3a df 09 33 be
       0.14203973 0.116058186 0.0018341957 -0.17484234
0003f0 95 78 ea bd 1b 25 cc bc b1 7d 82 bc 0d 31 bb bd
       -0.114487804 -0.024920037 -0.015929075 -0.09140215

bias f4 [16]
000000 bd c9 e7 3d 34 d9 c8 bd 18 31 0d be 21 9e 30 be
       0.113177754 -0.09807053 -0.13788259 -0.17247821
000010 cf 00 39 3e 9a 44 10 be dd 9f df 3d c8 f5 c4 bd
       0.18066715 -0.1408867 0.109191634 -0.096171916
000020 ba b7 43 3e c3 7e cc 3c 2e 23 c2 bd 25 95 96 bc
       0.19113055 0.024962788 -0.09479366 -0.018381665
000030 6c df c4 3c df bb 35 be 54 e8 1d bd c2 17 c4 3d
       0.024032317 -0.17747448 -0.038551643 0.09574844

weight f4 [16, 16, 3, 3]
000000 ca 15 87 bd 65 7c 32 bd 0f 1f 5f 3d 0b 7f 89 3d
       -0.06595953 -0.043575663 0.05447298 0.06713685
000010 7d ca 6a 3d 51 ec 09 3d 29 a7 d6 bc 78 cd a2 3b
       0.057322014 0.033672635 -0.026202755 0.0049683414
000020 01 cf 92 3d eb 7e db bc 9b 40 1d 3c a2 c4 26 3d
       0.07168389 -0.026793918 0.009597923 0.040714867
000030 0d 0a 25 bd 91 57 f6 3c bb 15 a5 3c f8 14 06 bd
       -0.04029279 0.030071052 0.020151963 -0.03273484
000040 0a 60 c4 37 b2 41 94 3d 05 04 60 3d 9b a5 67 3d
       2.3409742e-05 0.07239093 0.054691333 0.056554418
000050 73 2d fa bc 86 74 98 3c 94 20 98 bd 6b f5 6e bd
       -0.03053925 0.01861025 -0.07428089 -0.058339518
000060 f9 79 4d 3d d8 96 52 3d 27 75 71 3b c3 5b 90 3d
       0.05016515 0.051413387 0.003684351 0.07048752
000070 9e 0c a7 3d be 57 9f 3d bb 15 9b 3d f5 e0 4c bd
       0.081567034 0.07780407 0.07572504 -0.050019223
000080 6a c0 a9 3c 02 09 5e 3d 50 cb aa 3a 7a 5e 42 3c
       0.020721633 0.05420781 0.0013030563 0.011863345
000090 31 23 96 3d f8 38 2c bd 50 33 db 3c c7 3a 6c bd
       0.07330931 -0.042046517 0.026757866 -0.057673242
0000a0 0c 39 c6 bc 79 1e c9 3b a0 b7 9d 3d 39 5c b5 bc
       -0.024197124 0.006137666 0.07701039 -0.022138702
0000b0 16 2f 51 3d 5b 94 59 3c bf 76 8c 3d a6 c9 55 bc
       0.051070295 0.01328 0.068585865 -0.013048565
0000c0 e8 58 07 bd d1 1e 0b 3d 4c 0e 98 3d 49 11 54 3d
       -0.033043772 0.033964936 0.07424602 0.051774297
0000d0 c2 29 a3 3d 1e 49 7e bc bb bb 3a 3d 8b 3f 15 3d
       0.07966949 -0.015520362 0.04558919 0.036437552
0000e0 c7 9b 5d 3d ec c7 ce 3c da 33 9b 3c 8e 58 b6 bc
       0.05410364 0.025241815 0.018945623 -0.022259023
0000f0 2d ac c1 3c 03 f2 28 3d 16 e9 85 bc e6 f1 a3 3d
       0.02364167 0.041246425 -0.016346496 0.08005123
000100 d9 96 9e bc 39 4b f0 bc 88 99 01 3c 59 0d 06 bd
       -0.01935904 -0.029332744 0.00791014 -0.032727573
000110 f6 08 bd 3c 9e f6 4d 3d 73 93 a7 bd 1a 59 a2 3d
       0.023075562 0.05028402 -0.081824206 0.07927151
000120 b9 48 14 bc 64 28 ab 3d d9 5b da 3b 16 26 26 bd
       -0.009050542 0.08357313 0.006663781 -0.040563665
000130 0f 6b 95 bd a7 f2 8b bd e2 27 13 3d cf 35 1b 3d
       -0.072958104 -0.06833392 0.035926707 0.037893113
000140 38 88 83 bd 8a 43 1d bd 38 b0 71 bd 68 de 49 3b
       -0.06422466 -0.03839449 -0.059005946 0.003080273
000150 31 1d 20 bd 7b 88 a6 3c 36 ec 50 bd 45 b3 27 3d
       -0.03909034 0.02032875 -0.05100652 0.04094245
000160 6a 99 57 bd 9f 37 92 bd 29 89 c5 3b 20 aa 08 bd
       -0.05263654 -0.07139515 0.0060283137 -0.03336537
000170 c2 84 20 3d 1c b6 d6 3c 91 42 04 bc 5a 3a dc 3b
       0.039189108 0.026209883 -0.008072511 0.0067208232
000180 9e d9 33 bd 46 15 c7 bc 08 80 1f 3d 8e 8a 33 3d
       -0.043908708 -0.024302136 0.03894046 0.043833308
000190 52 e4 48 3c 1d 4d 2d bd 0a e1 4b bc 4b 6e 97 3b
       0.012261467 -0.04230987 -0.01244379 0.0046213022
0001a0 bd 47 89 bd f9 5d 04 bd 26 12 6b 3c 44 3a 19 bd
       -0.06703136 -0.03231618 0.014347589 -0.037409082
0001b0 86 b3 01 3d 3c a7 9d 3d 7d 4d 82 bd b9 7c a4 3d
       0.031665348 0.07697913 -0.06362436 0.080316015
0001c0 e1 0b d0 3c ad 03 5d bc 4e 1d 67 bd 47 e1 98 3d
       0.02539629 -0.013489646 -0.05642443 0.07464843
0001d0 8b 00 90 3c 10 ae 9b bd be dc f8 3c f6 c9 94 3d
       0.017578384 -0.07601559 0.030378696 0.072650835
0001e0 6b b0 12 3d be b7 40 bc 04 85 7d 3d 39 0a 43 3d
       0.035812777 -0.011762558 0.06189443 0.04761717
0001f0 99 c0 5b bd 9b 0a e6 bb 93 48 7f bd 79 46 50 3a
       -0.053650472 -0.0070203072 -0.06232507 0.00079450716
000200 e9 ed d0 ba d7 1f eb 3b 77 75 0b bc 5c 14 d0 3c
       -0.0015940043 0.0071754265 -0.0085118925 0.025400333
000210 8d 1a fb bc e9 01 7f bd de 34 8f 3c ad 57 7f bd
       -0.030652309 -0.06225768 0.017481264 -0.062339474
000220 55 02 81 3d 7f 00 19 3d e6 ef 8a bd 8e 27 24 bd
       0.06299273 0.03735399 -0.06784038 -0.040076785
000230 a6 56 a5 bd bf c0 63 bd 77 4c ce bc 59 cb b8 bc
       -0.080731675 -0.05560374 -0.025182946 -0.022557901
000240 fe d4 2c bd 3e 05 47 3d 13 48 01 bd ca 09 36 3b
       -0.042195313 0.048588984 -0.031562876 0.002777683
000250 1a 7f ff 3c c8 49 94 bd d1 f4 b6 bc a1 5a 98 3c
       0.031188536 -0.07240635 -0.022333534 0.018597903
000260 eb 42 0a 3d 88 ae a5 bd 8b e8 58 3d 0b 29 68 3d
       0.033755224 -0.0808993 0.052956145 0.056679767
000270 0a 51 3d bd 39 da a1 bd 9c 8b 03 bd e2 40 02 bd
       -0.046219863 -0.07902951 -0.032115564 -0.03180016
000280 b8 8b 85 3d 5c 30 57 bd 1c 1a 64 3d 3b 76 8c bd
       0.0652079 -0.052536353 0.055688962 -0.06858488
000290 0c c0 97 3d b6 f6 12 bc 09 4a ae bc 7a 36 81 3c
       0.07409677 -0.008969953 -0.021275537 0.015773047
0002a0 c0 3a 3d bd 70 eb 09 bd d5 53 91 bc 15 c4 99 3a
       -0.046198606 -0.033671796 -0.01774017 0.0011731411
0002b0 c3 5b 84 3c a7 aa 88 bd 92 21 27 bc 87 77 8d bd
       0.016157037 -0.06673174 -0.010200875 -0.06907564
0002c0 2c 64 0a 39 3f c8 4f 3d 2d 95 a6 bd 00 5e 95 3d
       0.00013198022 0.05072808 -0.08133922 0.0729332
0002d0 11 a7 83 bd e9 9e db 3c b1 75 29 bb 20 5c 46 bd
       -0.0642835 0.026809173 -0.0025857503 -0.0484277
0002e0 98 f1 87 3b ed f1 9c 3d 4e 25 90 bd 18 12 5b 3c
       0.0041486733 0.07663331 -0.07038365 0.013371013
0002f0 61 85 7b 3d d3 69 8b 3d af a2 a1 bd d0 10 bf bc
       0.061406497 0.06807294 -0.078923576 -0.023323447
000300 9a 85 1a bd c9 ad 71 3d b4 2e 70 3d 3f f7 88 bd
       -0.03772507 0.059003625 0.05863829 -0.066877834
000310 82 5f 5c bd fd 81 a2 3d 84 b7 3e 3d 93 9f 1f 3d
       -0.05380202 0.079349495 0.046561733 0.03897054
000320 67 cd 60 3d 60 af 9d bb 11 d5 d9 bc 76 94 ff bc
       0.054883387 -0.004812166 -0.026590856 -0.031198721
000330 8e 24 8d bc c8 e7 f2 bb fe 36 39 bc 19 a6 4b 3d
       -0.017229345 -0.0074128844 -0.011304615 0.04971895
000340 b2 01 fd bc aa ff 6a 3d 5e be 2e 3d c1 fc 2f 3d
       -0.030884597 0.057372727 0.042662017 0.042965654
000350 1e 66 e9 3b b3 29 1c 3d a3 a8 c3 bb 41 af 8a 3d
       0.007122769 0.038125705 -0.005971031 0.06771708
000360 d8 15 92 3c de 1f 93 3c 0c 15 70 bc a2 83 9f 3c
       0.017832682 0.017959531 -0.0146534555 0.019471947
000370 90 9f 65 3b f4 8a a2 bd 48 ac 67 3d bf b2 1f 3d
       0.0035037734 -0.079366595 0.056560785 0.038988825
000380 4e 1e f4 bc 90 e1 1c 3d 12 2d 51 bc 15 27 a1 bd
       -0.029799607 0.03830105 -0.012767093 -0.078687824
000390 d1 97 93 3d 5c 43 8c bd 22 ea 6b 3c d5 7e 1a bd
       0.07206691 -0.06848785 0.014399083 -0.037718613
0003a0 08 eb 9e 3d 23 f3 6f 3d 89 85 a0 3d e6 d6 21 3d
       0.077596724 0.058581483 0.0783797 0.039511584
0003b0 c4 5f 7a 3c b7 fd fe bb 7d d4 7e 3c 35 a0 7f 3d
       0.015281621 -0.00778171 0.015553591 0.062408645
0003c0 27 4d 7b bd ec dc 86 bc a0 91 a5 bd e9 7c 9d bd
       -0.061352875 -0.016462766 -0.080844164 -0.0768984
0003d0 f5 cd 95 bd 1a 00 ba bc 25 23 04 3d ca 6e 92 bc
       -0.07314674 -0.022705127 0.03226008 -0.017875094
0003e0 e6 cf c2 b8 c5 5d 74 bd b6 cd ff bb 12 26 b7 bc
       -9.289365e-05 -0.059659738 -0.007806505 -0.02235702
0003f0 a7 29 9b bd 95 79 38 bb a8 d7 ad bb 67 78 4f 3d
       -0.07576304 -0.002814864 -0.0053052492 0.050651934

bias f4 [16]
000000 79 0f 3e 3d b6 98 42 3c e9 2d 9c bd ce d3 cc 3b
       0.046401475 0.011877229 -0.07625944 0.006250835
000010 14 5b 95 bd 96 4b 95 3d 0b c7 83 bc 55 df 44 bd
       -0.072927624 0.072898075 -0.016086122 -0.04806455
000020 68 52 99 3d f0 ec 1a bd cb 00 8d 3d 41 7f 8c bd
       0.07486421 -0.037823617 0.06884917 -0.06860209
000030 33 1a 93 bd 0b 11 59 bd 51 e7 58 3c 80 d6 48 bd
       -0.071827315 -0.05299477 0.013238744 -0.04903269

weight f4 [32, 16, 3, 3]
000000 70 ba 68 3d dc 2c 42 3c 14 fd 8e bd 0f 27 cb ba
       0.056818426 0.011851516 -0.069818646 -0.0015499311
000010 91 5d 8d bd 5b cc 61 bd d9 51 3c 3d 7b a1 59 3d
       -0.06902612 -0.05512653 0.045976494 0.053132515
000020 7f 51 74 bb 19 31 b2 bc bd 6f 29 3b 57 48 93 bb
       -0.003728002 -0.021751927 0.0025853955 -0.0044947076
000030 e2 37 67 3d 25 80 71 bd 44 a4 03 bc ec 38 fa bc
       0.05644978 -0.0589601 -0.008034769 -0.03054472
000040 7f 20 e7 3c c6 fc 0b 3d 28 b7 93 3c 2a 24 fd 3b
       0.028213738 0.03417661 0.018031672 0.0077252584
000050 b7 7c 8b bb cd 96 26 3c 0e f9 88 bd ab 07 2e bd
       -0.0042568105 0.01016779 -0.066881284 -0.04248778
000060 33 e7 14 b9 7c c8 64 bd 34 61 10 3d 61 0a 3d bd
       -0.00014200508 -0.05585526 0.03524895 -0.046152476
000070 38 58 85 bd d8 6c b2 3c 68 d0 97 bd bd a0 81 3d
       -0.06510967 0.021780416 -0.07412797 0.063294865
000080 79 f3 2f 3c 28 82 26 3d 73 db 19 3d a6 3d 9a bd
       0.010739201 0.04065147 0.0375628 -0.0753129
000090 f5 eb 81 3c 8b de f4 bc 69 01 a3 3d 2f 9e d6 bc
       0.015859583 -0.029891273 0.07959253 -0.026198475
0000a0 80 a6 8c bc c1 18 12 bd ce f0 be 3c 39 13 0c 3d
       -0.017169237 -0.03566814 0.023308184 0.03419802
0000b0 1e a1 ec bc 41 ff 3f 3c 7c fd 01 3c a2 69 a4 3b
       -0.02888542 0.011718572 0.007933971 0.005017475
0000c0 1a 95 c8 bc d2 82 9c bc 74 0c a6 bd d3 f6 5a bd
       -0.02448516 -0.019105349 -0.08107844 -0.053458046
0000d0 f8 28 6a 3b 9f bf 73 bd b5 66 41 3c ac 32 a1 bd
       0.0035729986 -0.059508916 0.011804272 -0.07870993
0000e0 03 36 fa bc 6b 67 21 bd 03 66 8f 3d 78 c2 a4 bd
       -0.030543333 -0.039405268 0.07001879 -0.080449045
0000f0 16 4f 31 3d 02 3a 90 bd 34 a8 5d 3d ff e6 7c 3d
       0.043288313 -0.07042314 0.05411549 0.061743733
000100 c8 c9 a2 bd a0 35 40 3d 30 db 56 3d ce d2 9b 3d
       -0.07948643 0.04692614 0.052455127 0.07608567
000110 6a f7 c5 3a 27 a4 9f 3c e5 f0 28 3c 21 bc 30 3d
       0.0015103642 0.019487454 0.01031134 0.043148164
000120 36 da 1b 3d d8 c8 65 3d 1b 22 42 3d 81 a0 9d 3d
       0.0380499 0.056099743 0.047395807 0.07696629
000130 da f7 6c bd 69 59 9f bc 2b 35 11 bc 76 f8 8c bd
       -0.057853557 -0.019451814 -0.008862774 -0.06883328
000140 3e d3 a1 bd e2 74 4c bd 41 35 fb 3c 70 49 3d 3d
       -0.079016194 -0.049916156 0.030665042 0.046212614
000150 e8 d7 76 ba 62 e2 66 3c 72 53 11 3d 09 76 7a bd
       -0.0009416328 0.01409206 0.03547997 -0.061147723
000160 13 f5 8a 3d 88 df a0 bd d1 be 8c bc 1f 8a ed bc
       0.067850254 -0.07855135 -0.017180832 -0.028996525
000170 ce 2c 8b 3d f4 ce 62 3d f0 25 c4 bb e7 a8 99 3c
       0.06795655 0.055373147 -0.005985968 0.018757297
000180 ec be 96 3d 4f 0a 4f 3d a0 e0 dd bc cc bd 17 3d
       0.07360634 0.05054694 -0.027084649 0.03704624
000190 cd fa ed bc ae 32 93 3d f9 60 02 bc 7f d5 27 3c
       -0.029050255 0.07187401 -0.00795769 0.0102437725
0001a0 eb ee a2 bd 00 6c 85 3c 25 b1 c6 3c 6a 02 54 bd
       -0.07955726 0.01628685 0.024254391 -0.051760115
0001b0 d7 5f 92 3d 1b a3 6d bd 19 25 9e 3d e3 b6 da bb
       0.07147186 -0.058016878 0.077219196 -0.006674634
0001c0 0a ee 72 3c c3 14 44 3c b8 4c 84 bd 22 14 ed bc
       0.014827261 0.011967841 -0.064599454 -0.028940264
0001d0 f4 06 5c b9 6d a4 a2 bc f6 9f 0e 3d b0 e2 86 bd
       -0.00020983425 -0.019853795 0.03482052 -0.06586206
0001e0 0b 7b 36 bc 35 39 f4 3b f8 9e 74 bd f9 24 4c bd
       -0.011137734 0.0074531087 -0.059721917 -0.049839947
0001f0 55 73 e0 bc e3 b8 2b bd 22 45 86 bc 64 a6 91 3d
       -0.027398745 -0.04192437 -0.016390387 0.071118146
000200 80 b6 fa bc 8f f6 d6 bc 7d 28 72 bd a4 bf 24 bc
       -0.0306046 -0.026240615 -0.059120644 -0.010055456
000210 26 8a c3 bc 42 38 95 bd 0d d7 04 bd 04 e7 d3 3c
       -0.023869585 -0.07286121 -0.03243165 0.025866993
000220 7d fc a1 3c 18 2a 66 3d cd f3 17 3b ba 08 35 3d
       0.019773716 0.056192487 0.0023186088 0.044197775
000230 f1 f4 a9 bc 3a fc 4b bd 55 51 df 3c de 56 91 bd
       -0.02074668 -0.04980109 0.027260462 -0.07096647
000240 dd 2b 0e 3d 5d f3 a4 bc 41 23 39 3c e3 07 89 3d
       0.0347098 -0.020135576 0.011299909 0.066909574
000250 bd 5e 84 3d ec b5 75 3d 3d 32 73 bd 20 c3 06 bd
       0.064633824 0.059987947 -0.059374083 -0.03290093
000260 e2 29 ef 3b 10 cd e5 3c 03 b4 95 3c f2 69 18 bc
       0.007298694 0.028051883 0.018274313 -0.009302603
000270 6a d9 0f bd 40 53 0b 3d 75 c9 48 bd 43 ec 83 bd
       -0.03511945 0.03401494 -0.04902025 -0.06441548
000280 79 44 e9 3c d0 d0 8b 3b a8 09 60 bd 0f db 86 3d
       0.028475033 0.0042668357 -0.05469671 0.06584751
000290 10 d4 fc ba e5 2d ad bb f0 1d 3c 3a 72 4e bc bb
       -0.0019289274 -0.005285012 0.0007176092 -0.005746656
0002a0 9f ff 49 3c 9c a1 7b 3d be e1 90 3d 7e b9 ba 3c
       0.012329011 0.06143342 0.07074307 0.022793528
0002b0 b7 f4 af bc e6 66 5f bd b8 e4 08 bd 41 c2 74 bd
       -0.021478994 -0.05454149 -0.03342125 -0.059755567
0002c0 68 f4 8e bd 13 11 2f bd 67 8f 16 bd 15 d0 23 bd
       -0.069802105 -0.042740893 -0.036757853 -0.039993364
0002d0 0f 9e 2b 3b 45 ad 42 bd 84 62 71 3d 18 d1 8c bd
       0.002618674 -0.047528524 0.058931842 -0.06875819
0002e0 a0 4d 67 3d ad dd 8c 3d 06 04 55 3d dd 32 37 3d
       0.056470513 0.06878219 0.05200579 0.04472624
0002f0 12 41 ae 3c 59 8f 27 3c b2 ce 8b bd f5 60 60 bd
       0.021271262 0.010227048 -0.068265334 -0.054779965
000300 9c 4f e6 bc d2 05 61 bc 0e ed 83 3c 51 72 0c bd
       -0.028114133 -0.013734298 0.016104247 -0.034288708
000310 27 06 88 bd 22 9e 8b bd a2 75 9d bd 0a 0c 98 3c
       -0.066417985 -0.06817271 -0.07688452 0.018560428
000320 dd d3 9a 3d ad 63 a6 bd c4 9b 5f bc c3 ac 72 3c
       0.07559941 -0.081244804 -0.013647977 0.014811697
000330 e6 b7 0a bd b5 7a 83 bc 7c 56 1e 3d 51 55 6d bd
       -0.033866785 -0.016049722 0.038656697 -0.057942692
000340 8a a3 9d bb 4d 80 aa bc bb 0c 86 bd 65 d2 c9 bc
       -0.004810755 -0.020813132 -0.06545397 -0.024636457
000350 b7 34 11 3d ae 8e 4f bd 5e 59 76 3d fe b1 28 3d
       0.035450663 -0.05067318 0.06014382 0.04118537
000360 e7 0d 22 bd 3d 56 6f bd 12 38 fb b7 b9 65 4e 3d
       -0.03956404 -0.058431853 -2.9947641e-05 0.05038998
000370 6c 09 0d bd 0b 7e 8e bd 41 f3 2d bd 13 94 54 3d
       -0.034432814 -0.069576345 -0.042468313 0.051899027
000380 61 cc 54 3d dc 15 07 bd 07 e4 40 bd 3c 96 75 3c
       0.051952723 -0.03297983 -0.047092464 0.014989432
000390 25 e0 1f 3b 2c 4e a6 bd 96 5a b4 3c 91 7a 6c 3d
       0.0024395075 -0.08120379 0.022015851 0.057734076
0003a0 2c aa 79 bd be 8c 26 3d 5a 46 1e bd 9d a4 96 3a
       -0.060953304 0.040661566 -0.03864131 0.001149315
0003b0 a6 56 a6 bd 64 13 fa bc 36 ce 12 3d 1d 8e c2 bc
       -0.08121996 -0.030526824 0.03584119 -0.023749406
0003c0 ea fd 5f bd 98 e9 0c 3b 69 45 29 bd 12 8b 8b 3d
       -0.05468551 0.0021501537 -0.04132596 0.06813635
0003d0 e5 7a ad 3a ff f6 28 3d 27 ec 53 bd ee da a5 3d
       0.0013235478 0.04125118 -0.051738884 0.08098398
0003e0 d7 99 9a 3c c6 af bf bc 7a a0 84 bc eb bd 35 bd
       0.018872185 -0.023399245 -0.016189802 -0.044370573
0003f0 36 75 8b bd db e1 8c bc e0 c9 9c bd ef a1 83 bc
       -0.068094656 -0.01719754 -0.07655692 -0.016068427

bias f4 [32]
000000 95 a6 2b bd db e8 13 bd 2f b2 0f 3d 50 4c 32 bd
       -0.041906912 -0.03611074 0.03508204 -0.04352981
000010 f3 af 2e bd f7 88 89 3d 5d 60 dc bb 1e 8f 2b bc
       -0.042648267 0.06715577 -0.0067253546 -0.0104711335
000020 9b 4e 88 bd bd f7 0e 3d 4e dc da 39 0d 97 81 3d
       -0.06655618 0.03490423 0.0004174434 0.06327639
000030 ae ca 91 bd 38 0f 98 bd 55 a0 5a bd 29 99 ab 3c
       -0.07118736 -0.07424778 -0.05337556 0.020947056
000040 fd ac c9 bc 0f c8 98 3d ed 5d 55 3d 0e 31 30 3c
       -0.02461862 0.07460033 0.052091528 0.010753883
000050 f1 90 02 3d ba 9e 42 bd 39 36 4f 3c f0 0a 8c 3d
       0.03187651 -0.047514655 0.012647205 0.06838024
000060 e7 1a 22 bb ef a5 69 bd f0 dd c5 bc e7 1d d8 bc
       -0.0024735273 -0.057043012 -0.02415368 -0.026381446
000070 de fb 8a 3d cb 64 61 bd 7d 77 38 3d fe d8 92 bd
       0.06786321 -0.055027764 0.045035828 -0.07170294

weight f4 [32, 32, 3, 3]
000000 9e a5 6f ba 49 91 59 b9 e1 e4 75 bc 15 96 d3 3a
       -0.00091418053 -0.00020748856 -0.015008182 0.001614275
000010 21 f7 91 3c eb b5 49 3d e3 8e b6 3c ca 7b 4c bc
       0.017818036 0.049245756 0.02228493 -0.0124806855
000020 59 4e 73 bb c5 f5 0f 3d 1b f0 e6 bc 18 e2 39 3c
       -0.0037125556 0.035146493 -0.028190663 0.011345409
000030 6a b9 9e bb 4b af 00 bd 68 7a 10 3c b6 83 4c bd
       -0.0048438804 -0.031417172 0.008818246 -0.049930297
000040 78 3f 1f 3d 3c e9 b2 bc 56 bb 31 bb 79 85 74 bb
       0.038878888 -0.02183973 -0.0027119718 -0.0037311001
000050 0f 80 a6 3b 25 ff 05 3d bd 93 36 bc dc 21 10 bd
       0.0050811837 0.032714028 -0.011143622 -0.03518854
000060 d5 13 8a 3c ed af 5e bd f7 80 30 bd cc 44 1f 3c
       0.01685516 -0.054366995 -0.04309174 0.009720992
000070 c6 93 58 3c 3e 7f 68 bd 92 ea 00 3d 3b df 61 bc
       0.013218826 -0.056761973 0.031473704 -0.013786132
000080 f8 c5 a9 bc e9 23 93 bc 17 39 e6 bc 00 6c 48 bd
       -0.020724282 -0.01796146 -0.028103394 -0.04893112
000090 8d 3e 28 bd 73 d5 46 bd 51 e8 55 3c 3b 8f 32 bd
       -0.041075278 -0.048543405 0.013055877 -0.043593626
0000a0 f7 3b 4c 3d d1 99 39 3c 04 3e 0c 3d a4 bc 8a 3c
       0.049861874 0.011328177 0.03423883 0.016935654
0000b0 ae 08 b4 3b a9 9b 0e 3d 1f ed 9f 3b b3 da 0a 3d
       0.0054941988 0.034816418 0.004880562 0.033899974
0000c0 e7 33 22 3d 23 cc 73 bc c4 01 91 39 e3 a0 06 bc
       0.03960028 -0.014880213 0.0002765787 -0.008217069
0000d0 c7 a8 69 3c 6b 35 68 3d 04 36 1c 3d 11 8d f1 bc
       0.014261431 0.05669157 0.03813745 -0.029486211
0000e0 16 fa ae bc 9b 9e f0 ba f2 cf e1 3a b9 7b 18 3d
       -0.021359485 -0.0018357815 0.001722811 0.037227366
0000f0 42 85 92 bc 2b 44 65 bb 13 5c ea bc 3d a3 f0 ba
       -0.017885808 -0.0034983258 -0.028608358 -0.0018359196
000100 44 e7 3d 3d 0f 09 a7 3b 56 e5 d5 bc 1a 76 d6 3c
       0.04636313 0.0050975154 -0.026110332 0.026179362
000110 d9 da 8b 3c cf e8 1c bd b2 9f 95 bc 57 fc 33 3d
       0.017072128 -0.03830796 -0.018264625 0.043941822
000120 3d e6 f8 ba f7 fe fc bc d6 ff 86 bc bb 0c 34 3c
       -0.0018989515 -0.030883295 -0.016479414 0.010989363
000130 b3 bf 1f bd 43 b3 f4 bc 9e a6 ea bc 4f 12 dc 3b
       -0.039001178 -0.029870635 -0.028643902 0.0067160497
000140 b8 8b 33 3d 8c a3 23 bd ef 30 58 3b cd 9c 4a bd
       0.043834418 -0.039950892 0.003298815 -0.049465943
000150 92 44 95 bc 06 c0 3e 3d 40 e0 10 bd da cc 81 bc
       -0.018221173 0.046569847 -0.03537011 -0.015844751
000160 d9 f9 12 bd 42 f0 07 3d fc 6f e8 3a 72 9e 1e 3d
       -0.035882805 0.033188112 0.0017733569 0.038725324
000170 2a 94 49 3d d0 d5 0f bd 2b 34 cd 3c 0d 2b 0b 3d
       0.049213566 -0.035116017 0.02504929 0.033976603
000180 3e 8b 1c bd 42 49 56 3c cc e8 94 3c 94 84 13 bd
       -0.03821873 0.013078989 0.018177412 -0.03601511
000190 87 fd 26 bb d5 d9 42 b9 0b c9 1c 3d 0b 1f 3f 3d
       -0.0025480704 -0.0001858243 0.038277667 0.046660464
0001a0 86 e1 66 3d d9 43 67 bd f5 52 67 bd 98 33 4d 3b
       0.05636742 -0.05646119 -0.0564756 0.003131127
0001b0 a4 e1 13 3d 61 0f b0 38 12 ee 24 bd 11 cb ce bc
       0.03610386 8.3951985e-05 -0.040266104 -0.025243314
0001c0 ed 28 a8 ba fd cd 58 bd 60 bc 8a 3c c8 f5 5d 3d
       -0.001282958 -0.05293082 0.016935527 0.054189473
0001d0 57 08 3b bd eb 69 49 bc 15 3b 0e 39 ed 16 8d b9
       -0.04566225 -0.012293319 0.00013564185 -0.00026910697
0001e0 93 51 9e bc 51 f5 1d 3c ad cf e7 bc 9d 57 8d 3c
       -0.019326007 0.0096410075 -0.02829727 0.017253691
0001f0 0f d0 f3 3c e4 f2 b5 bc 74 75 c2 3c cf 12 d8 bc
       0.029762296 -0.022210546 0.023737647 -0.026376156
000200 cb f3 55 bd ea 07 4b bb f0 0d 0d 3c 78 82 67 bd
       -0.052234452 -0.003098006 0.00860928 -0.05652091
000210 db fd 54 bd 6c 72 d4 3c 49 08 05 3d 9c 6c 66 bd
       -0.051999908 0.025933467 0.032478604 -0.05625592
000220 50 06 21 3d e6 39 2a bd 8f 86 98 3c 3f 8e 1f 3d
       0.03931266 -0.041559123 0.01861885 0.038954016
000230 55 cc 0a bc b5 8e 03 3d 59 04 b4 bb 7e 78 62 3c
       -0.008471568 0.032118518 -0.0054936823 0.013822673
000240 c4 f4 4f bd 57 93 2f bd 5e 0a 13 bb 41 15 54 3d
       -0.050770536 -0.042865124 -0.00224366 0.05177808
000250 1a 61 42 3d d4 62 6c bc 83 1e 3f 3d 93 d5 21 3c
       0.047455885 -0.014427859 0.046659958 0.00987758
000260 a7 7d 0c bd 46 3b 36 3d f7 91 03 bc 9d 91 15 bc
       -0.03429952 0.04449012 -0.008030406 -0.009128955
000270 80 b2 3c bd 97 c4 1d bd 1f 8b 18 bc be c0 d9 3b
       -0.04606867 -0.03851756 -0.009310513 0.006645291
000280 40 a3 e1 3c 1e ba a5 ba 3a 96 cf bc 18 69 03 bd
       0.027543664 -0.0012643968 -0.025340188 -0.032082647
000290 8f 4d 2f 3d 53 1a 15 3d 50 1b 5c bd c8 dd 0c 3d
       0.042798575 0.036402058 -0.053736985 0.034391195
0002a0 98 72 65 3d 94 7a c1 bc 14 43 1d 3d ed a4 53 bd
       0.05601749 -0.02361802 0.03839405 -0.051670957
0002b0 70 3b 41 3d 1e 72 9c 3c cc 57 1c 3d db 15 e2 bc
       0.047175825 0.019097384 0.038169667 -0.027598312
0002c0 44 e5 1d 3c 5e 71 bb 3b fa 12 26 3d 16 f6 a9 3c
       0.009637181 0.0057203015 0.04054544 0.020747226
0002d0 4c 11 68 3d 24 14 85 3b 43 ae d2 bc 78 e9 19 3d
       0.05665712 0.004061239 -0.02571786 0.03757617
0002e0 0a 50 ee 3b 6d 14 66 3d b9 5f 4b 3d 71 65 b3 bc
       0.007272725 0.056171823 0.049651835 -0.021898957
0002f0 89 a8 e0 3a b6 4e 13 3d 51 56 4d 3b b5 65 f7 bc
       0.0017140071 0.035963736 0.0031331966 -0.030199865
000300 f9 4a 94 ba c4 79 39 3d f4 16 62 3d a7 f2 18 bd
       -0.0011313847 0.04528214 0.05519767 -0.037340786
000310 ac 2a 28 3d 1a cb 1a bc f0 4b fb 3c 7c 07 43 3d
       0.04105632 -0.009447837 0.030675858 0.04761456
000320 67 2e 44 bd 8a 58 12 3c 9e e2 31 bd f4 95 c8 bc
       -0.047895815 0.008932242 -0.04342901 -0.024485566
000330 13 4f c5 3c d3 46 0e bd ed b0 32 bd 00 9d 22 bd
       0.024085557 -0.034735512 -0.04362576 -0.039700508
000340 c9 ca 2b bc cd eb 85 bc f9 f1 49 bd 97 69 6c bd
       -0.0104853595 -0.01634779 -0.04930303 -0.057717886
000350 6a 7b 95 3a 63 6b 4c bd f9 be 98 bc 6c 76 5e 3d
       0.0011404578 -0.0499071 -0.01864575 0.054312155
000360 b4 16 03 3d bc c8 58 bd 77 42 60 3d 9d 66 61 bd
       0.032004073 -0.05292581 0.054750886 -0.0550295
000370 cb a5 60 bd 9a 51 11 bd 39 9e 4e 3d 0f 88 20 3a
       -0.054845612 -0.035478212 0.05044386 0.000612379
000380 5a 04 8f 3b 58 23 ba 3c a7 47 f2 3b 03 fb 39 bd
       0.0043645324 0.022721931 0.0073937955 -0.0454054
000390 90 aa 25 bb 92 7b e4 bc 49 b9 22 3d ff 20 94 3c
       -0.0025278665 -0.027890954 0.039727483 0.01808214
0003a0 40 c7 17 3d 5e da 91 3c 39 28 08 bd 22 66 e2 3c
       0.037055254 0.01780432 -0.033241484 0.027636591
0003b0 80 b1 89 3c 77 76 5f 3d 02 de 12 bd 4e d3 3d 3d
       0.016808271 0.054556336 -0.035856254 0.046344094
0003c0 9c 8a 7c bc 9b d7 4e 3d a1 b0 f9 bb 0f 09 49 bd
       -0.015413906 0.050498586 -0.0076199328 -0.049080905
0003d0 be 08 ae 3b 04 f2 6c bc b1 82 2b bd 76 a8 9f bc
       0.0053111007 -0.014461998 -0.041872684 -0.019489508
0003e0 68 65 f3 3b c7 3a c8 bb 65 7c 01 bd 2e 90 d6 bc
       0.00742786 -0.0061105224 -0.031612772 -0.026191797
0003f0 d7 98 08 bd ec 79 c6 3c d6 02 02 bd c2 8c 2e bd
       -0.033348884 0.024228059 -0.031740986 -0.042614706

bias f4 [32]
000000 4b 49 94 bc 09 e8 02 3d af a4 68 3d 70 49 79 bc
       -0.018101355 0.031959567 0.05679768 -0.015215263
000010 36 7b 40 bd 48 b8 96 3c 29 38 34 3c 99 3e fd 3c
       -0.046992503 0.018398419 0.010999718 0.030913638
000020 c8 7d 24 3d a4 f6 7e bc 96 e0 54 3d 2c e0 54 3d
       0.040159017 -0.015561733 0.051971994 0.0519716
000030 4d 79 b1 bb d6 52 e8 3c 96 c2 3f bd a5 8c 66 bd
       -0.0054160715 0.028359812 -0.04681643 -0.056286473
000040 a6 54 92 3b 5c a9 4d bd 50 c2 60 3d c2 08 35 bd
       0.0044656573 -0.05021034 0.05487281 -0.044197805
000050 f2 45 40 3d 5b fe 3a bd 95 09 7c bc 0d cb 1e bd
       0.046941705 -0.04565273 -0.015383144 -0.038767863
000060 a5 a5 34 bd f5 d2 3e bd de de 69 3d 16 d2 0f bc
       -0.044103283 -0.046587903 0.05709731 -0.008778116
000070 ad 21 94 bc 8a f9 25 bd ae 9f 84 bc d4 e1 5a 3b
       -0.018082464 -0.040521182 -0.016189422 0.0033398764

weight f4 [3, 8192]
000000 b0 fe 09 3c 63 21 4f 3b 17 12 8c bb 72 d7 06 bc
       0.008422539 0.0031605593 -0.0042746174 -0.008230077
000010 50 c0 01 bb e1 f3 0b 3c 72 4c 14 ba ce 50 08 bc
       -0.0019798465 0.008542032 -0.0005657143 -0.008320047
000020 43 37 c8 3b 8c 3c d1 3b 24 99 13 bc e9 69 6e bb
       0.0061101033 0.0063853916 -0.00900868 -0.0036379045
000030 7d 60 df 3a 6a 7d 71 3b a4 f4 f8 bb ff e9 68 bb
       0.0017042306 0.0036848434 -0.007597523 -0.0035539863
000040 8b ff f5 3b a2 2b e1 b7 8a cd 81 39 6a a0 01 3c
       0.0075072697 -2.6842408e-05 0.00024757936 0.007911781
000050 6f a6 d3 3b cd bc 19 b8 ef 0f 7b 3b 5c 65 e0 ba
       0.0064590494 -3.6653877e-05 0.0038309058 -0.0017120051
000060 ba ff 05 bc af 39 1a bb 82 6d e7 3a 6d 9c e5 3b
       -0.008178646 -0.0023532917 0.0017656537 0.007007173
000070 68 c4 eb bb b0 8c 7e bb 78 e7 74 39 91 f0 33 bb
       -0.0071950443 -0.003884118 0.00023355882 -0.0027456621
000080 88 18 8f 3b 5b 09 0a bc 93 2c a8 3b 15 4d c3 3b
       0.004366938 -0.008425082 0.005132267 0.0059601166
000090 de e2 af bb b2 62 12 bc 10 68 84 b9 7e 4a 12 bb
       -0.005367621 -0.008934664 -0.00025254535 -0.0022322233
0000a0 3d 05 6b bb de e9 a0 b7 40 61 4b bb 4c 43 98 37
       -0.0035861277 -1.918239e-05 -0.0031033307 1.815115e-05
0000b0 1e 98 a0 3a 89 e4 59 3b 6a b3 07 3c c9 84 c5 37
       0.0012252366 0.003324779 0.008282522 2.3546063e-05
0000c0 e1 fe 02 bc c3 86 dd ba 74 8c b1 38 54 7c 10 b9
       -0.007995338 -0.0016901124 8.466179e-05 -0.00013779226
0000d0 d5 32 07 3b 16 b8 e4 3b 8c 37 ff ba 41 88 ec 3b
       0.0020629663 0.0069799526 -0.001947151 0.007218391
0000e0 c2 6a ee 3b 37 00 dc 3b c5 6b b0 3a e6 7e 75 39
       0.00727591 0.006713893 0.0013459852 0.00023412294
0000f0 4b c5 e0 3b c4 2b ac 3b ea 68 ae bb f0 63 23 39
       0.0068594567 0.0052542407 -0.0053225653 0.00015582121
000100 0b 7d e3 bb 4a 0d 6e 3a 00 70 fe 3b 36 e4 4d 3a
       -0.0069423965 0.000908096 0.0077648163 0.00078541355
000110 ed 66 8d 3b 3c 54 cd ba fb a0 eb 3b 2c 68 23 ba
       0.004315248 -0.0015665363 0.007190821 -0.00062334794
000120 46 42 3d 3a 3d 81 d7 3b fa 38 66 3b 1e 47 f7 bb
       0.00072196533 0.0065766857 0.0035129176 -0.0075463196
000130 2b 91 ca 3b 82 10 a0 3b 35 a8 ce b9 70 b1 88 3b
       0.006181856 0.0048847804 -0.00039416706 0.004171543
000140 99 b2 f5 bb 99 e8 c5 bb ec e1 01 3c 78 b9 d9 b7
       -0.007498097 -0.0060396907 0.007927399 -2.5954781e-05
000150 fa 1c 08 b9 ad 8c 96 3a 99 c3 c5 3b 0e 48 56 bb
       -0.00012980765 0.0011486016 0.00603528 -0.0032696757
000160 7c 12 98 38 1c ef 6a bb 5e 47 65 b9 3e a5 1e 39
       7.251368e-05 -0.0035848087 -0.00021865728 0.00015129612
000170 75 62 fa bb c2 35 7a b9 a0 66 29 ba 47 03 7f 3b
       -0.0076411315 -0.00023861884 -0.00064621307 0.0038911866
000180 d2 35 d9 39 0f 54 75 3b 91 5b 49 bb 61 25 f3 3b
       0.00041429565 0.0037434136 -0.0030724744 0.0074202274
000190 68 d4 ce ba 24 f4 9d bb 2c 15 74 bb 14 be d2 bb
       -0.0015779855 -0.0048203636 -0.0037244065 -0.0064313505
0001a0 00 df e6 bb 2a f9 f8 bb da 51 95 3b c8 51 b5 3b
       -0.0070456266 -0.007598062 0.0045568766 0.0055334307
0001b0 f7 9e 8c bb a7 f5 8c 3b cd 25 e0 bb 14 03 fc 3b
       -0.004291411 0.004301745 -0.0068404437 0.0076907966
0001c0 89 b9 04 3b a6 68 d6 bb b6 bc 37 bb 6e d0 77 39
       0.002025219 -0.006543237 -0.0028036064 0.00023633402
0001d0 8a a5 03 3c 12 0b 07 3c fa 78 86 ba 01 0a 82 bb
       0.008035073 0.008242385 -0.0010259442 -0.0039684777
0001e0 56 ad 11 bc 73 93 8f 3b 96 36 a4 ba 8a e0 82 39
       -0.008891424 0.004381591 -0.0012528475 0.00024962827
0001f0 e5 cd 35 3a a5 a8 9c bb 9f 80 68 39 3e 91 0e 3c
       0.0006935283 -0.004780846 0.00022173159 0.008701621
000200 95 5a 9c bb 35 52 9e 3a cf 71 03 bb c9 1b 85 ba
       -0.0047715404 0.0012078943 -0.002005685 -0.0010155375
000210 6a 0e 17 ba ec a8 06 bc 6a 92 d4 bb 17 08 e2 bb
       -0.0005762341 -0.008218985 -0.0064871805 -0.006897937
000220 5a 0f 47 bb 44 cf cf 3b 2c cb 0d bc f0 8e fe 3a
       -0.003037414 0.0063418467 -0.008654397 0.0019421261
000230 35 9c 0b bc 6f d7 e2 bb 52 88 01 3c 13 1e 02 3c
       -0.008521129 -0.0069226543 0.007906036 0.007941741
000240 a3 36 66 38 f3 9e 5e bb fe 35 8e 3b c3 e5 0e bc
       5.4887158e-05 -0.0033969253 0.0043399325 -0.008721772
000250 0e 94 fa bb 1e 74 be 3a 69 d5 51 38 ff 8f 10 39
       -0.007647044 0.0014530455 5.0028237e-05 0.00013786553
000260 f2 2a e4 3b e7 6b 55 ba 9c c6 3c 3b ea 90 1c bb
       0.0069631273 -0.0008141384 0.0028804904 -0.0023890086
000270 48 02 f5 bb 6f 8c 18 bb 71 f7 64 3a 44 94 3e bb
       -0.0074770786 -0.0023277064 0.00087343814 -0.0029080072
000280 23 cf 8c 3b 21 be dc 3b 19 79 13 38 2b 10 bf b9
       0.0042971536 0.0067365323 3.5160312e-05 -0.00036442405
000290 1a c0 99 3a 0c c6 9c bb 2a 67 94 ba cf 87 03 3c
       0.0011730224 -0.004784351 -0.0011322249 0.008027985
0002a0 ec 6c b6 bb 29 4d a3 3b d7 5f 34 39 31 e8 49 3b
       -0.0055671837 0.0049835634 0.00017201841 0.0030808563
0002b0 27 46 a1 36 9d d5 5a bb 89 31 d5 3b 92 d8 01 bc
       4.8063407e-06 -0.0033391484 0.006506149 -0.00792517
0002c0 8b 38 b0 3b 47 d1 ce 3b c1 21 3a 3b 05 c5 e7 bb
       0.005377834 0.006311569 0.0028401467 -0.007073047
0002d0 05 dc 85 3b 23 11 5c 3b fd 94 d5 bb 44 cd ce 3b
       0.0040850663 0.003357955 -0.006518005 0.0063110907
0002e0 7d 51 a9 3b f2 b7 26 3b a3 d4 c0 3b 62 7a 88 bb
       0.005167185 0.002543923 0.0058847233 -0.00416498
0002f0 12 88 35 bb 5f 59 39 bb 4b 92 d0 ba da 83 02 bb
       -0.0027699512 -0.002828203 -0.0015912739 -0.0019915015
000300 df 94 f7 bb e3 b1 5a bb f6 a6 b4 b8 93 6a 8b 3b
       -0.0075555886 -0.003337019 -8.614168e-05 0.004254648
000310 cc e4 b4 38 68 ce 31 39 47 aa 80 39 80 88 8d 3a
       8.6256856e-05 0.00016956928 0.0002454093 0.0010798126
000320 9b b1 ac 3b 71 43 ce bb cd b0 09 bc 09 17 d5 3b
       0.0052701957 -0.0062946607 -0.008403969 0.00650299
000330 9e ea e2 b8 fa 26 41 bb 54 41 27 3b 32 b9 81 bb
       -0.000108202206 -0.0029472695 0.0025521116 -0.0039588446
000340 ed 1c c1 ba c7 c7 79 bb 88 c5 f4 3b 4c 9b 13 3c
       -0.0014733352 -0.0038113461 0.0074698366 0.009009194
000350 5e ae eb b9 31 f7 ab bb f4 70 d5 3b 6b e9 be 37
       -0.00044952607 -0.0052479734 0.006513709 2.2758459e-05
000360 85 5a 50 3b 4d e4 09 bc 81 f8 d1 bb 12 eb a7 bb
       0.0031792235 -0.008416248 -0.006407798 -0.005124458
000370 e4 d8 65 3b a1 2d a4 3b ad bb 23 3b 6c a4 26 ba
       0.0035071904 0.005010322 0.002498369 -0.0006356898
000380 49 8b f0 3b ff dd 81 3b 79 9a 5d bb 82 85 e2 bb
       0.007340823 0.0039632316 -0.0033813997 -0.006912888
000390 fa 3a 5b 3b c4 40 4b 39 ca 74 e4 ba 3f 20 c1 39
       0.00334519 0.00019383716 -0.0017429825 0.00036835854
0003a0 4d 12 8d bb 5e e0 f0 3b 61 02 f9 3b e0 6a 9d 3b
       -0.00430516 0.0073509654 0.0075991605 0.0048040003
0003b0 3f 5b 8f bb c4 d0 a0 39 c5 42 13 bc 1b 79 11 3c
       -0.004374891 0.0003067312 -0.008988087 0.008878971
0003c0 f8 5d 2b 3b a2 e8 ab ba ad b3 0c 3a 74 a2 a6 ba
       0.002614854 -0.0013115595 0.000536735 -0.001271321
0003d0 f2 d3 7d 3b ed 55 b5 38 13 15 6b 3b a3 7d 08 3c
       0.0038731066 8.6467575e-05 0.0035870716 0.008330735
0003e0 67 79 43 3a 76 a7 0a bc f8 3c 7a ba a4 45 f6 bb
       0.000745675 -0.008462777 -0.0009545828 -0.007515626
0003f0 98 ab e4 3b d8 ef 5e bb 1f 9b 00 bb 93 b5 10 bc
       0.0069784634 -0.003401747 -0.001962371 -0.008832353

bias f4 [3]
000000 0e c5 a0 bb a3 43 f0 3b 31 59 5a 3b
       -0.0049063032 0.0073322817 0.0033317322
