Neural_network_Projects/plant_disease_recognition/recognize_disease_test.pt (torch, 171210 bytes, 10 tensors)

weight f4 [16, 3, 3, 3]
000000 35 62 01 3e 8d 03 83 bb 5c a3 0a bc 63 a9 35 be
       0.1263512 -0.003998226 -0.0084617995 -0.17740397
000010 23 7c 79 bd 28 e5 e9 bd b7 d2 18 be e1 34 e2 bd
       -0.0609094 -0.11420661 -0.14924131 -0.11045242
000020 25 dc bc 3c e0 75 1b 3d 89 ea 84 3d ea 3d b3 3d
       0.023054192 0.03795421 0.064900465 0.087520435
000030 ac 24 ed 3c fa 83 c6 bd ed d8 02 be 9c b6 51 bc
       0.02894815 -0.09693141 -0.12778063 -0.012799885
000040 6c be cf 3d 22 3a 6e be 59 d8 10 3e 79 3a ba 3c
       0.10143742 -0.23264363 0.1414503 0.02273296
000050 44 81 3d be 7f 06 47 bd 73 56 61 be ac f1 ea 3a
       -0.18506342 -0.04859018 -0.22005634 0.0017924807
000060 98 10 cf 3c 6c 64 44 3c 7c 66 0d 3e 24 f2 a7 3c
       0.025276467 0.011986833 0.13808626 0.020501204
000070 3b bf 9f bd e0 a5 2a bc db d9 13 bd dc e3 7e 3d
       -0.07800146 -0.010415524 -0.036096435 0.062229022
000080 0e 76 8b 3d 25 d6 13 3e 9f 79 c9 3c 7f 30 6e 3d
       0.068096265 0.14437158 0.024594126 0.05815172
000090 43 8d 18 bc 67 9a 40 3d d5 aa 62 bd 59 e5 8c ba
       -0.009311023 0.04702225 -0.0553387 -0.0010749503
0000a0 44 4a 1d 3d 58 f9 f4 3c c8 61 be 3d 8d ba f8 3d
       0.038400903 0.029904053 0.09295994 0.12144957
0000b0 e3 0b 2d 3b aa c5 38 3d 7c 69 c8 3c b6 65 93 bd
       0.002640479 0.045110382 0.024464361 -0.07197134
0000c0 75 a8 0a 3d 56 e5 3c bd 73 f4 e3 3d f8 26 ad ba
       0.03385206 -0.04611715 0.11130609 -0.0013210466
0000d0 57 28 50 3d c6 6f e5 3c 9a 28 3d 3e 9b 2a 23 bc
       0.05081972 0.0280074 0.1847252 -0.009958888
0000e0 be 36 4b 3e 41 a6 09 be 25 44 5c 3e d7 21 12 be
       0.19845101 -0.13442327 0.2151037 -0.14270721
0000f0 3a 24 84 bb 90 5b 1e 3e 62 2e 37 3d 34 c0 f3 bb
       -0.004032639 0.15464616 0.04472197 -0.007438684
000100 41 e2 89 3d 64 d2 72 bd c2 20 d6 3c 2a 09 d6 3d
       0.06732608 -0.059282675 0.026138667 0.10450967
000110 36 ac 2c bd 3d 41 0a be c8 fc 0e 3e 48 5f 97 3c
       -0.04215642 -0.13501449 0.13963616 0.01847805
000120 4e ce 11 3e 56 ec 05 bd b3 5c 1d bd 2b 98 89 3c
       0.14238855 -0.03269609 -0.038418483 0.016796192
000130 41 75 1f bd d8 7e 6b bd bb 2f 76 3e 92 07 36 3e
       -0.03893018 -0.057494015 0.24041645 0.17776325
000140 68 72 81 bd b3 6b 15 3c 27 e9 69 be 86 a5 61 bd
       -0.063206494 0.009119916 -0.22842847 -0.055089496
000150 6f c8 96 bd ae ab e3 bd 3c 23 a3 3d e4 5e c8 bd
       -0.073624484 -0.1111673 0.07965705 -0.09783724
000160 98 53 8b bd 8f 7d 10 3d 40 63 06 3c b3 ac 6e 3c
       -0.068030536 0.035275992 0.008202374 0.014567542
000170 aa 10 41 be 96 0c 3a bd 3e e8 f6 ba a9 ae fa 3d
       -0.18854013 -0.04542216 -0.0018837524 0.12240345
000180 76 29 82 3b 87 8d 4c be 87 b8 64 be e9 37 4c 3d
       0.0039722277 -0.19975863 -0.22336017 0.049858008
000190 d4 f5 6e bd fd ea 53 be 5f c2 f5 3d 20 c6 f5 3d
       -0.05833991 -0.2069511 0.11999964 0.1200068
0001a0 4a 82 2f 3d b5 70 13 be fd 5a 8e bc 7e ac 64 bc
       0.042848863 -0.14398463 -0.017377371 -0.013957141
0001b0 0b d8 a8 bd b1 86 dc bb f8 82 2f 3d 28 f1 ae 3d
       -0.08244332 -0.0067299237 0.04284951 0.08542091
0001c0 60 c8 47 3d 7a 9d dc bd 06 de 05 bc be 25 53 be
       0.048775077 -0.10772224 -0.00817061 -0.20619866
0001d0 9d be 5c 3d 1e d7 bf bd 1c de 22 be 23 fb 3a bb
       0.05389272 -0.09367202 -0.1590504 -0.0028531037
0001e0 29 bd db 3d 14 b0 05 be 18 cb 2e be 9a 78 08 3e
       0.10729439 -0.1305545 -0.17069662 0.13327256
0001f0 0d f8 8c bc b6 3c 5d bd 6a ab 72 3d 9f 71 3f be
       -0.017208124 -0.054012977 0.059245504 -0.18695687
000200 a3 3a 6d bd 2c b4 76 be 75 88 1b be f1 0a d5 bc
       -0.05791725 -0.24092168 -0.15188773 -0.026006194
000210 7a 06 f1 3d c6 3c ac 3d 0b e0 87 3d 00 13 6a be
       0.117688134 0.08410029 0.0663453 -0.2285881
000220 cb 33 8a 3d 94 4e 5e be ac c4 2a be fb 83 20 be
       0.0674816 -0.21709663 -0.16676587 -0.15675347
000230 d1 cf d4 3d 3c 10 ee 3d 0a f3 1e bc 63 2e 21 3c
       0.103912 0.1162419 -0.0097015 0.00983772
000240 f8 6e 3e be 23 3b be bd 80 00 6d be c3 29 98 bd
       -0.18597019 -0.09288623 -0.23144722 -0.074298404
000250 a0 d4 a6 3d dd 29 5b be 0c 8d 0e be 64 90 80 3d
       0.08146024 -0.21402688 -0.13920993 0.0627754
000260 14 df 28 be 8a 58 01 3e 51 08 05 3e a1 e8 db 3d
       -0.16491348 0.12631431 0.12991454 0.1073773
000270 1e b6 2f 3d 1a 71 50 3c 4a 79 69 be 16 7a be 3c
       0.04289829 0.012722278 -0.22800174 0.023251574
000280 ec f5 06 3b 79 2a 8a bd 5c 6a 02 3e 96 ec a0 3d
       0.0020593358 -0.06746382 0.12735885 0.07857625
000290 14 b1 da 3d 90 02 2a bc b5 02 b0 bc 63 52 e6 bd
       0.10678306 -0.0103765875 -0.021485666 -0.11246183
0002a0 a8 bd 88 3d c3 c7 0e 3e a6 f5 aa 3d 96 73 25 be
       0.06676799 0.1394339 0.08347635 -0.16157374
0002b0 b3 02 df 3c ed 19 b9 bd da 4e e4 bc a6 20 29 bc
       0.027222967 -0.09038148 -0.02786963 -0.010322725
0002c0 75 3a 00 be b6 50 91 bd fd c2 64 be 03 68 ee bd
       -0.125223 -0.070954725 -0.22340007 -0.116409324
0002d0 e2 4d f4 bc 66 20 8f bd dc 4c b7 bd f5 55 e9 3b
       -0.029822294 -0.069886014 -0.08950207 0.0071208426
0002e0 76 1f b8 bd 22 10 3f bd b1 08 5a be 7a ec 04 3e
       -0.08990376 -0.046646245 -0.21292378 0.12980834
0002f0 90 78 4a be aa 48 46 be e4 92 0c be 99 4e 6e 3d
       -0.19772553 -0.19363657 -0.1372791 0.058180425
000300 92 42 02 3d 6c b6 ec 3d c9 ae 40 be 77 6e c7 3d
       0.031801768 0.11558232 -0.18816675 0.09737866
000310 59 e0 3c be 83 fb c8 bd 4d 68 66 be b1 3e 55 be
       -0.18444957 -0.09813597 -0.22500725 -0.20824696
000320 ff c8 64 be 8a b7 e9 3d d8 b6 a1 bc 78 1f 44 bd
       -0.22342299 0.114119604 -0.019740507 -0.047881573
000330 74 f2 9f 3d 2e e6 d6 3d e7 33 b1 3d 74 34 0f bd
       0.07809916 0.10493122 0.08652478 -0.034962133
000340 71 5b 8c 3d 51 e9 f5 3d 77 13 c4 bc fc 56 af 3d
       0.068533786 0.12007392 -0.023935063 0.08561513
000350 bb b9 96 bd ab 49 37 bd 91 f4 37 be 5c fb c3 bd
       -0.07359644 -0.04474799 -0.17964388 -0.09569427
000360 d2 65 da bd 32 83 08 3d 37 f0 32 3d 6b 4b 86 bd
       -0.10663952 0.033328243 0.043686118 -0.065573536
000370 c5 80 af bd d8 f6 18 be 87 08 22 be 10 3d 77 bc
       -0.08569483 -0.14937913 -0.15823565 -0.015090242
000380 2a da 22 be f6 b5 45 bd 81 7b 18 be 4b 40 c6 bd
       -0.15903535 -0.048269235 -0.14890863 -0.09680232
000390 da d8 01 be a6 e6 9d 3d fb c2 a7 3d 3e da aa 3d
       -0.12680379 0.07710008 0.081914864 0.08342408
0003a0 6b ab 19 bc 2d 4e 28 be cb 39 1e be ad e7 cc bc
       -0.009379248 -0.16436072 -0.15451734 -0.025012815
0003b0 c8 5c 89 3d ab 96 77 3b 4c 0a 33 be 7b 7d d1 3d
       0.0670715 0.0037779014 -0.17484397 0.102290116
0003c0 d0 e7 c8 3d 87 95 bc bd ae 13 ea 3d 71 61 ad bc
       0.0980984 -0.092082076 0.11429535 -0.021164628
0003d0 9e 20 75 3d 39 a7 b9 3d 21 5a b7 bb a6 e0 6e bd
       0.05984556 0.09065098 -0.005595461 -0.05831971
0003e0 e1 fd 17 be d8 a0 6e 3c cb 7a d3 bd e9 42 49 3d
       -0.14842941 0.014564715 -0.10326155 0.049136076
0003f0 ae 5a f3 bc 14 81 1c be 5e 42 05 bd a0 48 16 bd
       -0.029706325 -0.15283614 -0.032533996 -0.036690354

bias f4 [16]
000000 5d 02 b9 3b ed 60 25 3e 94 5e 12 bd 71 98 e8 3d
       0.0056460337 0.16150256 -0.035734728 0.11357201
000010 75 71 be 3d 18 8a 07 bd ab 8d ac bc 70 df f7 3d
       0.09298984 -0.03309068 -0.021063646 0.12103164
000020 6a 1e ad bd a9 ef 4c be a5 78 74 3c 7d a6 b9 3d
       -0.08453067 -0.20013298 0.014921342 0.09064958
000030 e5 86 e9 bb 82 f3 09 3e 53 b1 11 be 0b c4 0b 3d
       -0.0071266764 0.13471797 -0.142278 0.034122508

weight f4 [16, 16, 3, 3]
000000 29 cf e5 bc be c5 29 bd ac fc 1b bd 13 d6 78 bd
       -0.028052883 -0.041448347 -0.038082764 -0.060751032
000010 c3 f4 ea bd 44 4e 6b 3c 13 3e cb bc 7e b7 0d 3d
       -0.11472466 0.014361922 -0.024809873 0.03459882
000020 63 e1 40 bd 15 17 80 bc 0d 56 9d bc a1 e1 e7 b9
       -0.047089946 -0.015636006 -0.019206071 -0.0004422786
000030 c5 b1 08 3b f1 03 11 bb 9b cf 6f bb 7e 21 b6 bc
       0.0020857912 -0.0022127593 -0.0036592248 -0.022232767
000040 53 89 96 bb 7a 47 e5 3b 66 de f4 bc cd aa 62 bd
       -0.004594007 0.006997046 -0.029891204 -0.05533867
000050 0e a9 07 be 9a 44 85 bd bd d5 ac bd 72 6f d2 bd
       -0.13248083 -0.06507225 -0.08439205 -0.10275163
000060 04 f6 8f bd 09 18 87 bd 55 ac 10 be 78 35 d7 3c
       -0.07029346 -0.06596381 -0.1412824 0.026270613
000070 3f 58 7a bd f1 8b 17 3d 50 cf e0 bc aa 59 5e bd
       -0.061119314 0.036998693 -0.027442604 -0.05428473
000080 c9 51 00 3d 22 07 9a bd 38 2f 2d ba f2 47 d1 3c
       0.031327996 -0.07520892 -0.00066064624 0.025547002
000090 4d d8 aa 3c 48 96 b6 3a e8 fe 39 ba 56 a1 45 bd
       0.020855093 0.0013930285 -0.0007095174 -0.048249565
0000a0 df f1 46 3a e4 2e ee bd 2c e0 ae bc 6f ec 9d bd
       0.0007589142 -0.116300374 -0.021347128 -0.07711112
0000b0 cd c8 d1 bd 55 f7 cb bd ab 9b c1 bd 45 db e5 bd
       -0.10243378 -0.09959284 -0.094535194 -0.11223463
0000c0 84 3a 8f b9 dc 10 1c 3d 9d 4b 2e bb bb 6e ca bd
       -0.00027318683 0.038102016 -0.0026595362 -0.098844014
0000d0 b6 3d e0 bb 23 50 d5 bd ff e6 e3 bd ba ac f8 ba
       -0.006843294 -0.104156755 -0.111280434 -0.0018972375
0000e0 90 a5 80 3b 52 41 e6 bd eb 79 fa bd 6d 11 13 be
       0.0039259866 -0.112429276 -0.12230285 -0.14362116
0000f0 1a 87 27 bd 71 22 29 3c 13 35 28 3d 7e bd a4 3a
       -0.040900327 0.010323153 0.04106624 0.001256868
000100 65 96 53 3c 5d 82 17 bd 40 dc 19 3c 63 e2 c8 bd
       0.012914275 -0.03698956 0.009390891 -0.09808805
000110 5a db d1 bd e8 0f 1f bd 6d f5 3d 3c 02 85 83 bd
       -0.10246916 -0.03883353 0.011594159 -0.064218536
000120 53 ec 07 3d 99 ec 1a 3c b5 fb e2 3c 48 08 a7 3c
       0.03318436 0.009455823 0.027707914 0.020389691
000130 e8 00 ab 3c b3 38 cb 3c 64 2b 23 3d 5e 59 10 3c
       0.020874456 0.02480731 0.039836302 0.008810369
000140 54 67 1e 3d 8f 25 3a bd 48 00 7a bc e1 80 c9 3c
       0.03867276 -0.045445975 -0.015258856 0.024597587
000150 29 8a a9 ba 6b 88 06 bd 2d ab 1f 3c d0 fa 86 bd
       -0.0012934852 -0.032844942 0.009745401 -0.065908074
000160 07 36 b4 bc 59 e8 ad bc 92 38 40 3a 5d 73 48 ba
       -0.021998418 -0.021228956 0.00073326484 -0.0007646585
000170 ae f7 8d bb 12 02 7e bc b8 a0 0c bc 32 0f 1d 3c
       -0.0043325042 -0.015503423 -0.00858324 0.009586142
000180 74 1d 79 bb b0 a0 a6 3c ba d4 38 bb 19 e5 d9 bd
       -0.003801194 0.020340294 -0.0028202967 -0.106394
000190 ea aa c7 3b d0 8b d6 3b 24 76 9d bd ef ad b4 bd
       0.0060933726 0.0065474287 -0.07688549 -0.08822238
0001a0 c8 1e 38 bd 1b cd ac bd 7d 7c 62 3c c6 c2 a2 bd
       -0.04495123 -0.08437558 0.013823626 -0.07947306
0001b0 30 7c c3 ba 2a 57 12 bc de 11 07 bc 11 8e 18 3c
       -0.001491433 -0.008931914 -0.008244006 0.009311215
0001c0 11 77 17 3b 4c 7c a4 3c 8e 2f 9d bb a2 af 9e 3b
       0.002311174 0.0200788 -0.0047969287 0.0048427144
0001d0 1a 2d 29 bb c8 89 ee 3c ce 0e f2 bd 40 c0 97 bd
       -0.0025814236 0.029118434 -0.1181923 -0.07409716
0001e0 98 6d b7 3c 61 3c b0 bd ee 2d 6b bd 34 09 db bd
       0.022391126 -0.08605266 -0.05741685 -0.10695115
0001f0 c9 80 30 bd 28 c0 01 bd 5f 25 03 3c 72 9c ad bd
       -0.04309157 -0.031677395 0.008004515 -0.08477105
000200 1a 03 f1 3a 83 27 5d 3c d2 a9 33 bd b5 f1 91 bd
       0.0018387765 0.01349819 -0.043863125 -0.0712618
000210 11 03 9f bd 37 df 88 bd 2c 71 55 3c 77 f8 fb bc
       -0.07764257 -0.066832 0.013027471 -0.030758126
000220 bc c3 2b bd 94 51 83 bd 11 b1 ed bc 65 cd f2 bd
       -0.041934714 -0.06412044 -0.029015096 -0.11855582
000230 e7 45 0d bd d5 48 c5 bb 01 dd b1 3c 5a 57 f9 bd
       -0.034490492 -0.006020645 0.021711828 -0.12174864
000240 2b 91 79 bd c4 1f 59 bc 1e 5e c1 bb b2 d8 17 bd
       -0.06092946 -0.013252202 -0.005901112 -0.03707189
000250 af 79 e9 bd b9 cd a4 ba 49 b4 a1 3c 1f 1f a4 bd
       -0.114001624 -0.0012573517 0.019739287 -0.080137484
000260 c4 ec bc bc 43 d1 99 bc 05 db 57 bc d9 69 53 bc
       -0.023062117 -0.018776542 -0.013174777 -0.012903654
000270 fd d3 33 bc f1 c9 96 bc f7 cf 94 bc 86 c3 00 bd
       -0.010975835 -0.01840684 -0.018165572 -0.031436466
000280 c8 08 92 bc 61 c6 83 bc bd 21 11 bc 5d df 58 bc
       -0.017826453 -0.016085805 -0.0088581415 -0.013236848
000290 b3 46 99 bc c6 ce fe 3b 74 5e b7 bc 2e 62 f1 bc
       -0.01871047 0.007776114 -0.022383906 -0.029465761
0002a0 d6 dd b8 bc 3d 2a 43 bc da bc 3a bb 7e cb c3 bc
       -0.022566717 -0.011911926 -0.0028493912 -0.023900744
0002b0 0f 8d 9c bd d9 23 a9 bd 98 3e 84 bd bb 98 be bd
       -0.07644092 -0.082587905 -0.06457251 -0.09306475
0002c0 07 0d 0b bd a5 1e 97 bc 0b 9c 89 ba e4 37 98 ba
       -0.03394797 -0.01844723 -0.0010498775 -0.0011613336
0002d0 3a 19 99 bd 8e e7 64 bd 99 ff 9f bd 19 1a 9d bd
       -0.07475515 -0.05588489 -0.07812423 -0.07670993
0002e0 0f b2 86 3b 9e 2a ee bb da e2 89 3c c5 e3 c1 bd
       0.0041105817 -0.007268264 0.016831804 -0.09467272
0002f0 bf e2 22 bc f8 0b 65 3c 8c 3f f7 bb 92 33 92 3c
       -0.009941756 0.013979904 -0.007545417 0.017846856
000300 67 94 72 3c 7f 21 16 3b 9a 43 48 3c 3f 97 76 3c
       0.01480589 0.0022908149 0.012223149 0.015050708
000310 2f 2e bc bc 2e 22 0e 3d ae f1 7f bc 1c 3c ad bb
       -0.02297124 0.034700565 -0.015621586 -0.0052867066
000320 0c 9f 4e 3c 59 a3 89 bc 7b 12 59 3c 51 2f 92 bc
       0.012611162 -0.016801523 0.013249035 -0.017844828
000330 44 23 39 bc 22 bc af bc d0 90 9f bc 1c 9c bd bc
       -0.011299912 -0.021452013 -0.019478232 -0.023145728
000340 52 20 7e bd 30 4b a9 bd 9b ef cc bd 4d 13 89 3c
       -0.06204254 -0.08266294 -0.100066386 0.016732836
000350 72 df 0f bd 12 0b a9 bd d3 6e 9f bd c4 82 d0 bd
       -0.035125203 -0.082540646 -0.0778481 -0.101811916
000360 ba 0d 81 3c 51 05 a3 bb 5a de ff 3b 7e 37 a1 bb
       0.015753616 -0.004974999 0.007808489 -0.0049199453
000370 1e c3 84 3c a4 79 db 3a b1 25 09 bc 8e 05 4c 3c
       0.01620632 0.0016744626 -0.008370803 0.012452496
000380 5e 01 0e 3d d9 c0 84 3c de 9b 74 bb 94 15 b5 3b
       0.034669273 0.016205238 -0.003732435 0.005526254
000390 aa 25 8a 3c 92 bf 80 3a 1a 1a 33 3b a7 6a 86 3c
       0.016863663 0.0009822717 0.002732879 0.016408278
0003a0 21 3e 89 3c 4f 01 95 bb 28 20 07 3b e0 1d 23 38
       0.016753258 -0.004547275 0.0020618532 3.889005e-05
0003b0 4e f0 8b 3b 87 92 db bb 6a 77 ef bb 2e 3e 3d bc
       0.00427059 -0.006700817 -0.0073079364 -0.011550469
0003c0 82 f0 10 3c 84 5a 5e ba c2 45 4f 3c d9 01 06 be
       0.008846404 -0.0008482116 0.012650909 -0.13086642
0003d0 fb 6e 86 bd 7f 33 f3 3b 87 c0 77 3c e0 4c e1 bd
       -0.065641366 0.0074219103 0.015121586 -0.11000991
0003e0 02 0a da bc 0b 5f 5f bd bd 77 a5 bd da af 05 be
       -0.0266161 -0.054534 -0.08079479 -0.13055363
0003f0 d6 13 e4 ba 32 18 11 3c e9 c4 84 bb 70 d9 7b b9
       -0.0017400931 0.008855866 -0.004051794 -0.00024018227

bias f4 [16]
000000 e5 f6 87 3c 25 fa b9 3c c9 01 fa bd 29 77 2e bc
       0.01659722 0.022702286 -0.12207372 -0.010648527
000010 01 72 4c bd e2 97 34 3b 09 03 da 3d 9e d6 c6 3b
       -0.04991341 0.002755635 0.1064511 0.006068065
000020 25 a3 00 bd e9 7e fd 3c 7a 0f 1c bd 33 7a 71 bc
       -0.031405587 0.030944305 -0.038100697 -0.014738607
000030 32 d9 71 3c da d7 c3 bc 74 9b 8f 3c 0c 7c 1c 3d
       0.014761256 -0.023906637 0.01753018 0.038204238

weight f4 [32, 16, 3, 3]
000000 57 bd 09 be 5f 45 e1 bc 6b 43 6a bd ab e9 2f bd
       -0.13451134 -0.027498899 -0.0571932 -0.042947453
000010 5b 5e 16 bc 4e 01 ab bd 29 5e 48 bc e1 48 7e 3c
       -0.0091777695 -0.08349858 -0.012229481 0.015520305
000020 9c 01 25 bd bb f9 d8 bc e0 48 b2 bd aa df bc bb
       -0.040284738 -0.026486268 -0.08705306 -0.0057639675
000030 ff f6 4a bb 74 07 b0 bc 56 52 38 bc 18 86 ed 3b
       -0.0030969975 -0.021487929 -0.011250099 0.0072486512
000040 3e bf 7e bd 6b 71 59 bc 26 b3 e4 3b c0 8b 15 3c
       -0.0621941 -0.01327167 0.006979364 0.009127557
000050 d4 79 df 3a b7 b6 5d bc 83 c7 5e bc 5e 54 fa bb
       0.0017049857 -0.013532332 -0.013597372 -0.007639452
000060 48 27 47 bc 41 03 b1 3c ca 17 79 3c 7d 94 ce bc
       -0.0121553615 0.021607997 0.015203426 -0.02521729
000070 ff db c8 bd 3f c6 74 3c 50 7f bd bc 84 ac 27 bb
       -0.09807586 0.014939844 -0.023131996 -0.0025585005
000080 1b d9 cf bc f8 a6 a9 bb f5 fa c6 bd a0 5c 90 bc
       -0.025372079 -0.005177375 -0.09715835 -0.017622292
000090 76 c5 fe bc d8 1f 1d ba 5c 8f 69 3c 2b 8c ef bc
       -0.031100016 -0.000599382 0.014255371 -0.029241642
0000a0 97 8b a9 3b 0e b3 37 bd 1e 36 0c 3d 56 97 0d bd
       0.005174111 -0.044848494 0.034231298 -0.034568153
0000b0 d1 a1 4e bd 44 bd b4 3c 4e dc a6 bc 60 32 9c ba
       -0.05044729 0.022062905 -0.020368721 -0.0011916868
0000c0 13 54 b5 bb 74 63 8f 3c c1 b4 87 3c 68 9e 83 bc
       -0.005533704 0.017503478 0.016565682 -0.016066745
0000d0 66 9a cc 3b e5 0b 0c bc 07 88 e3 3b d3 10 40 bd
       0.0062439917 -0.008547758 0.006943706 -0.046891045
0000e0 7b 84 81 3d 4b 45 0d 3c 81 08 df 3c 7c 75 35 3d
       0.06324097 0.008622478 0.027225735 0.044301495
0000f0 35 f9 48 3d 03 60 a6 bc 37 45 3c bc b2 ba aa bd
       0.049065787 -0.020309454 -0.0114911115 -0.083363906
000100 69 2c 50 3c ab d3 4b bd 55 01 f3 bd da 62 ef bd
       0.012705901 -0.04976241 -0.118654884 -0.11688776
000110 e0 8f f5 3a 3c aa fe bd 2e 68 08 be 50 18 12 bd
       0.0018734895 -0.124348134 -0.13320991 -0.035667717
000120 03 82 31 3b cf 7f 86 bd 9a 14 52 3c e5 ed 9c bd
       0.002708555 -0.06567346 0.012822295 -0.07662562
000130 e0 ae c9 bb 27 a6 92 bd 2d 26 b6 bd 6a 60 6d bd
       -0.00615488 -0.07160597 -0.08894 -0.057953276
000140 9c 16 d8 bc 0e 34 ad bd 36 7b 89 bc 23 7b ef bc
       -0.026377968 -0.08457194 -0.016782384 -0.02923352
000150 d0 85 61 bd 30 85 c7 3c b4 db 60 bd 7f 2f de 3c
       -0.055059254 0.024355501 -0.054897025 0.027122257
000160 02 a9 df bc 57 bf 81 bd 08 9d a4 bc e0 2d 8f bd
       -0.027302269 -0.06335323 -0.02009441 -0.06991172
000170 d9 15 dd bc 36 7f b3 bc 81 50 ec bc 0b 89 a5 bd
       -0.026987957 -0.021911245 -0.028846981 -0.080827795
000180 58 5a 0d 3d cf 89 d5 bd 0a 5d c3 bd e1 2b 8b bb
       0.034509987 -0.104266755 -0.0953923 -0.004247174
000190 71 41 95 bd 7e 03 88 bc cc db 02 be 8f 9f d4 bd
       -0.072878726 -0.016603228 -0.12779158 -0.10381996
0001a0 af b0 23 3b 5c 61 e8 bd 02 5e b9 3c 25 3f d8 3b
       0.0024977138 -0.11346695 0.022627834 0.0065993243
0001b0 39 64 ca bd 4f 60 f3 bd 75 d7 d6 bd 1b 4f 27 bd
       -0.09882397 -0.11883604 -0.10490314 -0.040846925
0001c0 ad 9c de bb 68 07 8d bd 97 56 52 bd 3d bb 20 bd
       -0.0067935796 -0.06886178 -0.05135211 -0.039241064
0001d0 ac 5d 80 3c 14 da d9 3a 1e ad 93 bc 62 0c 90 3b
       0.015669666 0.0016620778 -0.018026885 0.0043960074
0001e0 2d bf c3 3c 0c ba 43 bb 40 08 98 b8 ed 10 b2 bb
       0.02389487 -0.0029865531 -7.2494615e-05 -0.0054341466
0001f0 fc dc 89 3c 0b e6 d2 3b df bc 85 bd 94 04 7b 3c
       0.016829006 0.0064361147 -0.06530165 0.015320916
000200 02 95 6c bd 5f 07 c6 bd 29 6d d4 bd 2a ee bf bd
       -0.057759292 -0.09669375 -0.10372383 -0.09371598
000210 94 60 f6 3b 51 65 91 bb cd 21 96 bc 42 84 2c 3c
       0.007518837 -0.0044371267 -0.018326664 0.01052958
000220 b0 e8 bc 3c 42 b3 a7 3c 62 1a 9c bd dc 2f 09 be
       0.023060173 0.020471219 -0.076222196 -0.13397163
000230 0d cc ee bd bc 91 bb bd 60 97 e2 bd ac 06 86 bd
       -0.11660013 -0.09158656 -0.11064029 -0.06544241
000240 c0 83 c0 3c 0f 66 7f bc df 21 ca bd d1 b7 63 bd
       0.023500323 -0.0155882975 -0.09869742 -0.055595223
000250 92 45 10 be e8 27 00 be f8 e1 df bd 3a 0c 27 3c
       -0.14089039 -0.12515223 -0.10931772 0.010195786
000260 4c d4 97 3c b6 e4 5f bd d6 3f 83 bb 74 6e 12 3b
       0.018533848 -0.054661475 -0.0040054126 0.0022343667
000270 80 fc a3 bd 59 e3 61 3c e3 c9 d9 bb a1 39 bb bd
       -0.08007145 0.013787114 -0.006646381 -0.09141851
000280 7a 4c 73 bd b4 91 7a bc 73 c2 e5 3b 93 ad 8d bc
       -0.059399106 -0.015293527 0.0070117055 -0.01729468
000290 ae 96 2a 3c 5d 74 ae bd 08 8b 29 bd 1e 7e 1c bd
       0.010411901 -0.08518288 -0.041392356 -0.038206212
0002a0 ac e6 15 bc a7 52 9a bc f3 21 2e bd da 0b 1a bd
       -0.009149235 -0.01883824 -0.042512845 -0.03760896
0002b0 70 3e 9e bc 13 8f b3 bd 57 87 8d bd 1d c4 c6 bd
       -0.019316882 -0.087675236 -0.0691058 -0.097053744
0002c0 90 fb 55 bd 9a 59 b0 bd df 3d 95 bd ac c2 27 bd
       -0.05224186 -0.0861084 -0.072871916 -0.040957138
0002d0 55 c1 ae bd 5f 6c fc 3b df f5 94 bd 26 07 1c bd
       -0.08532969 0.0077033485 -0.07273459 -0.038092755
0002e0 64 62 9a 3d 1d 89 80 3c 14 44 40 ba eb d1 29 3c
       0.07538298 0.01569038 -0.0007334363 0.01036499
0002f0 31 60 b0 bc 49 7e bc 3c cd 6e 93 3c 21 db c9 bb
       -0.021530243 0.023009436 0.01799717 -0.0061601554
000300 77 d7 b6 3c f5 42 5b bc 11 57 9c bc 85 cc 8d 3c
       0.022319539 -0.013382663 -0.019084485 0.017309437
000310 b3 13 09 3c fc 6f de 3b 18 77 cb bd 58 da dd bd
       0.008366513 0.006788252 -0.09934825 -0.108326614
000320 7a be af bd 48 17 b9 bd 79 7d e8 bd 5f 7b 11 bd
       -0.085812524 -0.09037644 -0.11352057 -0.035518046
000330 c6 80 4b bc fe 37 81 bb 10 db c9 bd d8 5c 27 bd
       -0.012420839 -0.0039434424 -0.09856236 -0.040860027
000340 90 00 c4 bd ad d4 30 bd c1 fd a1 3c 49 3e 01 be
       -0.0957042 -0.043171573 0.01977432 -0.12621416
000350 50 bb 5b bd fb d7 2e 3c 72 63 a4 bd e7 3a f0 3b
       -0.053645432 0.010671611 -0.0802678 0.0073312405
000360 9c 80 00 be ab 5d 8f bd 88 a3 cd bd de 9e 9b bc
       -0.1254906 -0.070002876 -0.10040957 -0.018996652
000370 0c 75 09 be d7 ee 19 3c e8 f0 ba 3c a6 68 ea bd
       -0.13423556 0.009395323 0.022819951 -0.11445741
000380 ef dc 0e be 3b 2c 96 3c 98 c6 c6 3c e2 1c f8 3b
       -0.13951467 0.018331638 0.024264619 0.0075718025
000390 e7 ce fe bd bb b2 d0 bd 3a 35 71 bd 1e 40 30 bc
       -0.12441807 -0.1019034 -0.05888865 -0.010757474
0003a0 e6 e8 fe 3b 26 a5 4e 3c b5 71 13 bd 8e 76 be 3c
       0.0077792285 0.012612617 -0.03599711 0.02324989
0003b0 5a e5 e4 bd a5 64 6d 3c da dc 04 be 01 55 d1 bd
       -0.11176558 0.014489328 -0.12974873 -0.10221291
0003c0 2f 17 b4 bd 59 73 24 bd c0 61 39 3a 03 1f 0d be
       -0.087934844 -0.040149067 0.0007071756 -0.13781361
0003d0 2f c8 15 ba 35 6c 66 bd 51 d2 ee bc 23 13 a3 bd
       -0.00057137286 -0.056255538 -0.029153021 -0.079626344
0003e0 19 3e b3 bd 29 e0 ab bd 58 f3 ac b9 84 cf 07 3c
       -0.087520786 -0.083923645 -0.00032987702 0.008289222
0003f0 0e cf 3f bd 0d 2a 80 bd 70 d4 81 bd 62 ce 03 be
       -0.046828322 -0.062580206 -0.06339347 -0.12871698

bias f4 [32]
000000 c2 19 62 3c 7f 23 6c bb a1 90 f8 bd fb 49 5d bd
       0.013800086 -0.00360319 -0.12136961 -0.05402563
000010 6b e0 50 bd a0 10 90 bd 1b 41 3d bd 2a 61 bf bc
       -0.05099527 -0.07034421 -0.046204668 -0.023361761
000020 e4 91 ea 3b 73 aa cf bc 1a b4 00 be ac 7e 2d bd
       0.007158505 -0.025349831 -0.12568703 -0.04235713
000030 86 ed 21 bb f3 5f 60 bd d6 c0 ca 3c 98 d4 4f bd
       -0.0024708225 -0.054779004 0.024750154 -0.050739855
000040 1b 82 b1 bd d9 b4 98 bd 0a da be 3b 76 07 78 bc
       -0.08667394 -0.07456369 0.005824332 -0.015138498
000050 d3 e5 51 bd 40 39 fb bd 00 a1 01 37 95 f4 9f 3b
       -0.051244568 -0.12266779 7.726485e-06 0.0048814514
000060 b2 dc d9 3c 5a 8d b0 bd 16 65 0e bd 67 ab 4f 3c
       0.026594494 -0.08620711 -0.03476437 0.012675143
000070 7c 01 2f bd 45 ea 15 bd 05 40 80 bd 20 ad 9e 3c
       -0.042726025 -0.03660037 -0.06262211 0.019369662

weight f4 [32, 32, 3, 3]
000000 8b 7e 9a bc 52 5d 8c bc 8a ec 41 3a f8 fa ce 3b
       -0.018859169 -0.017134342 0.0007397613 0.006316539
000010 2c 21 2d bc 2e be 32 bd 00 11 20 bd cf ba b0 bd
       -0.010566991 -0.0436384 -0.039078712 -0.08629381
000020 4d 32 55 bd 7e 77 d9 bc 5e 25 0b 3d 80 6a 3e bd
       -0.052049924 -0.026546236 0.033971183 -0.046488285
000030 78 8a a4 bd 3c 51 29 3b c4 6f 60 bd 91 d6 3f bd
       -0.08034223 0.0025835773 -0.054794088 -0.046835486
000040 4b 00 ab bc 86 14 46 3b af 64 94 3d a8 d8 c5 3b
       -0.020874163 0.0030224635 0.07245766 0.0060377903
000050 55 c5 c1 3c 57 3d 43 3d 60 5b 94 3d d1 6e 6f 3c
       0.023653666 0.04766592 0.07243991 0.014613823
000060 b6 f1 b5 ba a0 4e 10 3c b5 e0 c3 3c 1f bc 00 3d
       -0.001388124 0.008807808 0.02391086 0.031429406
000070 78 4f 02 3d f3 09 98 3c 2b 18 60 3d cb 20 d9 3b
       0.03181407 0.018559432 0.05471055 0.0066262237
000080 42 bc 45 3d b6 d1 5f bc 92 2a 3b 3c 49 db ef 3c
       0.04827524 -0.013660839 0.011423724 0.029279368
000090 95 56 3c 3d 2e 47 42 3d 12 2b 6f 3d 9e b2 a4 3d
       0.04598101 0.047431163 0.058390684 0.08041881
0000a0 d6 2d 4f 3c 7f 0a a9 3d f6 fd 0a 3d c2 f1 a4 3d
       0.0126452055 0.08253955 0.033933602 0.08053924
0000b0 9f 4e 6b 3d ca 43 3c 3d f0 f4 31 3d 13 d5 0e 3d
       0.057448026 0.045963086 0.04344648 0.034871172
0000c0 94 af 9a bb de fd a2 3c 73 23 4c 3c cd fd 8f 3d
       -0.0047206376 0.019896444 0.012459624 0.070308305
0000d0 d8 7c 71 3c 72 28 08 3c ec 01 43 3b ec cf 20 bd
       0.014739238 0.008310424 0.0029755784 -0.03926079
0000e0 75 d3 17 bd 99 ed 33 bd 8e 72 91 bb 9f a7 3d bd
       -0.037066896 -0.043927763 -0.004438705 -0.046302434
0000f0 7b 1f 69 bd 31 63 e9 bc 83 ec a5 3c 79 68 2a bc
       -0.056914788 -0.028489681 0.02025438 -0.010400885
000100 79 3f 53 3d 59 15 95 bd 41 7e a0 bc 68 22 12 bd
       0.051574204 -0.07279462 -0.019591453 -0.035677344
000110 da ee b6 bc 35 9b 13 3d 4c ca 99 bd 6f e0 ca bd
       -0.02233069 0.03603669 -0.07509288 -0.099060886
000120 f5 48 50 bd a5 79 c6 bb 4c 68 cf 3c 30 38 86 3c
       -0.050850827 -0.0060569816 0.025318287 0.016384214
000130 0d 02 c6 bc 9f 88 d5 3c bc 85 81 3d b1 e8 d5 bc
       -0.0241709 0.026066123 0.06324336 -0.026111932
000140 c5 a3 fd 3c d2 ea 6d 3d 83 c8 95 3d 9c bf a3 3c
       0.03096188 0.05808527 0.07313635 0.019988827
000150 1f cb 05 3d d4 30 de 3b 10 dc d0 bb f2 e2 70 3c
       0.032664414 0.006780723 -0.0063738897 0.0147025455
000160 a1 8f 40 3d 77 6f 6b 3d 14 aa 12 3c 73 5c c3 3b
       0.047011975 0.057479348 0.008951683 0.0059619485
000170 a1 0f 67 bd d9 af fb bc ee 5f d5 bc c9 57 a0 bd
       -0.05641139 -0.0307235 -0.02604672 -0.07829244
000180 ab 07 2f bc 80 1a 5d 3c 2e 69 a6 bd a6 66 13 3d
       -0.0106829805 0.013495088 -0.0812553 0.035986565
000190 a1 ce 84 bd e0 23 43 bd f3 a2 4c 3d aa c2 84 3b
       -0.06484724 -0.047641635 0.049960088 0.004051526
0001a0 8e 56 6e 3c f5 08 33 3d 35 71 ea bc 37 b5 c8 3c
       0.014547003 0.043709714 -0.028618434 0.024500472
0001b0 be 1e f4 bc c3 22 5f bd 3f 90 92 bc 59 72 59 3d
       -0.029799815 -0.05447651 -0.017891048 0.053087566
0001c0 b5 d0 8d 3c cb 9e c1 bc 77 e5 a9 bd d6 b3 a0 3c
       0.017311433 -0.023635289 -0.0829572 0.019617002
0001d0 d2 94 20 bd 22 cc 16 bd 9a b1 7f bb 95 28 6f bd
       -0.039204426 -0.03681577 -0.003901577 -0.05838831
0001e0 44 56 a9 bc 11 e3 30 bd 3f 86 b5 bc ac 18 00 bc
       -0.020671017 -0.043185297 -0.02215874 -0.007818382
0001f0 32 ca 81 bd 7c c1 71 3c db d9 89 3d a8 18 63 3b
       -0.06337394 0.014755603 0.06731006 0.0034652147
000200 fa 17 22 3d b8 94 8e 3d bd 5c 13 3d c4 6e 35 3d
       0.039573647 0.069619596 0.035977114 0.044295087
000210 cc 3a 83 3c 4e e3 f4 bb fe 8c b2 3d 46 c2 14 3d
       0.016019247 -0.007473386 0.087182984 0.036318086
000220 16 1c 3d 3d 12 b6 a5 3d 38 38 a6 3d b8 12 8f 3d
       0.046169363 0.08091368 0.081161916 0.06985992
000230 f4 06 7b 3c a3 f0 44 3c 8d be a8 3d c6 fe a9 bc
       0.015321482 0.012020263 0.0823947 -0.020751368
000240 22 30 81 3c 97 e0 86 3c 3a 5d 27 bd a8 68 8c bc
       0.015770022 0.016464515 -0.040860392 -0.017139748
000250 db 49 cd 3c b2 11 80 3b ca 60 cc 3c 30 fc 2b bc
       0.025059631 0.0039083594 0.024948496 -0.010497138
000260 ea a9 08 3d 08 3b 65 bd a1 aa 84 bd b0 c8 c2 bd
       0.033365168 -0.0559645 -0.064778574 -0.09510934
000270 7b 12 d9 bc 5f fd 32 3c db 06 b6 bd a5 b5 39 bc
       -0.02649807 0.010924666 -0.08888026 -0.011334811
000280 69 fe a4 3c f5 fe 15 3d 48 45 76 3d 46 44 10 3d
       0.020140843 0.0366201 0.060124665 0.03522136
000290 6d 68 b6 3d cd 9c dd 3c 80 7e f4 3b 38 1a a6 3d
       0.089066364 0.027052308 0.007461369 0.081104696
0002a0 17 98 13 bd 68 e9 e3 3c e9 f4 3c bd 9b a1 08 3d
       -0.036033716 0.027821258 -0.046132002 0.033357244
0002b0 c6 53 0f 3d 60 5a 60 3d 3c 68 b3 3d df 73 b2 bc
       0.034992002 0.05477369 0.087601155 -0.021783767
0002c0 56 5d 73 3b 10 75 d9 3c 07 79 18 3d 65 aa 0d 3d
       0.003713449 0.026545078 0.037224796 0.03458633
0002d0 81 df b7 3c 87 23 12 3d 66 9e 4c 3d 41 75 33 bd
       0.022445442 0.035678413 0.049955748 -0.043812994
0002e0 af 0b bc 3c 2b 03 ba 3d 13 dd 34 3d bf e4 0c 3d
       0.02295479 0.090826355 0.044156145 0.034397837
0002f0 8a b8 68 bd 1e b4 c3 bb d2 e9 50 3d 84 96 c9 3c
       -0.056816615 -0.0059723994 0.05100424 0.024607904
000300 fb 81 e2 3c 27 b2 0c 3d fe f5 12 3d 3d cf 95 3d
       0.02764987 0.034349587 0.035879128 0.07314918
000310 4a 1b 0b 3c f2 76 fe 3a 96 c6 82 bc 25 ae fb 3c
       0.008490393 0.001941411 -0.015963834 0.030722687
000320 e0 da c5 3d ee 7a dd bc f9 19 b9 bc e9 e2 f1 3c
       0.09660888 -0.027036157 -0.022595393 0.029527145
000330 f4 01 5d 3d 87 7e 92 3c 7f b6 98 3d da e0 23 3d
       0.05395694 0.017882599 0.07456683 0.040009357
000340 98 3f b8 3c ea 83 fd bc 7c 2d 23 bd bc 72 09 bd
       0.022491261 -0.03094669 -0.0398383 -0.033556685
000350 55 11 22 3d 4d 28 23 bd 60 16 42 3d bd dc 89 3d
       0.03956731 -0.039833356 0.04738462 0.067315556
000360 57 69 14 bd 37 a1 3a bc 13 00 4c 3d 7a fd e1 bc
       -0.036233272 -0.011390976 0.04980476 -0.027586687
000370 38 ea 62 bd 5c 05 a2 bd 25 68 9e bd a0 e8 66 3c
       -0.05539915 -0.079111785 -0.07734708 0.014093548
000380 9d 6a 24 bc 99 3b 00 3d ca 5b 1c 3d 75 48 b7 3c
       -0.010035184 0.031306837 0.038173474 0.022373417
000390 36 2b e0 b9 b0 ad c6 3c a8 94 1d 3d 56 0e 40 3c
       -0.00042756804 0.024252743 0.038471848 0.011722168
0003a0 20 97 0c 3c f7 13 33 3d 49 d3 8f 3d 68 6d 8c 3d
       0.008580953 0.04372021 0.07022721 0.06856805
0003b0 36 7f 4b 3d f0 f0 0e 3d 5a 8f 51 3c a2 27 6c 3d
       0.049681865 0.034897745 0.012790525 0.057654984
0003c0 47 5c 80 3d b6 5f 82 3d 6d b4 7f 3d ab 40 30 3d
       0.062676005 0.06365912 0.062427927 0.043030422
0003d0 f2 6c 58 bc ef 4a 3b 3d d1 80 0e 3d 29 8d 95 3c
       -0.013209568 0.04572576 0.034790818 0.018255787
0003e0 34 b0 ef 3a 6e bc be 3d 84 1f 44 3d 68 14 2b 3d
       0.0018286766 0.09313284 0.04788162 0.041767508
0003f0 e8 d1 7a 3d c7 f4 94 3c 87 53 71 bd c5 bf bd 3b
       0.06123534 0.018183125 -0.05891755 0.005790683

bias f4 [32]
000000 ae 33 82 3c 7a 87 f0 bc 75 65 8b bd 0e a4 6c bc
       0.015893783 -0.029361475 -0.06806461 -0.014443411
000010 9f cb e9 bc f1 2a 07 bd 32 7f 98 bd f8 94 25 bd
       -0.028539477 -0.032999936 -0.074461356 -0.04042527
000020 10 54 bc bd dd 6d 00 bd ac b4 30 bc f6 cc 87 bd
       -0.09195721 -0.031354774 -0.010785263 -0.0663089
000030 c0 7a 05 bd ee b5 cf 3c a8 e7 51 bd ca f3 ae bc
       -0.032587767 0.025355306 -0.051246315 -0.021356482
000040 94 40 8e bc f9 78 9b bd 5f 0f 39 bd 04 d3 86 bd
       -0.017364778 -0.07591433 -0.045180675 -0.06583217
000050 68 2d a2 bd 49 dd 62 bd e1 61 7d bd df bf b5 bd
       -0.07918817 -0.055386815 -0.061860923 -0.08874487
000060 4b 73 d2 bc 02 b4 2b bd 7e 12 2d bd e5 42 0a bd
       -0.025689742 -0.041919716 -0.042253964 -0.0337552
000070 5d 22 87 bc 44 30 3e bc fa f3 d0 bd f7 76 84 bd
       -0.016495878 -0.011608187 -0.10202785 -0.06468003

weight f4 [3, 8192]
000000 f9 ac 9c bc 09 05 d8 bb 25 b9 f6 3c f8 c9 0a 3d
       -0.019125449 -0.006592397 0.03011758 0.03388402
000010 4e 8d 18 bc 67 eb 2d bc 26 cd 4e 3d 84 73 8a 3c
       -0.009311033 -0.010615206 0.050488614 0.016900785
000020 01 d2 12 bd 13 a0 84 3c 9c a0 a5 bd d0 8c 47 3d
       -0.035844807 0.01618961 -0.080872744 0.048718274
000030 1a a8 ef bc c8 e6 06 3d d6 27 81 3a b5 f5 29 bc
       -0.029254962 0.032934934 0.0009853791 -0.0103735225
000040 a7 14 c2 3c ef b2 2e bd 84 c9 7a bc 71 72 26 3d
       0.023691488 -0.042651113 -0.015306834 0.040636484
000050 d5 4b 19 bd 9c 80 43 bd a7 95 8d bc cc ea 9a 3c
       -0.037425835 -0.047730073 -0.017283274 0.018910788
000060 59 68 5f 3c bb a4 a8 bb d6 d5 8e bb ea db 52 3d
       0.013635718 -0.0051465905 -0.0043589873 0.051479258
000070 fa 67 24 bd fa cf b2 bc bb 47 f3 3c 28 d4 4c bc
       -0.040138222 -0.021827687 0.02969729 -0.012501754
000080 25 6b 50 3d 72 a2 d5 3c 8c 1a 93 bc a3 19 58 3c
       0.05088343 0.026078437 -0.017956994 0.013189706
000090 c3 e2 e3 bc 16 da e0 3c d0 6e 3b 3c e4 4d c0 3c
       -0.02781809 0.027447741 0.011439994 0.023474641
0000a0 53 6f 8d bc 85 f7 03 3c 6e 5d 1e 3d 84 a9 3c 3d
       -0.017264998 0.008054619 0.03866332 0.0460601
0000b0 e7 f5 6c bd bb 87 53 3c f0 53 85 3c 19 3c 9a 3c
       -0.0578517 0.012910779 0.016275376 0.018827485
0000c0 c0 8b 26 37 17 4f 9e 3d 35 bb ca bb e8 43 71 bc
       9.926909e-06 0.07729929 -0.0061868676 -0.014725663
0000d0 7c 95 e3 bc 77 9e 36 bd 51 e6 e8 3c ff b8 bf 39
       -0.02778124 -0.044584718 0.028430136 0.00036568192
0000e0 7d 93 b0 3c 7b 1f 24 3d 6e d8 c5 bb b5 2d 16 bd
       0.021554703 0.040069085 -0.0060377633 -0.036664683
0000f0 7a 56 a0 bc 89 19 28 3d f6 91 22 bd c3 19 56 3c
       -0.019572485 0.041039977 -0.03968998 0.0130676655
000100 a0 d9 d1 bc c3 b7 b8 bc 08 53 eb bc f3 7b bb bd
       -0.025616467 -0.022548562 -0.028726116 -0.09154501
000110 ef 5c 63 bd ea 73 d5 bc 8c 12 de ba 44 b0 e4 3c
       -0.05550855 -0.026056249 -0.0016942783 0.027916081
000120 3a c9 a5 3a 7d d9 80 3b 06 7a 49 3c dd da 4f bc
       0.0012648471 0.0039321766 0.012297159 -0.012686458
000130 f0 bb eb 3b e4 71 a9 3c bb a7 fc bc 78 57 43 3d
       0.0071940348 0.02068419 -0.030841699 0.04769084
000140 d8 b4 6b 3c 98 38 0e bc 30 43 71 bd a1 45 48 3d
       0.014386378 -0.008680485 -0.058901966 0.04889453
000150 51 c2 38 3d 63 b5 4f 3c 0f a6 d3 bc 2b eb 62 3c
       0.04510719 0.012677523 -0.025836019 0.013850014
000160 c5 0d 48 bd a6 86 99 3d 73 72 6c 3c d3 44 47 bc
       -0.048841257 0.07496385 0.014431584 -0.012162405
000170 a3 d0 9d 3c 7c 50 83 bc 10 11 3f 3c 7a 06 ba bc
       0.019264525 -0.016029589 0.011661783 -0.022708166
000180 09 d6 58 bc 99 42 e9 bc 15 38 a4 3c 24 5a bf bb
       -0.013234624 -0.028474139 0.020046273 -0.005839603
000190 e1 c4 d7 3c 99 b0 bc 3c bd e9 86 3b 45 b2 35 bd
       0.026338996 0.023033427 0.0041172192 -0.044359464
0001a0 8d ad 88 3d 8e 1c b2 bc 73 8c 5a bc c6 5f 60 bc
       0.06673727 -0.021742132 -0.01333915 -0.013694709
0001b0 fb b8 40 bc 58 12 66 bc bc 13 36 3d 04 cd f1 3c
       -0.011762853 -0.014042459 0.044452414 0.029516704
0001c0 c2 b5 68 bd 37 7f 55 3c 53 cf 3a bd 3f 3e a1 bc
       -0.056813963 0.013030819 -0.045607876 -0.019683002
0001d0 f0 63 e9 bc 86 39 9b ba b9 08 a9 3c fb c6 02 3c
       -0.028490037 -0.0011842705 0.020634042 0.007982011
0001e0 f7 f9 0f bd 2e b8 16 bd 39 75 53 3d 21 c7 2e bc
       -0.035150494 -0.03679674 0.051625464 -0.010667593
0001f0 1a cb 3c 3d f4 71 ac bc 97 cc df 3b 48 23 c5 3c
       0.04609213 -0.02105043 0.006829809 0.024064675
000200 11 a5 1e bc 62 d9 b1 3a cd 46 5e bd 38 41 b7 bc
       -0.00968291 0.0013568813 -0.05426674 -0.022369966
000210 ec d0 6f bc 50 ac 0d bd bb d1 3e bd 79 e0 23 3d
       -0.014637213 -0.034588158 -0.046586733 0.040008996
000220 86 19 92 bc 47 f1 12 bb 75 3c dc b9 4f 78 cc bc
       -0.017834436 -0.0022421645 -0.00042006714 -0.024959711
000230 11 d6 a9 bc a8 a6 0c bc ba 20 09 3d 19 12 2b bc
       -0.020731958 -0.008584656 0.033478476 -0.010441327
000240 8b 1d 28 bd 96 26 c6 3b 71 37 a1 3c 55 80 a2 3b
       -0.0410438 0.0060470803 0.019679757 0.004959146
000250 1b 48 c1 3c 8d 58 6e bd 45 ae 58 bd 85 72 3b 3b
       0.023593953 -0.058189917 -0.05290057 0.0028602195
000260 73 84 2f bd 53 ea 12 bb 41 4b 34 bd c0 93 97 bc
       -0.042850923 -0.00224175 -0.04401708 -0.01850307
000270 92 6b 04 bd 9c ca 2c 3d 07 fb 1c bc e8 60 86 3d
       -0.03232915 0.04218541 -0.009581334 0.06561452
000280 56 34 00 3d 8a a4 2e 3d f3 e5 a3 3c 73 2f 8a bc
       0.03129991 0.042637385 0.02000711 -0.016868329
000290 19 78 92 bd ef 02 bf 3c ff 9b 82 3d bb 3f 6e bc
       -0.07151813 0.023316829 0.0637741 -0.014541562
0002a0 ab ab 42 bd 3c 9b ad 3c a7 fb 70 3c be 1d 40 3d
       -0.047526997 0.021192186 0.014708436 0.046903364
0002b0 68 97 d5 bb a4 2f a3 bc 9e b3 1e 3d fb 88 33 3c
       -0.006518293 -0.019920178 0.038745515 0.010957952
0002c0 d2 6f 3d 3c eb da 39 bc e9 c9 4e 3d cd 56 d7 bc
       0.011562305 -0.011343698 0.050485525 -0.026286507
0002d0 77 4f 77 3d ef 38 7d 3d e2 9a f3 bc 24 cf b7 3c
       0.060378518 0.061821874 -0.02973694 0.02243764
0002e0 1b 70 a2 3b 66 ab 69 bd 78 80 11 3d cd dd 78 bc
       0.0049572117 -0.057048224 0.035522908 -0.0151896
0002f0 c8 8a 2d ba c1 44 35 3b 40 22 12 bd d6 ee c1 3b
       -0.0006620106 0.0027659389 -0.035677195 0.005918364
000300 ce e3 e8 3c f1 e8 60 3d 29 76 26 3c f3 85 33 3c
       0.028428938 0.05490965 0.0101600075 0.010957229
000310 eb 07 2b 3d 3c c7 52 3d b2 fa 8e bd 48 ce 1c bd
       0.041755598 0.051459536 -0.0698141 -0.038282663
000320 e8 6c 84 bb 38 be de 3c bd 96 0c bc 1f 42 f5 bc
       -0.004041303 0.027190313 -0.008580861 -0.029938756
000330 de 39 c6 3c 58 9f 45 3a f2 36 68 bc 77 03 08 bd
       0.024197515 0.00075386977 -0.014173256 -0.03320643
000340 bd 1f e7 3c 4c 93 22 3c 2b d5 0c bd 2d a1 21 bd
       0.028213376 0.009922814 -0.03438298 -0.03946035
000350 82 a6 90 bb b2 14 0b bd 25 68 04 bd d4 0b cd 3c
       -0.0044143805 -0.033955283 -0.032325882 0.025030054
000360 ce c7 02 3d 96 d8 f4 3c 26 69 82 bc 30 ac a3 bc
       0.03192883 0.029888432 -0.01591928 -0.019979566
000370 88 9d 74 bc 7e 37 8e bc ef e0 14 3d 90 9c 70 bc
       -0.0149301365 -0.017360445 0.036347326 -0.014685765
000380 29 3d 29 bc e9 48 b1 bc 49 2e 17 bc bd d8 92 bc
       -0.010329523 -0.021641212 -0.009227344 -0.017925614
000390 5c 8c 8a bd a7 59 57 3d 26 3b 56 3c ef 8b de bc
       -0.06765053 0.052575734 0.0130756255 -0.027166335
0003a0 a8 96 13 3c 99 0b d6 3b ad 75 80 bc 81 9c a8 bc
       0.009008087 0.0065321443 -0.015681112 -0.02058244
0003b0 b6 df dc bc ce bc 0b bd 1b 90 0e bc a6 d6 bf bb
       -0.026962142 -0.034115605 -0.00870135 -0.0058544455
0003c0 f9 71 01 bc d7 44 87 3c fd 9e 5a 3c 08 0a d7 3c
       -0.007900708 0.016512318 0.01334357 0.0262499
0003d0 02 b4 15 bd 81 c8 2f 3c cb c7 15 bc 21 2c 27 bc
       -0.036548622 0.010728956 -0.009141873 -0.010203392
0003e0 a5 19 c9 3c 7b 37 f9 bc 09 f1 3f 3c a7 7a 83 bd
       0.024548361 -0.030421963 0.011715182 -0.064198785
0003f0 88 31 2f bd 16 dc 45 3c 3e 68 2d bd 1c a7 da bb
       -0.042771846 0.012076398 -0.04233574 -0.006672753

bias f4 [3]
000000 d2 74 3a 3c 51 80 3e bc 35 e3 4a 3c
       0.011380391 -0.011627273 0.012383272
