Neural_network_Projects/plant_disease_recognition/recognize_disease_test.pt (torch, 171210 bytes, 10 tensors)

weight f4 [16, 3, 3, 3]
0	0xbe21fa1a	-0.15818062
1	0x3cb59d18	0.022169635
2	0x3e448bdd	0.19193979
3	0xbe405986	-0.1878415
4	0xbd0ecce0	-0.034863353
5	0xbc2ae110	-0.010429636
6	0xbda400d1	-0.08007968
7	0xbe33faa2	-0.17576078
8	0x3e19d52d	0.15022726
9	0x3b514900	0.003193438
10	0x3cdb9bd0	0.026807696
11	0x3e42679d	0.18984838
12	0x3d072b40	0.03300023
13	0xbe31b839	-0.17355432
14	0xbd488578	-0.04895541
15	0x3d61c7e8	0.055122286
16	0x3e383cc1	0.17991926
17	0xbc8f6aa8	-0.017506912
18	0xbe0575e2	-0.1303325
19	0xba0b0500	-0.0005303174
20	0x3e31450d	0.17311497
21	0xbda5e0bd	-0.08099506
22	0x3e0c7d73	0.1371973
23	0x3e34acad	0.17643996
24	0xbc9fd518	-0.01951079
25	0x3c9f7e50	0.01946941
26	0xbe19745e	-0.14985797
27	0x3e35207d	0.17688175
28	0x3dc09d6e	0.09405027
29	0x3c4c8d90	0.012484923
30	0xbd38e230	-0.045137584
31	0xbdbfa416	-0.09357469
32	0x3e06e51b	0.13173334
33	0x3c4e4250	0.012589052
34	0x3c262520	0.010140687
35	0xbb63a500	-0.0034735799
36	0xbe02b392	-0.12763813
37	0xbd85249c	-0.06501123
38	0x3d073ee8	0.033018976
39	0xbe21e4c7	-0.15809928
40	0xbdac6063	-0.08416822
41	0x3e3d87d7	0.1850885
42	0x3e16160d	0.14656849
43	0x3e36217f	0.17786215
44	0x3d31fb6c	0.043452665
45	0xbe365822	-0.17807057
46	0x3d5f5a08	0.05452922
47	0xbb173ec0	-0.0023078173
48	0xbd91c285	-0.0711718
49	0x3da7d25e	0.08194421
50	0xbd8c39fb	-0.068469964
51	0x3d8e1caa	0.06939061
52	0xbda53796	-0.08067243
53	0xbca03750	-0.019557625
54	0xbbb67b80	-0.0055689216
55	0xbe25435e	-0.1613898
56	0x3e21ff27	0.15819989
57	0xbdd04c2e	-0.1017078
58	0xbe080959	-0.13284816
59	0x3be354c0	0.006937593
60	0xbd5bcabc	-0.05366014
61	0x3e16e059	0.1473402
62	0x3d7f6a34	0.062357143
63	0x3cde3598	0.027125165
64	0x3e1b5885	0.15170486
65	0x3e01817f	0.12647055
66	0xbe31da92	-0.17368534
67	0x39c02400	0.00036647916
68	0xbe25ae34	-0.16179734
69	0x3e3e21dd	0.18567605
70	0xbdebb8a3	-0.11509826
71	0x3cc6d1b8	0.024269924
72	0x3de8bee2	0.11364533
73	0x3c78a850	0.015176848
74	0x3d9d911a	0.076936916
75	0xbd2072d0	-0.039171994
76	0xbdd0f27e	-0.10202502
77	0xbdcab226	-0.0989726
78	0xbda3510c	-0.07974443
79	0x3c435650	0.011922434
80	0x3e2203bf	0.15821742
81	0xbe265751	-0.16244246
82	0x3d32cbc8	0.043651372
83	0xbe2eca12	-0.17069271
84	0xbbab8c20	-0.00523521
85	0x3ca11ff0	0.01966855
86	0x3d9872fa	0.07443805
87	0xbe2b83be	-0.16749474
88	0xbdc6f261	-0.09714199
89	0x3df8e722	0.1215346
90	0xbe436409	-0.19081129
91	0xbda85091	-0.08218492
92	0xbd5c5a08	-0.053796798
93	0xbd260350	-0.040530503
94	0x3d853d7e	0.06505869
95	0x3dff560e	0.124675855
96	0xbdacddb2	-0.084407225
97	0xbdac3475	-0.08408443
98	0xbd17c61c	-0.037054166
99	0x3d95bae6	0.07311039
100	0x3cf7a918	0.030231997
101	0x3cf933a0	0.030420125
102	0xbdf55822	-0.119797006
103	0x3e256acf	0.16154025
104	0xbd55f5f8	-0.052236527
105	0x3e085729	0.13314499
106	0xbe0bd12f	-0.13654016
107	0xbdee044f	-0.116219155
108	0x3d2fc660	0.042913795
109	0xbd494048	-0.04913357
110	0x3ccbb910	0.024868518
111	0xbdcb24ca	-0.09919126
112	0x3e282cd5	0.16423352
113	0xbe188014	-0.14892608
114	0x3e3639c1	0.17795469
115	0x3e0a6e39	0.13518609
116	0xbdfa6830	-0.122269034
117	0xbd4ff168	-0.050767332
118	0x3bfb21a0	0.0076639205
119	0x3e194a53	0.14969759
120	0x3cd90358	0.026490852
121	0xbdee6520	-0.11640382
122	0xbd02d730	-0.0319435
123	0xbe3818d0	-0.17978215
124	0xbe16d54e	-0.14729807
125	0x3cd8c4a8	0.02646096
126	0x3d81fa46	0.06346564
127	0x3e061047	0.13092147
128	0x3c220720	0.009889394
129	0xbdca99da	-0.09892626
130	0xbc3379f0	-0.010954365
131	0xbde93ef0	-0.113889575
132	0xbbe678c0	-0.0070334375
133	0x3db7996e	0.08964811
134	0x3db079b2	0.086169615
135	0x3e23ebcd	0.1600792
136	0x3dbed93e	0.093187794
137	0x3e2db5d5	0.16963895
138	0xbe29b2d4	-0.16572124
139	0xbd872484	-0.06598762
140	0x3da594de	0.08085035
141	0x3c28fec0	0.010314643
142	0xbe1483fa	-0.1450347
143	0xbc080ce0	-0.008303851
144	0xbd3fc498	-0.046818346
145	0xbe36fe5d	-0.1787047
146	0xbe3213f3	-0.17390423
147	0x3de41d1e	0.11138366
148	0xbe2f6e4b	-0.17131917
149	0xbdede852	-0.11616577
150	0x3c9c4758	0.019076988
151	0x3dcd4c2a	0.10024293
152	0x3e0860a7	0.1331812
153	0x3d028324	0.031863347
154	0xbc0b5590	-0.008504286
155	0xbe280f2e	-0.1641204
156	0x3df9a86e	0.121903285
157	0x3d76c5c4	0.060247198
158	0x3e064aad	0.13114424
159	0x3e279d39	0.1636857
160	0xbda482b5	-0.08032743
161	0xbd542134	-0.051789477
162	0xbe419c67	-0.18907319
163	0x3e2221d3	0.15833215
164	0x3df52a1e	0.11970924
165	0x3da9c28e	0.082890615
166	0x3e215e85	0.15758713
167	0xbe414534	-0.18874055
168	0xbe003733	-0.12521057
169	0xbd95b2dd	-0.07309506
170	0xbe271e21	-0.16320087
171	0x3e00d5a5	0.12581499
172	0x3d6a8c18	0.05726251
173	0x3d9fe1d6	0.07806747
174	0xbdce7dd8	-0.100825965
175	0x3d06fb40	0.032954454
176	0xbe23d6cc	-0.15999907
177	0x3df0eb12	0.11763586
178	0xbe32faf3	-0.17478542
179	0xbe050abf	-0.1299238
180	0xbc664d90	-0.014056578
181	0xbe16d75c	-0.1473059
182	0x3d4789b0	0.048715293
183	0x3dc67f46	0.09692244
184	0x3e0bfcfd	0.13670726
185	0xbe2e1b2f	-0.17002557
186	0xbe0850b0	-0.1331203
187	0x3c083ed0	0.008315757
188	0x3e3d824f	0.1850674
189	0x3dd94abe	0.10609959
190	0x3e36f1eb	0.17865722
191	0x3bf58d80	0.0074936748
192	0x3df0870a	0.11744507
193	0x3c6716f0	0.01410459
194	0x3d5cc618	0.053899854
195	0x3d6208d0	0.055184186
196	0x3b8fef20	0.0043925196
197	0x3bd1f620	0.006407514
198	0xbde0ba0e	-0.10972987
199	0x3e40b3bb	0.18818562
200	0xbcbdc7a8	-0.023166493
201	0xbdcae3b5	-0.09906713
202	0x3e14ac9b	0.14518969
203	0x3d89aea6	0.06722765
204	0x3e29015b	0.16504423
205	0xbd85b3b4	-0.06528416
206	0xbe411e40	-0.18859196
207	0xbda34213	-0.07971587
208	0x3d39e1dc	0.045381412
209	0x3e441acb	0.19150846
210	0x3de68cf6	0.11257355
211	0x3e2f2a8d	0.17106076
212	0xbe1ceeee	-0.1532552
213	0x3ccb49d0	0.02481547
214	0xbdbbedc5	-0.0917621
215	0xbe2a2710	-0.16616464
216	0x3e37fa1b	0.17966501
217	0x3dc1119e	0.09427188
218	0xbe02285a	-0.12710705
219	0xbd4bdc8c	-0.049770877
220	0x3c8d1050	0.017219692
221	0xbd6f4c78	-0.058422536
222	0xbdd31464	-0.103066236
223	0x3e252c1b	0.16130106
224	0xbc585b50	-0.013205364
225	0x3d317838	0.04332754
226	0xbbe60400	-0.00701952
227	0x3d84d53e	0.06485985
228	0x3e3655d7	0.17806183
229	0x3e3e1499	0.18562545
230	0x3da74cce	0.08168946
231	0xbe010634	-0.12600023
232	0xbde02e4a	-0.10946329
233	0x3dbfda9e	0.0936787
234	0xbda5719f	-0.08078312
235	0xbdb00792	-0.08595194
236	0xbe03ff96	-0.12890467
237	0x3db8b116	0.090181515
238	0x3d6b5cf4	0.057461694
239	0xbe242367	-0.1602913
240	0xbe10aa7c	-0.14127535
241	0x3ccefad0	0.025266081
242	0x3e0e5877	0.13900934
243	0x3da705b2	0.08155383
244	0x3c2dea10	0.010614887
245	0xbe00ed87	-0.1259061
246	0xbdd0b595	-0.10190884
247	0x3e3879b9	0.18015184
248	0xbcf51d90	-0.029921323
249	0xbcc77de8	-0.024352029
250	0x3e26b6d3	0.1628068
251	0x3e344c3d	0.17607208
252	0x3db712f2	0.089391604
253	0xbd851f7e	-0.06500147
254	0x3da4818e	0.08032523
255	0xb9574000	-0.0002052784

bias f4 [16]
0	0x3c8e7c10	0.017393142
1	0x3d9b645e	0.07587503
2	0x3d211884	0.03933002
3	0x3ddc562a	0.10758622
4	0x3d7f5b84	0.062343135
5	0xbde3c94b	-0.11122378
6	0x3e40144d	0.18757744
7	0xbdf1de2f	-0.11809956
8	0x3e116cd5	0.14201672
9	0x3e232527	0.15932141
10	0x3d9b24de	0.07575391
11	0x3e2344f7	0.15944277
12	0xbe13472c	-0.14382619
13	0x3e3c70b3	0.18402366
14	0x3e3c4759	0.18386592
15	0x3dd62c12	0.104576245

weight f4 [16, 16, 3, 3]
0	0x3c50b4a8	0.012738384
1	0x3d2b77d6	0.04186233
2	0xbd2f18d3	-0.042748284
3	0x3d7c6f32	0.06162948
4	0xbd068536	-0.032841884
5	0x3cc193e4	0.02363009
6	0xbd9c8482	-0.07642461
7	0xbd564cdb	-0.05231939
8	0xbd5b4c2e	-0.053539447
9	0xbcee6b4c	-0.029103898
10	0x3bd82f90	0.0065974668
11	0x3b8dd440	0.0043282807
12	0x3bbbed90	0.0057351068
13	0x3b47c820	0.0030484274
14	0x3d134a32	0.03595943
15	0xbca35224	-0.019936629
16	0x3d6d14fe	0.057881348
17	0xbd600b63	-0.05469836
18	0x3d6eb65a	0.058279373
19	0x3d6566ca	0.05600623
20	0xbd4b9f58	-0.04971251
21	0x3d96db99	0.07366104
22	0x3bca2340	0.006168753
23	0x3d0c286a	0.03421823
24	0x3d74c16a	0.059754767
25	0xbd690a98	-0.05689487
26	0xbc73d248	-0.014881678
27	0xbd277aa8	-0.04088846
28	0xbd8a02cb	-0.06738814
29	0xbba4c010	-0.0050277784
30	0xbd41179b	-0.047141653
31	0xbcaa8d2c	-0.02081927
32	0x3c0952a8	0.008381523
33	0xbd90bd3c	-0.070673436
34	0x3da354bd	0.07975147
35	0xbd8ddde7	-0.0692709
36	0x3d577d22	0.05260957
37	0x3c0d3b38	0.008620076
38	0x3d5a252a	0.0532581
39	0x3d8754ed	0.06607995
40	0x3cd39c50	0.025831372
41	0x3d38a34a	0.0450776
42	0xbc606d20	-0.013697892
43	0xbc667068	-0.014064886
44	0x3ce654cc	0.028116606
45	0x3d67c7fe	0.05658721
46	0xbd90d7af	-0.070723884
47	0x3a6c2880	0.00090087205
48	0x3d28d8fe	0.041222565
49	0x3c6d0da0	0.0144685805
50	0x3d771a62	0.060327895
51	0xbda0e117	-0.078554325
52	0xbd1478d0	-0.03624803
53	0xbd9c6122	-0.07635714
54	0x3d14f578	0.03636691
55	0x3cddaa44	0.027058728
56	0xbd99b03a	-0.07504316
57	0xbd8514f6	-0.064981386
58	0xbd49c2c3	-0.049258005
59	0xbd8b5294	-0.0680286
60	0xbc12aa60	-0.008951753
61	0xbc59c348	-0.013291188
62	0xbd51b233	-0.051195335
63	0x3d0a2ede	0.033736102
64	0xba63c980	-0.00086893886
65	0xbcae3506	-0.021265518
66	0x3d987265	0.07443694
67	0xbda12dcb	-0.078700624
68	0xbd01eca3	-0.031719815
69	0x3c1cb2d8	0.009564124
70	0xbd9e8e0b	-0.07741936
71	0x3d0948a2	0.033516534
72	0xbc3c9d28	-0.011512078
73	0x3d11ac02	0.03556443
74	0xbbd67fb0	-0.0065459833
75	0xbc93c82c	-0.018039785
76	0xbda6554c	-0.08121738
77	0xbd818de6	-0.06325893
78	0xbba55a80	-0.005046189
79	0x3d16d1e2	0.036821254
80	0xbcecea10	-0.028920203
81	0xbcef513c	-0.02921354
82	0x3ad01a00	0.0015876889
83	0xbd99dcd7	-0.07512825
84	0xbd3c1e63	-0.045927417
85	0xbbb0bdb0	-0.0053937063
86	0x3d59546e	0.053059034
87	0xbd4099d3	-0.0470217
88	0xbd8af2aa	-0.06784566
89	0x3ce6f3ec	0.028192483
90	0x3d8f7fb5	0.0700678
91	0x3d129a0e	0.03579145
92	0xbd4b88e6	-0.049691103
93	0xbd7b0d36	-0.061291896
94	0x3c580cc8	0.013186641
95	0x3cd234b0	0.025659889
96	0x3ced5c60	0.028974712
97	0xbaecea40	-0.0018075183
98	0xbd45c7e3	-0.04828633
99	0x3d38a0be	0.04507517
100	0xbd9278ab	-0.07151922
101	0xbbe59580	-0.007006347
102	0x3d8e3749	0.069441386
103	0x3d3c5aca	0.04598502
104	0x3d99e429	0.07514221
105	0x3d37cec2	0.044874914
106	0xbd4f7593	-0.050649237
107	0x3d1223da	0.035678722
108	0x3d1791f0	0.03700441
109	0xbd8a7f5b	-0.067625724
110	0xbbdd94b0	-0.0067621097
111	0x3cdeb62c	0.027186476
112	0xbcadbc4c	-0.021207951
113	0x3be85750	0.0070904866
114	0xbd1e00d6	-0.038575016
115	0x3d327a3e	0.04357361
116	0x3d34c68a	0.044134654
117	0xbcc5a506	-0.02412654
118	0xbd1e7436	-0.038685046
119	0x3d881989	0.066454954
120	0x3cd06544	0.025438912
121	0xbd9c11ae	-0.0762056
122	0xbd8a4dc4	-0.06753114
123	0xbd86116f	-0.06546294
124	0xbd2339db	-0.039850097
125	0x3ce1f5a0	0.027582943
126	0xbb4347a0	-0.002979733
127	0xbdaa377e	-0.083113655
128	0xbd94db2b	-0.072683655
129	0x3d8db0c7	0.06918483
130	0x3d8d4077	0.06897061
131	0x3cda170c	0.026622318
132	0xbc0e2968	-0.008676864
133	0xbc5f0d78	-0.013614051
134	0xbc536660	-0.012902826
135	0x3d582e3e	0.052778475
136	0xbda6f15f	-0.08151507
137	0xbd052290	-0.032503664
138	0x3d3168aa	0.043312706
139	0xbd9c71fc	-0.07638928
140	0xbd3870c8	-0.04502943
141	0xbb81aef0	-0.0039576218
142	0xbc118f80	-0.008884311
143	0xbac0f700	-0.0014722049
144	0xbc85bcec	-0.016325437
145	0x3b577600	0.003287673
146	0xbc532578	-0.012887351
147	0x3d882177	0.06647008
148	0xbc622e68	-0.013805009
149	0x3d066dde	0.03281962
150	0xbda624ba	-0.08112474
151	0x3d2f624e	0.04281836
152	0x3caf1ed0	0.021376997
153	0xbcf598e0	-0.029980123
154	0x3b43b160	0.0029860362
155	0xbd14a2a8	-0.036287934
156	0xba405b80	-0.00073378533
157	0x3c0e3d28	0.008681573
158	0xbd673260	-0.056444526
159	0xbc5544e0	-0.013016909
160	0xbd7308ae	-0.05933445
161	0xbd62b75b	-0.055350643
162	0x3d98b58f	0.074565046
163	0x3c362318	0.011116765
164	0xbce1732c	-0.027520739
165	0x3cb05384	0.021524198
166	0xbd0e5f20	-0.034758687
167	0xbd178cfe	-0.036999695
168	0xbd10e2a3	-0.035372388
169	0x3d246e88	0.040144473
170	0x3c871b50	0.016492516
171	0x3d9d6d6f	0.076868884
172	0xbcc68aa0	-0.024236023
173	0x3d94d89f	0.0726788
174	0xbd355c3e	-0.044277422
175	0x3d007eea	0.031371035
176	0x3d8f45f9	0.06995768
177	0xbd8ccc73	-0.06874933
178	0xbd585338	-0.05281374
179	0x3cb3ff40	0.021972299
180	0xbda44f0c	-0.080228895
181	0xbbf14400	-0.0073628426
182	0x3d8b27d1	0.06794704
183	0xbda43fa0	-0.08019948
184	0xbd84c03a	-0.06481977
185	0xbd2bf65b	-0.04198299
186	0x3b472500	0.0030387044
187	0x3da20a51	0.07912124
188	0xbd1f733b	-0.03892825
189	0xbc96f5b0	-0.0184277
190	0x3d1c381e	0.038139455
191	0x3d814b37	0.06313174
192	0xbd1c9003	-0.038223278
193	0xbd0472b6	-0.03233596
194	0x3d869ef1	0.065732844
195	0x3a7e1080	0.000969179
196	0xbba971c0	-0.0051710308
197	0x3d634d3a	0.05549357
198	0x3c8c4470	0.017122477
199	0xbcd7d78c	-0.026347898
200	0x3d957f31	0.072996505
201	0x3c9179c4	0.017758258
202	0xbce9390c	-0.028469585
203	0xbd8a457b	-0.067515336
204	0xbda92f1b	-0.08260938
205	0x3d8316eb	0.06400856
206	0xbd6df25b	-0.058092456
207	0x3c98b444	0.018640645
208	0x3d880151	0.06640876
209	0x3c1ba240	0.009499133
210	0x3d4a785a	0.049431182
211	0x3bc589f0	0.0060284063
212	0x3d6dc412	0.058048315
213	0x3b957240	0.004560739
214	0x3d6ce352	0.057833977
215	0x3c87f924	0.016598292
216	0x3d87d075	0.06631557
217	0x3d850209	0.06494529
218	0x3c18bbb8	0.009322099
219	0xbd1efe93	-0.038817
220	0xbd3131d6	-0.043260418
221	0x3d26e63e	0.04074692
222	0x3d842e09	0.06454093
223	0xbd695523	-0.05696596
224	0xbd511a20	-0.051050305
225	0x3cbf5f1c	0.023360781
226	0xbd3f5f40	-0.046721697
227	0x3d26d3a8	0.040729195
228	0x3d9ff0b3	0.078095816
229	0xbd5c7bae	-0.053828888
230	0xbd48c036	-0.04901143
231	0x3cea5ecc	0.028609656
232	0x3d0a7f1e	0.033812635
233	0xbcfff90c	-0.031246684
234	0xbd57f340	-0.052722216
235	0x3d80488b	0.062638365
236	0xbd6bb3f8	-0.05754468
237	0xbd9fb00f	-0.077972524
238	0xbc08c8a0	-0.008348614
239	0xbd1e0fc0	-0.03858924
240	0xbc5bbb38	-0.013411336
241	0xbd6a7e70	-0.057249486
242	0xbcc87040	-0.024467587
243	0xbd50827b	-0.050905686
244	0xb9b4db00	-0.00034495443
245	0xbc1f7a20	-0.009733707
246	0x3d280a88	0.04102567
247	0x3cade61c	0.021227889
248	0x3da5da15	0.080982365
249	0x3da48963	0.08034017
250	0x3d2a5b1e	0.041590802
251	0xbd65d19b	-0.0561081
252	0x3cf3b7cc	0.029750727
253	0x3be8d7f0	0.00710582
254	0xbd573df8	-0.052549332
255	0xbd1cf030	-0.038315

bias f4 [16]
0	0x3d362306	0.044466995
1	0xbb77eaa0	-0.0037829056
2	0x3d9ae2cb	0.075627886
3	0xbd33339b	-0.043750387
4	0x3b30a280	0.0026952326
5	0x3cd1c510	0.025606662
6	0x3d090216	0.033449255
7	0x3da512b5	0.08060209
8	0x3d86636d	0.06561933
9	0x3da4fd0f	0.080560796
10	0xbd8e5e3f	-0.0695157
11	0xbd24cd4b	-0.040234845
12	0x3be6b1c0	0.0070402324
13	0xbd29ec08	-0.041484863
14	0x3c81a990	0.015827924
15	0xbd866038	-0.06561321

weight f4 [32, 16, 3, 3]
0	0xbd98c326	-0.074590966
1	0x3d85e749	0.06538255
2	0x3d3b6576	0.045751058
3	0xbcf87316	-0.030328315
4	0xbd1d2d63	-0.038373362
5	0xbc158818	-0.009126686
6	0x3d6de242	0.058077104
7	0x3bb5c540	0.0055471957
8	0x3cb92a1c	0.022603087
9	0x3b9bb9b0	0.0047523603
10	0x3a6d3a00	0.0009049475
11	0xbbb9b470	-0.005667262
12	0x3cb92700	0.022601604
13	0x3da3db45	0.08000807
14	0xbd2febce	-0.04294949
15	0xbd7ef6fb	-0.062247258
16	0xbd25ede6	-0.04051008
17	0x3d928759	0.07154722
18	0xbcf74d2c	-0.030188166
19	0xbd8e49ca	-0.06947668
20	0x3bb423c0	0.005497426
21	0xbd0b1d56	-0.033963524
22	0x3b2e7e20	0.002662547
23	0x3bb59cd0	0.005542375
24	0xbcb6ce86	-0.022315275
25	0x3d92d83d	0.071701504
26	0x3d74ee1e	0.0597974
27	0xbd4300d6	-0.04760822
28	0xbd3eae48	-0.046552926
29	0xbc92bde0	-0.017912805
30	0xbcafdf4c	-0.021468781
31	0x3c8b485c	0.017002277
32	0xbb717000	-0.003684044
33	0xbd771a2b	-0.06032769
34	0xbd9b234e	-0.07575093
35	0x3d99b28b	0.075047575
36	0xbd763f6e	-0.060119085
37	0x3d325fce	0.043548398
38	0xbcbf3736	-0.023341756
39	0x3d9ef7b7	0.077620916
40	0xbd330383	-0.04370452
41	0x3d40c656	0.047064148
42	0xbd0e1f03	-0.034697544
43	0x3d2c2dd2	0.042035885
44	0x3d239332	0.0399353
45	0xbd59a996	-0.053140245
46	0x3d6f9436	0.058490954
47	0x3ccd647c	0.025072329
48	0x3c7a4020	0.015274078
49	0xbc98b5dc	-0.018641405
50	0x3d5030d6	0.050827824
51	0xbd35307b	-0.044235688
52	0xbd90c98c	-0.07069692
53	0xbc85d2b4	-0.016335823
54	0xbda8fcf6	-0.082513735
55	0xbd635f1b	-0.05551062
56	0x3c5eff80	0.013610721
57	0x3cf40c7c	0.02979111
58	0x3c950b34	0.018193819
59	0x3d28e206	0.041231178
60	0x3d71a02a	0.058990635
61	0xbd2afaf6	-0.04174324
62	0x3d7f8b92	0.062388964
63	0x3b726b80	0.0036990345
64	0xbd2bdf78	-0.041961163
65	0xbca41c7c	-0.020033114
66	0xbc5a5ea8	-0.013328232
67	0x3b846270	0.004040055
68	0x3d19aa50	0.03751594
69	0x3c93cd1c	0.01804214
70	0xbcfdd276	-0.030984145
71	0x3d758692	0.05994279
72	0xbd4b148b	-0.04958014
73	0x3d60a40a	0.05484394
74	0x3d17afd2	0.03703291
75	0x3d3af6f2	0.04564566
76	0xbd27aa20	-0.04093373
77	0x3d82654d	0.06366978
78	0x3d9b4717	0.07581919
79	0xbd4afc90	-0.04955727
80	0xbd0733db	-0.033008438
81	0xbd752acb	-0.059855264
82	0x3c9ee14c	0.01939454
83	0xbd8fce23	-0.07021739
84	0xbbd417f0	-0.00647258
85	0xbc741888	-0.014898427
86	0xbd62db0b	-0.055384677
87	0x3d9610d1	0.07327426
88	0xbd57039b	-0.052493673
89	0x3d3b6eaa	0.045759834
90	0x3cbf71e0	0.02336973
91	0xbcab5f90	-0.020919591
92	0xbc9be270	-0.019028872
93	0xbd8a06ab	-0.06739553
94	0x3d2aded2	0.041716404
95	0x3d58b45e	0.052906387
96	0x3d1c29a6	0.038125657
97	0x3da1ba6f	0.078968875
98	0xbd147720	-0.03624642
99	0xbd183d66	-0.03716793
100	0x3c85abdc	0.0163173
101	0x3b8eceb0	0.004358135
102	0xbcc1b1bc	-0.02364432
103	0xbd8bac3e	-0.06819962
104	0xbd181e7b	-0.037138443
105	0xbab16440	-0.0013533905
106	0xba1e8400	-0.0006046891
107	0xbcf5d6bc	-0.03000962
108	0xbd8bec10	-0.06832135
109	0x3cccb500	0.024988651
110	0x3c48bf60	0.012252659
111	0x3d9d36ad	0.07676444
112	0xbd45705e	-0.048202865
113	0x3d63442a	0.05548493
114	0x3bf16110	0.007366307
115	0xbae75d40	-0.0017651692
116	0xbcc9eabc	-0.024648063
117	0x3d7cb63a	0.061697222
118	0xbb19a1a0	-0.0023442283
119	0x3cf36220	0.029709876
120	0xbd61c3ce	-0.055118375
121	0xbda771fb	-0.08176037
122	0xbd845d12	-0.06463064
123	0x3c278818	0.010225318
124	0x3d3845e2	0.04498852
125	0xbd61fcd3	-0.055172753
126	0xbd295e2e	-0.041349582
127	0xbcd078d6	-0.025448244
128	0xbcc95610	-0.02457717
129	0xbd02454b	-0.031804364
130	0x3d99334d	0.07480488
131	0x3d795dfa	0.06088064
132	0xbc35ef28	-0.011104383
133	0x3ce2af74	0.027671553
134	0x3cd1ac8c	0.025594972
135	0x3da60601	0.08106614
136	0xbd9a5fb0	-0.07537782
137	0x3d166642	0.036718614
138	0x3d573ff2	0.052551217
139	0x3d06b112	0.03288371
140	0x3b5eba20	0.003398545
141	0x3bd4d390	0.006494947
142	0xbd35170e	-0.04421144
143	0x3d652946	0.055947565
144	0xbda0d6ee	-0.078534946
145	0x3c8a9d44	0.016920693
146	0x3d554ee2	0.05207718
147	0xbd80f07a	-0.06295867
148	0x3b17f9e0	0.0023189709
149	0xbc04d840	-0.008108199
150	0x3d92659b	0.07148286
151	0xbd01762e	-0.031606846
152	0xbd962174	-0.073305994
153	0x3d7cada2	0.061689027
154	0xbc12aef8	-0.008952849
155	0xbd5f0703	-0.054450046
156	0x3b94cc80	0.00454098
157	0xbc19d2c0	-0.009388626
158	0x3ccf6864	0.025318332
159	0xbc056778	-0.008142345
160	0xbcd86120	-0.0264135
161	0x3da45697	0.08024328
162	0x3d9f113d	0.0776696
163	0x3c456138	0.012047105
164	0xbd9b5938	-0.075853765
165	0xbd6bf2d3	-0.057604622
166	0xbda4e27b	-0.0805101
167	0x3d5a2a72	0.053263135
168	0x3b5d1fa0	0.0033740774
169	0x3d2c3272	0.042040296
170	0x3d9b37ad	0.07578979
171	0xbd7bd883	-0.06148578
172	0xbd8512e8	-0.06497747
173	0x3ccbd900	0.024883747
174	0xbc11c960	-0.008898109
175	0x3d69473a	0.056952693
176	0x3d6f7686	0.058462642
177	0xbd90a432	-0.07062568
178	0x3d70664a	0.0586913
179	0xbd63b0f6	-0.055588685
180	0x3da7984d	0.08183346
181	0x3d573bae	0.05254715
182	0x3d814cb3	0.06313457
183	0x3d956893	0.072953366
184	0xbd85e0b8	-0.06537002
185	0xbcd8ded0	-0.026473433
186	0xbcff3276	-0.031151991
187	0xbd87b777	-0.0662679
188	0xbd897dac	-0.06713423
189	0xbd919fc0	-0.07110548
190	0xbb5d58e0	-0.0033774897
191	0x3d89fb83	0.06737425
192	0xbd7faa03	-0.062417995
193	0x3c44dc40	0.012015402
194	0x3c6bfbe8	0.014403321
195	0xbd8c89e0	-0.06862235
196	0x3d56daae	0.052454643
197	0x3d346442	0.044040926
198	0x3d9a544d	0.0753561
199	0x3d9f1eb3	0.07769527
200	0x3cea3560	0.028589904
201	0x3d9638cd	0.07335053
202	0xbc2ce3e8	-0.010552384
203	0xbd9b90f0	-0.07596004
204	0xbca11e30	-0.019667715
205	0xbd47a0de	-0.0487374
206	0x3d7cbcf6	0.061703645
207	0x3d8612dd	0.06546567
208	0x3cdc7b1c	0.026914172
209	0x3d39b5b6	0.04533931
210	0xbcf18be6	-0.029485654
211	0x3d15a1da	0.036531307
212	0x3d8827d3	0.06648221
213	0xbd07c588	-0.033147365
214	0xbd32db16	-0.043665968
215	0xbb95cab0	-0.0045712814
216	0xbcb2f67c	-0.021846049
217	0x3d8d6ae9	0.06905157
218	0xbd185ed8	-0.037199825
219	0x3d0832aa	0.033251442
220	0x3da585f5	0.08082191
221	0x3cf26e1c	0.02959352
222	0x3d7cee62	0.061750777
223	0xbc1c33e8	-0.00953386
224	0x3d035730	0.03206557
225	0xbd681558	-0.05666098
226	0xbc328180	-0.010895133
227	0xbd190246	-0.037355684
228	0x3d5fd33a	0.0546448
229	0x3c5e3748	0.013562985
230	0x3d2d71ae	0.04234474
231	0xbc5ea5c0	-0.013589323
232	0xbd87659c	-0.06611177
233	0xbd787398	-0.060657114
234	0x3da1f5cd	0.07908211
235	0xbd854414	-0.065071255
236	0xbbae3090	-0.0053158477
237	0x3c516d40	0.012782395
238	0xbd8b3ec8	-0.06799084
239	0x3c260d60	0.010135025
240	0xbda2dad7	-0.07951897
241	0xbcc1be7c	-0.0236504
242	0xbd97adf8	-0.07406229
243	0x3d92e9f9	0.07173533
244	0xbd062060	-0.03274572
245	0xbd4bcd2b	-0.04975621
246	0xbd62a880	-0.055336475
247	0x3d9ad913	0.07560935
248	0xbd0ecb53	-0.034861874
249	0x3d02c5ea	0.031927027
250	0xbcb69050	-0.02228561
251	0xbc1d00c0	-0.009582698
252	0x3da54003	0.0806885
253	0xbd7cf516	-0.06175717
254	0x3cfecb6c	0.031102858
255	0xbd36f5e8	-0.04466811

bias f4 [32]
0	0x3da551a9	0.08072216
1	0x3d55aec2	0.052168615
2	0x3b9e8410	0.0048375204
3	0x3d1e8638	0.03870222
4	0x3cba036c	0.02270671
5	0xbd22a6cb	-0.039709847
6	0x3d15ae5e	0.036543243
7	0xbda751d2	-0.08169903
8	0x3d809baf	0.06279694
9	0xbc353ca8	-0.011061825
10	0x3d3afc42	0.045650728
11	0xbd85b096	-0.06527822
12	0x3d92970f	0.071577184
13	0xbd6142d8	-0.054995388
14	0xbd350eeb	-0.04420368
15	0x3ca2fc84	0.0198958
16	0xbcb8e110	-0.022568256
17	0x3bf69430	0.0075249895
18	0xbd8c4fb0	-0.06851137
19	0x3b266500	0.002538979
20	0xbd932d64	-0.07186392
21	0xbccc4820	-0.024936736
22	0xbcfb0696	-0.030642789
23	0xbd99ccba	-0.075097516
24	0xbd93dbaf	-0.07219636
25	0xbd0e09d8	-0.034677356
26	0x3d888f4b	0.06667956
27	0x3cb010a4	0.02149231
28	0xbd8ea9ee	-0.06966005
29	0xbda4e99b	-0.08052369
30	0x3d37ecea	0.044903673
31	0xbcb1a44c	-0.021684788

weight f4 [32, 32, 3, 3]
0	0xbc0aeee0	-0.008479804
1	0xbd33da36	-0.043909274
2	0xbd32900a	-0.043594398
3	0x3cdea90a	0.027180213
4	0x3cfa44f2	0.030550454
5	0x3d4d01df	0.050050613
6	0x3c23afc4	0.009990636
7	0x3cc69bee	0.024244275
8	0x3cb37e9e	0.021910962
9	0x3bd4b248	0.0064909793
10	0x3d0cf1a5	0.034410138
11	0xbd415e32	-0.047208972
12	0xbc385fa4	-0.011253271
13	0xbcb8c104	-0.022552975
14	0xbd407f2e	-0.046996288
15	0x3d57f449	0.052723203
16	0x3bdf5398	0.006815385
17	0x3c6c12f4	0.014408816
18	0xbcdb8e14	-0.026801147
19	0x3d589feb	0.052886885
20	0xbc91522c	-0.017739378
21	0xbd25e2f4	-0.040499642
22	0x3d19e119	0.037568185
23	0xbd0e1b4a	-0.034693994
24	0xbd1a7be8	-0.037715822
25	0xbc40c27c	-0.011765119
26	0x3c2e8d14	0.010653753
27	0xbc8d27e6	-0.01723094
28	0x3cf597b2	0.02997956
29	0xbd3a4cdc	-0.045483455
30	0x3ccae1f2	0.024765942
31	0x3d40d961	0.04708231
32	0xbd087a82	-0.033319958
33	0xbb940ab0	-0.0045178756
34	0xbc162184	-0.009163264
35	0x3cef2432	0.029192064
36	0x3a34f9c0	0.0006903671
37	0x3be5b168	0.007009674
38	0x3afd8dc0	0.0019344613
39	0x3d3ed6c1	0.046591524
40	0xbcb5f56c	-0.022211753
41	0xbc8e3d52	-0.017363224
42	0xb90a6900	-0.00013199821
43	0xbc773d18	-0.0150902495
44	0xbcc7da66	-0.024396133
45	0x3d60f25f	0.054918643
46	0xbc992a5a	-0.018696953
47	0x3c400e04	0.011722092
48	0xbc252cb0	-0.010081455
49	0x3d6d5453	0.057941746
50	0xbc007ac0	-0.007841766
51	0xbcc8f012	-0.024528537
52	0xbcca58b6	-0.024700504
53	0xbd18abf5	-0.037273366
54	0xbc143a54	-0.00904711
55	0x3d16bab1	0.036799137
56	0x3c8baeea	0.017051179
57	0x3cc4d886	0.024029028
58	0x3b80afa8	0.00392719
59	0x3c0e70d4	0.0086938925
60	0xbbf3a258	-0.0074351244
61	0x3d67cc21	0.056591157
62	0x3c5a626c	0.01332913
63	0xbd194de6	-0.037427805
64	0xbc63c744	-0.013902489
65	0x3d6374cf	0.05553132
66	0xbcc941fe	-0.0245676
67	0xbd68b9d4	-0.056817845
68	0x3b1bddd0	0.0023783334
69	0xbd49c29c	-0.04925786
70	0x39d17e80	0.00039957836
71	0x3d2f43f1	0.042789403
72	0xbc8259ee	-0.015912022
73	0x3d3aa6f9	0.045569394
74	0xbcac7c6e	-0.021055426
75	0x3d56e219	0.052461717
76	0x3d647c1f	0.055782434
77	0xbd05781e	-0.032585256
78	0xbd3329d9	-0.04374108
79	0x3d4c3417	0.049854364
80	0xbc71d8f0	-0.014761195
81	0x3aca5e60	0.0015439503
82	0x3c5db02c	0.013530772
83	0xbc648fd0	-0.013950303
84	0x3c5d731c	0.013516214
85	0x3cdd2972	0.026997302
86	0xbd6feb08	-0.058573753
87	0x3bb98fb8	0.0056628846
88	0xbc9794dc	-0.018503599
89	0x3ccb44d2	0.02481309
90	0xbd3a1928	-0.045434147
91	0xbd37e27a	-0.04489372
92	0x3d1a865d	0.037725795
93	0x3c82ca62	0.015965644
94	0x3caddea6	0.021224331
95	0x3ca69cae	0.020338383
96	0xbb0826b0	-0.0020775013
97	0x3d6482af	0.055788692
98	0x3c533aec	0.012892466
99	0x3cf3d702	0.02976561
100	0xbbdb1a98	-0.00668652
101	0x3d343635	0.04399701
102	0x3cede1de	0.029038366
103	0xbbd97458	-0.0066361837
104	0x3d2fb435	0.04289647
105	0x3bfd8ce8	0.0077377446
106	0x3cf011a2	0.029305283
107	0xbc915d2c	-0.017744623
108	0x3d3ccaef	0.04609197
109	0xbd152bd0	-0.036418736
110	0x3cda09e6	0.026616048
111	0xbce9d1a3	-0.028542345
112	0xba897400	-0.0010486841
113	0x3d3b1329	0.04567257
114	0xbc02f660	-0.007993311
115	0x3d1c0117	0.038086977
116	0x3cfaa7ca	0.030597586
117	0x3d238e25	0.03993048
118	0xbd27b132	-0.04094047
119	0x3c921176	0.017830592
120	0xbc11d300	-0.008900404
121	0x3d578609	0.05261806
122	0xbc804706	-0.015658867
123	0x3c755e7c	0.01497614
124	0x3d4ef4c3	0.05052639
125	0x3bdb2ad8	0.006688457
126	0x3d1f421b	0.038881402
127	0x3b3b9ba0	0.0028626695
128	0x39f9ef00	0.0004767105
129	0x3cb5356a	0.022120196
130	0xbd6bdc39	-0.057583068
131	0xbcea29fe	-0.028584477
132	0x3c7ee1a4	0.015556727
133	0xbd2df75a	-0.04247222
134	0xbbf6d158	-0.00753228
135	0x3ca8dc8a	0.020612974
136	0x3d26c8c1	0.040718798
137	0x3c605e7c	0.013694402
138	0x3d31197d	0.0432372
139	0x3d681cab	0.056667965
140	0x3d0a1c81	0.03371859
141	0x3c9df232	0.019280527
142	0xbc277780	-0.010221362
143	0x3c055fc4	0.008140508
144	0xbd2b3930	-0.041802585
145	0xbc6956d8	-0.014241897
146	0x3d5dcf37	0.054152694
147	0x3d2a1bb9	0.041530345
148	0x3d676ddd	0.05650126
149	0xbc1c7334	-0.009548951
150	0x3b854bd8	0.004067879
151	0x3c0b1a14	0.008490104
152	0x3c86adea	0.01644035
153	0x3d6a9341	0.05726934
154	0x3b5e2a40	0.0033899695
155	0x3cac50d2	0.021034632
156	0xbd3d6221	-0.04623616
157	0xbc36b0e4	-0.011150572
158	0xbc2a554c	-0.010396313
159	0x3d589005	0.052871723
160	0x3d13645b	0.03598438
161	0x3d34ddc9	0.044156823
162	0xbcd41e3c	-0.025893323
163	0x3d449fe9	0.048004065
164	0xba8c90a0	-0.0010724254
165	0xbcc1b5cc	-0.023646258
166	0x3b9543b8	0.004555192
167	0x3cb9988a	0.022655744
168	0xbd4c24d5	-0.049839813
169	0x3d189b25	0.037257332
170	0xbc2530d0	-0.010082439
171	0x3ce1a182	0.027542833
172	0xbd62cb00	-0.055369377
173	0x3d09d86d	0.033653665
174	0xbcc023b4	-0.023454525
175	0x3c7357ec	0.014852505
176	0x3c848ef6	0.01618145
177	0xbcb71cf8	-0.02235268
178	0x3b9bcd88	0.004754726
179	0x3d014dcf	0.031568345
180	0x3d42a80d	0.047523547
181	0x3d3f4981	0.04670096
182	0x3b234d30	0.0024917834
183	0x3c91a1a6	0.017777275
184	0xbcc8e88c	-0.02452495
185	0xbca44626	-0.02005298
186	0x3c73684c	0.014856409
187	0x3d360af1	0.04444403
188	0x3ba177b8	0.0049276017
189	0xba2b4dc0	-0.0006534718
190	0xbd4ade9f	-0.049528714
191	0xbd6657f1	-0.05623621
192	0x3cc3f336	0.023919683
193	0xbd5b2b4e	-0.053508095
194	0x3cb97a4e	0.022641327
195	0x3bf3db68	0.0074419267
196	0xbd03b4ec	-0.032154962
197	0x3d51d707	0.051230457
198	0x3ca242f2	0.019807313
199	0x3c04106c	0.008060556
200	0x3d4faa05	0.050699253
201	0x3ce5fd7e	0.028074976
202	0x3b45a870	0.003016021
203	0xbc4fd0ec	-0.012684088
204	0xbd670ad1	-0.0564068
205	0xbd0d1970	-0.034448087
206	0xbd614b0e	-0.05500322
207	0x3d0a3afd	0.03374766
208	0x3d3c2e5f	0.04594266
209	0x3cc90ae2	0.024541322
210	0xbcf63de4	-0.030058809
211	0xbd6da3be	-0.058017485
212	0x3d66d14d	0.05635195
213	0xbccadd1a	-0.024763633
214	0xbce10ec4	-0.027472861
215	0x3d19a37b	0.037509423
216	0x3d426d81	0.047467712
217	0xbc98a83a	-0.018634904
218	0x3d230775	0.039802033
219	0xbb4150c0	-0.0029497594
220	0xbc852656	-0.016253632
221	0xbd557664	-0.05211486
222	0xbd305aa2	-0.043055184
223	0xbd5dbb41	-0.054133657
224	0xbcb41734	-0.02198372
225	0x3c465b4c	0.012106728
226	0x3b074670	0.002064135
227	0x3d15f495	0.036610205
228	0x3b2df150	0.0026541539
229	0x3bb18748	0.005417738
230	0x3cd5783a	0.026058305
231	0x3d3bd51d	0.045857538
232	0x3d0c8285	0.03430416
233	0xbd1e92e2	-0.038714297
234	0xbb459ba0	-0.0030152574
235	0x3d5a1557	0.053243008
236	0x3c90768a	0.017634649
237	0x3d085387	0.033282783
238	0xbcebd8f6	-0.028789978
239	0xbc4354ac	-0.011922043
240	0x3cfacf1a	0.030616332
241	0x3d6760c9	0.056488786
242	0x3d0380d5	0.032105286
243	0x3c79e3f4	0.015252102
244	0xbc826564	-0.015917487
245	0x3d562f91	0.052291457
246	0xbced7f39	-0.028991329
247	0xbd5bd8ea	-0.053673662
248	0xbd6ea79a	-0.058265306
249	0x3d0c7a83	0.034296524
250	0xbcae02c6	-0.021241557
251	0xbd46a980	-0.04850149
252	0x3c9a400e	0.018829372
253	0x3c3b1874	0.011419404
254	0x3c4ed42c	0.012623828
255	0x39b0af80	0.00033700094

bias f4 [32]
0	0xbd24f9d4	-0.040277317
1	0x3c85eb6e	0.016347613
2	0x3c4630ec	0.012096625
3	0x3d4c643d	0.049900282
4	0xbc52eb3c	-0.012873467
5	0xbc999d4e	-0.018751767
6	0x3cda0e96	0.026618283
7	0xbb2b2010	-0.002611164
8	0xbd23f918	-0.040032476
9	0xbce3df53	-0.02781645
10	0x3d686633	0.05673809
11	0x3d4f52f7	0.05061623
12	0xbc684bcc	-0.014178228
13	0xbd70e50f	-0.058812197
14	0x3d4d8239	0.050173018
15	0xbcf7382e	-0.030178156
16	0x3d4b7acf	0.049677666
17	0xbd53dc72	-0.051723905
18	0xbc60ec24	-0.013728175
19	0xbd36d28b	-0.044634383
20	0x3c78b18c	0.015179049
21	0x3bc98398	0.0061497204
22	0x3d64be1b	0.05584536
23	0xbd7094f1	-0.05873579
24	0xbd0dc1b7	-0.03460857
25	0xbcc319d4	-0.023816027
26	0xbbfaecf0	-0.0076576397
27	0x3ccc399a	0.02492981
28	0xbd4e0504	-0.050297752
29	0xbd1a978a	-0.037742175
30	0x3d624bb3	0.055247974
31	0x3d4bca5b	0.049753528

weight f4 [3, 8192]
0	0xbc26baca	-0.01017637
1	0x3ba73672	0.005102926
2	0xbc155d0c	-0.009116422
3	0x3bd2c7b6	0.006432499
4	0x3ba8233e	0.0051311543
5	0xbc0d49fc	-0.008623596
6	0x3bf104f6	0.0073553277
7	0xbc2f8726	-0.010713374
8	0x39fe6680	0.00048523024
9	0xbbd3d06b	-0.0064640543
10	0xbbf93748	-0.007605467
11	0xbb9dd9f0	-0.00481724
12	0xbb2d8860	-0.002647899
13	0x3a12db40	0.0005602129
14	0xbbdfb740	-0.006827265
15	0x3b98ea82	0.0046666274
16	0x3c18b985	0.009321575
17	0xbc2503bf	-0.010071694
18	0x3a331a60	0.0006832238
19	0x3b9d2196	0.0047952635
20	0x3ac46b70	0.0014985632
21	0x3c0710ab	0.00824372
22	0xba10ba30	-0.0005520908
23	0x3b9fb762	0.004874156
24	0x3bdb8356	0.006699006
25	0x3b404b94	0.0029341923
26	0xbc0a4ccc	-0.008441161
27	0x3b11536c	0.0022174967
28	0xbb746cc8	-0.0037296284
29	0xbc14c6d9	-0.009080612
30	0xbc0fc7c6	-0.008775657
31	0x3bc6529a	0.0060523273
32	0xbc101f91	-0.0087965885
33	0x3c01f64f	0.00793226
34	0xbb168c10	-0.0022971667
35	0x3c136b27	0.008997715
36	0xbb497650	-0.0030740686
37	0x3aca66a8	0.0015441971
38	0x3c138ebb	0.009006198
39	0xbaca33d8	-0.0015426828
40	0x3bd8f2e6	0.0066207526
41	0x3c2a87d9	0.010408365
42	0x3bce279a	0.006291342
43	0xbaf58168	-0.0018730583
44	0xbc23d4b6	-0.009999445
45	0x3b706cd4	0.003668596
46	0xbb1c2d24	-0.0023830617
47	0x3b3938e0	0.002826266
48	0xbaf0ff40	-0.0018386617
49	0xbc226528	-0.009911813
50	0x3c2610c9	0.010135838
51	0x3b28b5b4	0.002574307
52	0xba780b30	-0.0009462116
53	0xbab99d90	-0.0014161337
54	0xbbb0199d	-0.005374147
55	0xbc2bf8c7	-0.010496325
56	0xbb52588c	-0.0032096235
57	0x3b7e85dc	0.003883711
58	0x3c1fc5c9	0.0097517455
59	0xbbadc81c	-0.005303396
60	0x3c1118ad	0.008855981
61	0x3c34b859	0.01103028
62	0x3a4541b0	0.0007524742
63	0xbbb347c5	-0.005471202
64	0xbc1af511	-0.009457842
65	0x3bbb3f32	0.0057143206
66	0x3b631cf4	0.0034654709
67	0x3be3352e	0.0069338297
68	0x3c1a733b	0.009426887
69	0x3c03184b	0.008001397
70	0xbb1d60ac	-0.002401392
71	0xbc0a736c	-0.00845037
72	0xbb6b715c	-0.0035925722
73	0x3b940c2c	0.0045180526
74	0x3be90862	0.007111595
75	0x3a6e8960	0.000909945
76	0x3af6c028	0.0018825578
77	0xbbc20d77	-0.0059220153
78	0x3c15de01	0.009147168
79	0x3c1dac29	0.009623566
80	0xb9fd18c0	-0.0004827436
81	0xbbb0462f	-0.0053794603
82	0x3ab2e910	0.001364978
83	0x39e95fa0	0.0004451247
84	0x3becf606	0.0072314767
85	0xbb743498	-0.0037262794
86	0x3bf8d03e	0.007593184
87	0xbb26f754	-0.002547701
88	0xbb28dd48	-0.002576666
89	0xbb161260	-0.0022899136
90	0xbb5cf0a2	-0.0033712764
91	0x386bb300	5.6195073e-05
92	0xbb7574c2	-0.0037453626
93	0xbc31f089	-0.010860571
94	0x3c0eb927	0.008711136
95	0x3a50e100	0.0007968098
96	0xbb34eed0	-0.0027608164
97	0x3ba6d156	0.0050908728
98	0x3bd9983e	0.006640463
99	0x3b9d51b2	0.0048009986
100	0x3c188eff	0.009311437
101	0x3bce02a6	0.006286937
102	0x3b0ac620	0.002117522
103	0xbb15ece4	-0.0022876794
104	0xba911a40	-0.0011070445
105	0xbb373b80	-0.0027959049
106	0x3bbc2156	0.0057412786
107	0x3af35548	0.0018564845
108	0x3c04bb2b	0.008101265
109	0xba393e90	-0.00070665125
110	0x3b3db288	0.0028945524
111	0x3a1cd050	0.0005981969
112	0xbc3151cf	-0.010822727
113	0xbb2fb424	-0.0026810253
114	0xbbfbd360	-0.00768511
115	0x3b4cdffc	0.0031261435
116	0x3a681000	0.0008852482
117	0xbc05e96d	-0.008173329
118	0x3bcd400a	0.0062637376
119	0x3bf07dd6	0.0073392196
120	0x3bfb07ca	0.0076608406
121	0x3b7b13f8	0.0038311463
122	0x3c0cc689	0.008592256
123	0xbb3bb9f4	-0.0028644772
124	0xbb9a99a6	-0.0047180234
125	0xbb1267d8	-0.0022339728
126	0x3c1a646b	0.009423356
127	0x3c14c6d5	0.009080608
128	0xbad1c940	-0.0016005412
129	0xbb93cbc5	-0.004510375
130	0x3b99263a	0.0046737464
131	0xbb336208	-0.0027371664
132	0xbbb5a467	-0.00554328
133	0xbc0e3f31	-0.008682058
134	0xbbceed45	-0.006314906
135	0xbbead268	-0.0071661957
136	0xbbae27fd	-0.0053148256
137	0xbbc0ff87	-0.0058898362
138	0x3ba6312a	0.005071779
139	0xbbc34b74	-0.0059599224
140	0xbbae629f	-0.005321815
141	0xbbc647b7	-0.0060510295
142	0xbc207365	-0.009793137
143	0x3c25d16d	0.010120732
144	0xbc25e865	-0.010126208
145	0x3c0f47cf	0.008745148
146	0x3b042c9c	0.002016819
147	0x3a9b4130	0.0011844989
148	0x3ba95f36	0.0051688207
149	0x38d84180	0.00010311883
150	0x3c253583	0.010083559
151	0x39b558c0	0.00034589134
152	0x3b3e1430	0.0029003732
153	0xbb8d4b40	-0.004311949
154	0xbbbee661	-0.005825803
155	0x3b88212a	0.004154344
156	0x3c1c67bd	0.0095462175
157	0xbc1c8407	-0.009552962
158	0x3c07a1e5	0.008278345
159	0xbbfdc2af	-0.0077441554
160	0x3c210ab7	0.009829215
161	0xbbcdb9cc	-0.006278252
162	0xba47a710	-0.0007616142
163	0xbc2b444e	-0.010453297
164	0x3becb3d2	0.0072235847
165	0x3be8f406	0.007109168
166	0xba863e98	-0.0010242043
167	0xbbf22cc4	-0.0073905904
168	0x3b0f6ad8	0.0021883752
169	0xbc0679c8	-0.008207746
170	0x3c298d57	0.010348639
171	0xbaaae998	-0.0013039587
172	0xbad3ca70	-0.0016158354
173	0x3bdbf71a	0.0067128064
174	0x3c175b49	0.009238073
175	0xbc06c9b8	-0.008226804
176	0xbb41b6d0	-0.0029558428
177	0xb99eff80	-0.0003032647
178	0xbc26a0eb	-0.010170202
179	0xbb4fd30c	-0.0031711487
180	0xba18e6b0	-0.0005832715
181	0x3b4387b0	0.0029835515
182	0x3be9f762	0.007140086
183	0x3bde28ca	0.006779765
184	0xbb8628c6	-0.004094216
185	0xbbbf0710	-0.0058296993
186	0x3c066667	0.008203126
187	0x3c19592b	0.009359638
188	0x3be84efe	0.0070894947
189	0xbbeb39ee	-0.0071785366
190	0xbbc4416d	-0.0059892447
191	0x3c337d59	0.010955178
192	0xbc2bd2fe	-0.010487316
193	0xbb301e14	-0.0026873397
194	0xbb77baf8	-0.003780065
195	0xbb4e0340	-0.0031435043
196	0x3c2c8401	0.010529519
197	0xb9853ee0	-0.00025414582
198	0xbb43f77c	-0.002990215
199	0x3b989a0e	0.0046570366
200	0x3b09fef8	0.0021056514
201	0xbc010b59	-0.007876241
202	0xbb1fdca4	-0.0024392987
203	0xbbc46679	-0.005993661
204	0x3ba09c06	0.004901412
205	0xbb276748	-0.0025543738
206	0x3c164c07	0.0091734
207	0x3be8d08e	0.00710494
208	0x3c2e4cf1	0.010638461
209	0xba9b9aa0	-0.0011871643
210	0xbb5f12ac	-0.003403823
211	0x3babba3e	0.0052407077
212	0xbaf9df90	-0.0019063819
213	0xbc14f67a	-0.009091968
214	0xbbd82ab5	-0.006596888
215	0xbbf18ff2	-0.007371896
216	0x3bcf04aa	0.0063176947
217	0x3ac58240	0.0015068725
218	0x3bdc0926	0.0067149578
219	0x3aef7228	0.0018268274
220	0x3bd320fe	0.006443142
221	0xbbf7b674	-0.007559592
222	0xbb8b051b	-0.004242552
223	0x3c24e31f	0.0100639155
224	0x3c187f45	0.009307687
225	0xbc202f6a	-0.009776929
226	0xbc0a87c0	-0.008455217
227	0x3bc454fa	0.0059915753
228	0xbaf58fe8	-0.0018734904
229	0x3ba20c7e	0.004945337
230	0x3c34efa3	0.011043462
231	0x3c232e9f	0.009959846
232	0xbc16f657	-0.009214005
233	0x3af7e338	0.0018912321
234	0xbc2b2112	-0.010444896
235	0x3c14e0d5	0.009086807
236	0xbb9dfdec	-0.0048215296
237	0x3bde89fe	0.0067913523
238	0xbc179956	-0.009252867
239	0x3b7c3b2c	0.0038487418
240	0xbb7aa476	-0.0038245
241	0xbb82024d	-0.0039675594
242	0x3b0962fc	0.002096354
243	0xbc07283a	-0.008249337
244	0xb9b91080	-0.00035298243
245	0x3b5ab84c	0.003337401
246	0xbb8eca40	-0.004357606
247	0xbb60165c	-0.0034193015
248	0x3b79e064	0.0038128132
249	0xbb0dd700	-0.0021643043
250	0x3a22c930	0.0006209789
251	0xbc0a71f6	-0.008450022
252	0xbbc15272	-0.005899721
253	0xbbf61c90	-0.007510729
254	0xbae88350	-0.001773933
255	0x3abc5160	0.0014367513

bias f4 [3]
0	0x3bd10666	0.0063789366
1	0x399f5080	0.0003038682
2	0xbab7c5f0	-0.0014020782
