Neural_network_Projects/plant_disease_recognition/recognize_disease_28_12.pt (torch, 171288 bytes, 10 tensors)

weight f4 [16, 3, 3, 3]
0.03452846 -0.05985309 0.007817896 0.079384185 0.13631263 -0.037374843 -0.064920776 0.06106618
0.0067362865 0.12234584 -0.12795831 0.18105026 -0.021215698 0.055222224 0.18109247 -0.19211704
0.10176726 -0.07598903 -0.0023739552 0.04080454 -0.1206947 -0.089158684 -0.086350575 0.05816433
-0.1607703 0.08039528 -0.13970391 -0.045384686 0.19121408 -0.009596157 0.10238166 -0.123618156
-0.06827811 -0.08305016 0.02878603 0.097970694 -0.077433445 -0.1328414 0.10590088 0.166784
0.04787441 -0.06385051 0.05315225 -0.17547253 -0.11766597 0.11447992 0.15777223 -0.06665067
0.07767382 0.056136373 -0.17208458 0.1725287 0.19667442 0.07946984 -0.11219002 -0.03565241
-0.13095854 -0.122681126 0.007134376 0.17297345 -0.07217847 0.030965505 -0.15917937 0.07469195
-0.027051734 0.12322975 0.04033243 0.021202102 -0.06347444 -0.09640848 0.04965235 0.1597073
0.010430134 -0.038998295 0.040653873 0.044879608 -0.013705303 -0.004575842 0.0068538035 0.024113817
-0.15422931 0.19936076 0.12683254 0.07004002 0.0052915923 -0.12569255 0.003999555 0.05160791
0.019598303 -0.13249499 -0.020093068 0.1571886 0.068337664 -0.043847714 -0.13111904 -0.061092336
0.023382088 -0.04868561 -0.022721672 -0.00019515764 -0.020935845 -0.09005039 0.069437586 0.01324754
0.049202297 -0.02415095 -0.013648313 -0.003911171 -0.14798586 -0.052755367 -0.014408833 0.13518967
-0.12690465 0.17795126 0.06895117 0.13434911 -0.06517961 0.054397516 0.09889431 -0.0037833222
-0.11008047 -0.06817738 0.055135567 0.059124917 0.09560797 0.13676491 0.019129902 0.03441923
-0.15773347 0.09217303 -0.15462774 0.041075733 -0.05597851 -0.01630889 -0.0031777322 -0.13705553
-0.15782785 0.13508555 0.103243455 -0.15007964 0.16187766 0.13834088 -0.17697687 -0.07707925
0.18697433 -0.14540936 -0.040287048 0.1965583 -0.14270538 0.12843277 0.1746461 0.15753011
0.07581695 0.18100952 0.10853018 -0.05358056 -0.16612278 0.08673455 0.046835907 0.15902764
0.10538084 0.08108611 0.09587212 -0.080835246 0.07003966 -0.019366788 0.0534453 0.13031426
-0.05595725 0.02009893 -0.0023831436 0.08601678 0.004041147 0.011201768 0.051539883 -0.044094454
0.06446168 -0.054243173 -0.08883434 0.17672545 0.13636626 0.1448669 0.19611853 0.065355524
0.015476917 0.087153554 -0.101359636 0.17867038 -0.031702448 0.15709409 -0.07901196 -0.020283239
0.01994592 -0.15562354 0.13174729 0.1367417 0.07848042 0.17211144 0.16561425 -0.015554638
-0.09259865 0.1571274 0.18217355 -0.15334605 0.18262196 -0.17502142 0.1885034 0.016755847
0.14709406 -0.03396939 -0.17691635 0.10588734 0.058460735 0.08565244 -0.1335664 -0.17212655
-0.14356531 0.10718126 -0.061283305 0.1001715 -0.09633684 0.17690176 -0.09568675 -0.11672607
-0.1586873 -0.16511816 -0.03861214 -0.11454903 0.17463218 -0.10550403 0.15675761 0.025905466
0.062039215 -0.09187942 0.18389665 0.100306444 0.0019375453 -0.009109757 -0.13927954 -0.05246065
0.0002214824 0.14627962 -0.072378255 -0.1734577 -0.021039013 0.14491387 -0.16863193 0.08087262
0.059823573 0.036867596 0.12761971 0.0657734 -0.17887455 0.017331854 -0.018243229 0.12505698
00000000: b76d 0d3d 8428 75bd a216 003c 2d94 a23d
00000010: 8a95 0b3e 5d16 19bd 2ff5 84bd 8820 7a3d
00000020: 11bc dc3b 7590 fa3d 8107 03be 3d65 393e
00000030: 8bcc adbc b330 623d 4e70 393e 54ba 44be
00000040: 5a6b d03d 23a0 9bbd 5c94 1bbb a922 273d
00000050: c82e f7bd d498 b6bd 92d8 b0bd b83d 6e3d
00000060: f8a0 24be 48a6 a43d 8b0e 0fbe 4be5 39bd
00000070: a0cd 433e 3339 1dbc 7aad d13d 842b fdbd
00000080: 65d5 8bbd 3416 aabd aed0 eb3c dca4 c83d
00000090: 6d95 9ebd 9307 08be 90e2 d83d 6dc9 2a3e
000000a0: f517 443d 0ec4 82bd 2cb6 593d 12af 33be
000000b0: dbfa f0bd 7374 ea3d 0b8f 213e 2580 88bd
000000c0: 7413 9f3d 41ef 653d f136 30be 5dab 303e
000000d0: 0565 493e 15c1 a23d e2c3 e5bd 4308 12bd
000000e0: ff19 06be 3e40 fbbd 7cc7 e93b f41f 313e
000000f0: 4ed2 93bd 5fab fd3c ebff 22be 18f8 983d
00000100: 999b ddbc e15f fc3d 9e33 253d 08b0 ad3c
00000110: e3fe 81bd cf71 c5bd 4360 4b3d 4f8a 233e
00000120: 27e3 2a3c adbc 1fbd ad84 263d aed3 373d
00000130: 358c 60bc f2f0 95bb df95 e03b 578a c53c
00000140: 4aee 1dbe 3a25 4c3e 64e0 013e 2471 8f3d
00000150: 1865 ad3b 8cb5 00be b30e 833b d162 533d
00000160: 9f8c a03c c4ac 07be 389a a4bc 0cf6 203e
00000170: 9ef4 8b3d a999 33bd 1244 06be f53b 7abd
00000180: cb8b bf3c 906a 47bd cd22 babc 3ba3 4cb9
00000190: a681 abbc 576c b8bd 4b35 8e3d 360c 593c
000001a0: 5988 493d 37d8 c5bc 2c9d 5fbc 4829 80bb
000001b0: 9b89 17be 0316 58bd 0713 6cbc 296f 0a3e
000001c0: 4bf3 01be db38 363e 4536 8d3d d092 093e
000001d0: e37c 85bd eecf 5e3d 1a89 ca3d 9df1 77bb
000001e0: df71 e1bd 95a0 8bbd d5d5 613d f82c 723d
000001f0: 1dce c33d 1a0c 0c3e 50b6 9c3c 2efb 0c3d
00000200: e284 21be 37c5 bc3d bc56 1ebe 073f 283d
00000210: b949 65bd 399a 85bc 8041 50bb 4958 0cbe
00000220: a09d 21be de53 0a3e 4e71 d33d 7aae 19be
00000230: 42c3 253e 3ba9 0d3e 6d39 35be badb 9dbd
00000240: 3376 3f3e 31e6 14be 0804 25bd 9446 493e
00000250: 5c21 12be e183 033e 6dd6 323e 934f 213e
00000260: eb45 9b3d 8f5a 393e 1245 de3d 4a77 5bbd
00000270: 171c 2abe e2a1 b13d 02d7 3f3d 24d8 223e
00000280: e9d1 d73d 7910 a63d 9a58 c43d f38c a5bd
00000290: f470 8f3d 19a7 9ebc 75e9 5a3d 1a71 053e
000002a0: 6e33 65bd 83a6 a43c 842e 1cbb 9129 b03d
000002b0: 996b 843b 9f87 373c 7c1b 533d 639c 34bd
000002c0: 7c04 843d 172e 5ebd c7ee b5bd 84f7 343e
000002d0: 99a3 0b3e fd57 143e 4cd3 483e 1ed9 853d
000002e0: e592 7d3c 907d b23d a495 cfbd 5ef5 363e
000002f0: 6dda 01bd 46dd 203e 06d1 a1bd 0929 a6bc
00000300: a065 a33c c75b 1fbe c3e8 063e 0406 0c3e
00000310: 58ba a03d fb3d 303e c896 293e e1d8 7ebc
00000320: 5ca4 bdbd 01e6 203e b48b 3a3e bf06 1dbe
00000330: 4001 3b3e d138 33be 0907 413e 8f43 893c
00000340: d39f 163e 7d23 0bbd 8f29 35be 76db d83d
00000350: 8674 6f3d 8c6a af3d a1c5 08be f141 30be
00000360: c902 13be d981 db3d 3404 7bbd b726 cd3d
00000370: 404c c5bd bc25 353e 6af7 c3bd 140e efbd
00000380: ec7e 22be bc14 29be c327 1ebd af98 eabd
00000390: c7d2 323e 7f12 d8bd 1185 203e b337 d43c
000003a0: d51c 7e3d 472b bcbd 674f 3c3e 776d cd3d
000003b0: 3bf5 fd3a 1741 15bc 4c9f 0ebe fbe0 56bd
000003c0: bb3d 6839 53ca 153e 0d3b 94bd e59e 31be
000003d0: 025a acbc 4d64 143e d9ad 2cbe 8ba0 a53d
000003e0: 9009 753d 7a02 173d beae 023e 34b4 863d
000003f0: e42a 37be 88fb 8d3c d372 95bc f00e 003e

bias f4 [16]
0.09815021 0.16644529 0.12450074 -0.09642159 -0.11283674 0.1663373 -0.18585642 -0.17952661
0.16350365 0.12086424 -0.03418672 0.12753548 0.02649683 0.12704498 0.10265846 -0.040418487
00000000: fa02 c93d a270 2a3e 3efa fe3d af78 c5bd
00000010: f316 e7bd 5354 2a3e 2551 3ebe d3d5 37be
00000020: 806d 273e ac87 f73d 6007 0cbd a998 023e
00000030: e10f d93c 1418 023e 993e d23d db8d 25bd

weight f4 [16, 16, 3, 3]
0.009401158 0.022528037 0.011923212 -0.03998283 0.048877895 0.074053966 -0.021790052 0.02948975
0.025378304 0.021056382 0.07738321 0.036462117 0.056276355 0.01688413 -0.03849896 0.079909965
0.06640611 0.06403486 0.002809455 0.0069859135 0.00911653 -0.05127346 -0.10636057 -0.10313706
-0.04879723 -0.04908726 -0.111573584 -0.063302204 -0.059993554 -0.025676556 -0.04335665 -0.019262085
-0.0012308778 -0.033480406 -0.03518469 -0.037669018 -0.027740201 -0.052246157 0.056693405 0.0059788325
0.0051977877 0.052260406 0.034775797 0.018694803 -0.01725415 0.050645053 0.044931427 -0.03239547
0.086114384 0.050742336 -0.014792936 -0.025016354 -0.012667965 0.044640545 0.074743375 0.059837565
0.011005109 0.08086759 -0.06623928 0.0753394 0.042766493 0.066836566 0.033088583 -0.006247683
0.03518661 0.05859144 0.088641874 0.034703806 0.07913436 0.07453366 -0.024534658 0.00951316
0.012518904 -0.077847905 0.032275748 -0.06880897 0.015408032 -0.10300604 0.0142062865 0.029316617
-0.024721697 -0.0021504643 0.010991198 -0.025678117 0.0032123819 -0.105323344 -0.092213675 0.034681424
-0.09989393 -0.044167984 -0.06366889 0.036450114 0.0365439 -0.0013281811 -0.015357707 0.023471784
-0.03149791 -0.069718376 -0.05093807 0.031115593 -0.023045495 0.042723812 -0.047389228 -0.03216357
0.040320292 0.008203455 -0.07039347 0.039347626 0.014807261 0.059230052 0.04364887 0.0049638394
0.06575995 -0.017639661 0.06644206 0.018340945 0.042016737 -0.019130297 -0.028828932 0.017019724
-0.090395145 -0.05643069 -0.024643106 -0.04977885 -0.08543126 0.053144466 0.061651256 -0.023164961
-0.07639843 -0.07904784 0.050862826 0.0786884 -0.009723976 0.06035757 -0.066110924 -0.0001778496
0.0004239143 -0.0016755877 -6.44843e-05 0.0007516008 5.649418e-36 6.2413796e-15 7.744625e-29 6.754924e-06
0.0018353206 0.03704749 0.0062636854 -0.00010819249 0.047984153 -0.009030699 0.056286253 -0.009370408
-0.032290958 -0.030387852 -0.03906504 -0.011823242 -0.016546912 -0.0546019 -0.060326405 -0.046726305
0.018770017 -0.0018431991 0.047375813 -0.008948056 0.010399118 0.030306064 0.03853079 -0.012092006
0.030945495 0.030589556 0.031062366 -0.013751967 -0.018300638 -0.015950734 -0.022770772 -0.010842941
-0.001624385 0.009651959 0.017740076 0.008522931 0.08679911 0.053991433 0.054347187 0.07479838
0.053605124 0.0926229 0.052615333 0.051141564 0.044177566 -0.022122923 -0.020529557 -0.0141442185
-0.0436749 0.00036784032 0.011853381 -0.0103388745 0.07140551 0.019438367 0.00458314 0.03786113
0.002003599 -0.03383054 0.017085942 0.004489034 0.010855053 0.041261543 0.0230767 0.037261732
-0.004413807 0.0070669255 -0.015884994 0.04994738 0.03938593 0.037233368 0.025567185 0.0247736
-0.024534754 -0.006228145 -0.027035108 0.0047825654 -0.018248376 -0.03472587 -0.026463658 -0.022455955
-0.023569684 -0.014938779 0.009325284 -0.019253073 -0.022021549 -0.023288157 0.029933956 0.029327704
-0.008217001 -0.012600377 -0.01188582 0.043959275 -0.040474217 0.04336838 -0.02013282 0.013435699
0.073129535 0.008702928 0.055277225 -0.002912561 -0.043829873 0.039812926 -0.013577504 -0.058414638
-0.04090145 -0.03760511 0.0114381425 -0.019087188 0.018085707 0.036185667 0.013763077 0.016158743
00000000: 5107 1a3c b88c b83c 9359 433c 09c5 23bd
00000010: 3034 483d 9ba9 973d 0d81 b2bc 7d94 f13c
00000020: 29e6 cf3c 6f7e ac3c 177b 9e3d 4d59 153d
00000030: 0982 663d 9650 8a3c 16b1 1dbd d6a7 a33d
00000040: edff 873d b524 833d d51e 383b 17ea e43b
00000050: 805d 153c 1f04 52bd 92d3 d9bd 8639 d3bd
00000060: 9bdf 47bd b90f 49bd b180 e4bd 96a4 81bd
00000070: cdbb 75bd a457 d2bc be96 31bd 85cb 9dbc
00000080: 6855 a1ba c022 09bd d21d 10bd d44a 1abd
00000090: 6b3f e3bc 1100 56bd 5837 683d 15ea c33b
000000a0: 3452 aa3b 020f 563d 1171 0e3d d825 993c
000000b0: 9358 8dbc 3071 4f3d 040a 383d 1db1 04bd
000000c0: bd5c b03d 32d7 4f3d 125e 72bc 19ef ccbc
000000d0: 4c8d 4fbc 01d9 363d 0e13 993d 3c18 753d
000000e0: c64e 343c e89d a53d 76a8 87bd 8b4b 9a3d
000000f0: eb2b 2f3d 9ce1 883d e587 073d 5db9 ccbb
00000100: d61f 103d 94fd 6f3d df89 b53d 9425 0e3d
00000110: 3211 a23d 1ba5 983d e8fc c8bc 16dd 1b3c
00000120: 171c 4d3c b96e 9fbd 9333 043d b8eb 8cbd
00000130: f871 7c3c d5f4 d2bd 7cc1 683c 6729 f03c
00000140: 2885 cabc ceee 0cbb 6d14 343c ea5a d2bc
00000150: d386 523b c4b3 d7bd 86da bcbd 1c0e 0e3d
00000160: 3095 ccbd 7de9 34bd d664 82bd b74c 153d
00000170: 0eaf 153d 5d16 aeba e49e 7bbc e647 c03c
00000180: f403 01bd 82c8 8ebd 70a4 50bd 21e6 fe3c
00000190: e8c9 bcbc 2aff 2e3d 351b 42bd f3bd 03bd
000001a0: e426 253d c967 063c 742a 90bd fa2a 213d
000001b0: 279a 723c 369b 723d 28c9 323d b4a7 a23b
000001c0: 27ad 863d 0d81 90bc c612 883d c03f 963c
000001d0: be19 2c3d 24b7 9cbc a72a ecbc f36c 8b3c
000001e0: 1721 b9bd de23 67bd 57e0 c9bc e8e4 4bbd
000001f0: 96f6 aebd 03ae 593d 0786 7c3d 72c4 bdbc
00000200: c876 9cbd d5e3 a1bd 8a55 503d 6227 a13d
00000210: 5051 1fbc 8039 773d 2a65 87bd 237d 3ab9
00000220: d040 de39 659f dbba bf3b 87b8 1307 453a
00000230: b74c f004 91de e027 7d59 c410 5ba8 e236
00000240: 248f f03a 1cbf 173d 9a3f cd3b 67e5 e2b8
00000250: 088b 443d 7ff5 13bc 6a8c 663d 5786 19bc
00000260: 8643 04bd f2ef f8bc aa02 20bd 45b6 41bc
00000270: 648d 87bc 3ea6 5fbd d218 77bd 1564 3fbd
00000280: 94c3 993c 8097 f1ba 240d 423d de9a 12bc
00000290: 1061 2a3c 6c44 f83c 76d2 1d3d 8d1d 46bc
000002a0: 6881 fd3c f396 fa3c 8176 fe3c ee4f 61bc
000002b0: 38eb 95bc 1dab 82bc c589 babc 97a6 31bc
000002c0: 51e9 d4ba 4023 1e3c a353 913c c3a3 0b3c
000002d0: bbc3 b13d 1f26 5d3d 289b 5e3d e52f 993d
000002e0: 0c91 5b3d 13b1 bd3d 2d83 573d d179 513d
000002f0: 89f3 343d 223b b5bc 9a2d a8bc 27bd 67bc
00000300: 74e4 32bd b1da c039 af34 423c 6264 29bc
00000310: 0d3d 923d 363d 9f3c 2a2e 963b 4614 1b3d
00000320: d04e 033b e491 0abd d1f7 8b3c bf18 933b
00000330: 64d9 313c dd01 293d 590b bd3c c29f 183d
00000340: b2a1 90bb ab91 e73b 3f21 82bc a095 4c3d
00000350: 2453 213d 0482 183d 4672 d13c 01f2 ca3c
00000360: 1cfd c8bc 7815 ccbb bb78 ddbc 11b7 9c3b
00000370: 9e7d 95bc b73c 0ebd 50ca d8bc 8df5 b7bc
00000380: 3615 c1bc c8c1 74bc 13c9 183c 9fb8 9dbc
00000390: 8966 b4bc cec6 bebc 0e38 f53c a740 f03c
000003a0: 9aa0 06bc d071 4ebc bebc 42bc a40e 343d
000003b0: 4bc8 25bd 0ba3 313d 95ed a4bc 6821 5c3c
000003c0: f0c4 953d ba96 0e3c 5f6a 623d aae0 3ebb
000003d0: f486 33bd e112 233d 2e74 5ebc 3044 6fbd
000003e0: 4788 27bd d107 1abd 0c67 3b3c bc5c 9cbc
000003f0: 7a28 943c 6c37 143d 877e 613c 575f 843c

bias f4 [16]
-0.052820783 -0.01980226 -0.025134481 -0.00982989 -0.082719155 -0.044848636 -0.010084352 0.065255076
0.07353988 -0.010780924 -0.050305225 -0.06748936 0.029551499 -0.010743909 0.061411943 -0.0014866557
00000000: 9b5a 58bd 5938 a2bc d4e6 cdbc 8c0d 21bc
00000010: a968 a9bd 34b3 37bd d738 25bc 74a4 853d
00000020: 149c 963d 79a2 30bc da0c 4ebd dd37 8abd
00000030: fc15 f23c 3807 30bc 178b 7b3d e3db c2ba

weight f4 [32, 16, 3, 3]
0.013386227 -0.056491837 -0.02344453 -0.0120296925 -0.031206064 0.06392082 -0.005045971 -0.04061062
0.082120046 0.0039645643 0.00011369587 -0.016748842 0.02422234 -0.019504156 -0.018242242 0.007311565
0.02206265 -0.0015519497 0.08689955 0.079228714 -0.054437086 0.000390558 -0.0019508635 0.059214868
-0.03577465 0.05757956 0.038264733 -2.714383e-05 1.4163619e-06 -5.500133e-05 4.0192535e-10 -0.0006912316
2.3360047e-07 2.3589345e-07 8.0435666e-07 -2.790298e-06 0.017564205 -0.00036412192 -0.010908372 -0.02682035
-0.024845991 0.08481379 -0.0007165967 0.06711369 -0.041636154 -0.03373611 -0.06439122 0.043231893
0.05138843 -0.039573647 0.03766824 0.05443674 0.018514458 0.07369591 0.030548032 0.041697755
0.03084309 -0.0039724507 -0.022666736 -0.0034481888 0.027858691 0.029950125 0.00043169578 -0.0626533
0.009839183 -0.07197175 -0.015893774 -0.0038888135 0.05566669 -0.05744637 0.08807379 -0.06125574
-0.089320794 -0.022337804 -0.09215503 -0.092548266 -0.027370453 0.05814883 -0.009518188 0.01887307
-0.015789364 0.008682266 0.009372437 0.04430355 -0.011867535 0.0015347518 -0.028647877 0.0033257033
0.028505815 0.03741799 -0.0070891576 0.058950342 0.05898567 0.017742436 -0.047354057 0.05255761
-0.07341894 -0.023639696 0.04895289 -0.052604217 -0.031080307 -0.05916435 -0.026616218 0.062556565
0.032696012 0.04556591 0.01547338 -0.0067855306 -0.08580233 -0.07937822 -0.08092328 -0.048314136
0.06712805 0.0011965763 -0.055031445 0.02225993 -0.00723129 0.019276427 0.04332865 0.047410894
0.003015477 -0.06431496 0.01920939 0.02258475 0.012567079 0.03275364 -0.039262682 -0.070735864
0.021092676 -0.04472739 0.045371372 -0.071749836 -0.050376568 -0.0010485424 0.03329898 0.0009761766
-1.0126517e-05 9.8579905e-05 -0.0030462537 -1.0123947e-05 -7.29678e-07 -1.4451909e-05 -9.018892e-06 9.718722e-06
-0.003143688 0.071749195 0.031474356 -0.03363244 0.04804073 -0.045258302 0.03835872 -0.004289214
-0.08033874 0.03066131 -0.011375374 -0.028654376 0.0065715485 -0.024725435 -0.0008573291 -0.020661537
0.0015493808 -0.026842177 0.08005523 0.013838419 0.015785862 0.057467375 -0.032832358 0.012097367
-0.073112704 -0.059307195 -0.020603122 -0.00017249688 -0.000221879 -0.0001305848 8.2903745e-07 -0.0006646641
-5.896615e-06 9.121337e-07 -3.2942435e-08 -3.3179908e-06 0.059243932 -0.03237045 0.035522785 0.005015836
0.00799038 -0.06347255 0.017281184 -0.049157206 0.021742614 0.039776046 0.0061185695 0.0011285415
-0.011592515 0.053323667 -0.018067962 0.07729671 0.02966255 0.07446805 0.025135556 0.045584947
0.087765664 0.08155898 -0.0018130254 0.096972875 -0.031072624 0.016872473 -0.008937992 0.07900439
-0.06334667 0.0786749 0.07010017 0.033290558 -0.03706055 0.080415905 0.05646663 -0.060086727
-0.0145163555 0.03442891 0.09230459 0.046731062 -0.045625057 0.030228756 0.005211465 0.013778242
-0.003116795 0.055956382 0.08196823 0.08086434 0.033307545 -0.017295806 -0.014905675 -0.025711363
0.030172948 -0.007015802 -0.06126256 0.068803295 -0.06784235 0.020791536 -0.0015167849 0.04914508
0.032324687 0.083084054 0.07330337 0.00048603822 -0.0630937 0.049306214 -0.07122063 -0.07302206
-0.01862477 0.07016998 -0.03312997 -0.019202942 -0.04443603 0.08067272 -0.009282583 0.034657005
00000000: e851 5b3c fc63 67bd be0e c0bc 3018 45bc
00000010: dca3 ffbc ebe8 823d ac58 a5bb 5257 26bd
00000020: 8e2e a83d 2de9 813b 0170 ee38 de34 89bc
00000030: ee6d c63c 2ec7 9fbc c170 95bc da95 ef3b
00000040: bbbc b43c ca6a cbba 64f8 b13d aa42 a23d
00000050: 6cf9 5ebd cfc3 cc39 1eb4 ffba 4a8b 723d
00000060: 7088 12bd 8bd8 6b3d 7bbb 1c3d eeb2 e3b7
00000070: d319 be35 3ab1 66b8 f7f5 dc2f c433 35ba
00000080: 9cd3 7a34 e649 7d34 f8ea 5735 f440 3bb6
00000090: cfe2 8f3c 9ee7 beb9 07b9 32bc 5ab6 dbbc
000000a0: d289 cbbc dab2 ad3d fed9 3bba e772 893d
000000b0: ac8a 2abd e02e 0abd 8bdf 83bd ed13 313d
000000c0: ad7c 523d fa17 22bd 034a 1a3d 0ff9 5e3d
000000d0: a2ab 973c e2ed 963d de3f fa3c 44cb 2a3d
000000e0: a6aa fc3c 552b 82bb 97af b9bc 02fb 61bb
000000f0: e937 e43c f759 f53c 3a55 e239 6050 80bd
00000100: 8634 213c ed65 93bd a933 82bc 77db 7ebb
00000110: c102 643d e34c 6bbd 0860 b43d 4ce7 7abd
00000120: d2ed b6bd c5fd b6bc c7bb bcbd f289 bdbd
00000130: 0038 e0bc 782d 6e3d 2df2 1bbc b29b 9a3c
00000140: b258 81bc 1040 0e3c da8e 193c a477 353d
00000150: 0d70 42bc ba29 c93a f4ae eabc 0bf4 593b
00000160: 0785 e93c 9b43 193d 2a4c e8bb ea75 713d
00000170: f59a 713d 9658 913c 54f6 41bd a646 573d
00000180: ab5c 96bd 09a8 c1bc d382 483d 8577 57bd
00000190: 219c febc 5156 72bd 410a dabc a81d 803d
000001a0: 41ec 053d 52a3 3a3d 0f84 7d3c 2859 debb
000001b0: 22b9 afbd 0c91 a2bd 1bbb a5bd 0be5 45bd
000001c0: 6e7a 893d 70d6 9c3a a768 61bd 755a b63c
000001d0: 75f4 ecbb 99e9 9d3c 6279 313d ed31 423d
000001e0: 4f9f 453b 90b7 83bd 035d 9d3c a703 b93c
000001f0: 26e6 4d3c ae28 063d e8d1 20bd f7dd 90bd
00000200: 8cca ac3c 1134 37bd 55d7 393d 94f1 92bd
00000210: a957 4ebd 3f6f 89ba 8364 083d 1ae6 7f3a
00000220: 0fe5 29b7 afbc ce38 a8a3 47bb 05da 29b7
00000230: 17df 43b5 7a76 72b7 d94f 17b7 980d 2337
00000240: 5506 4ebb 3ef1 923d 41eb 003d 2bc2 09bd
00000250: 5bc6 443d c560 39bd 081e 1d3d 898c 8cbb
00000260: a388 a4bd 6d2d fb3c c75f 3abc 95bc eabc
00000270: 2556 d73b ff8c cabc 62be 60ba 6242 a9bc
00000280: 9814 cb3a 20e4 dbbc fff3 a33d 89ba 623c
00000290: 5a51 813c e962 6b3d 397b 06bd 0934 463c
000002a0: 1dbc 95bd 1aec 72bd e1c7 a8bc 47e0 34b9
000002b0: 31a8 68b9 97ed 08b9 058b 5e35 da3c 2eba
000002c0: 8adb c5b6 5ad9 7435 977c 0db3 a6aa 5eb6
000002d0: c4a9 723d e196 04bd 5780 113d e25b a43b
000002e0: 15ea 023c e5fd 81bd 4591 8d3c 1159 49bd
000002f0: 911d b23c 35ec 223d 487e c83b 92eb 933a
00000300: 88ee 3dbc eb69 5a3d 4303 94bc bd4d 9e3d
00000310: e0fe f23c b482 983d 15e9 cd3c 48b7 3a3d
00000320: 7cbe b33d 6508 a73d 0aa3 edba b799 c63d
00000330: 048c febc 2438 8a3c a870 12bc 0ecd a13d
00000340: e6bb 81bd 4e20 a13d ae90 8f3d ae5b 083d
00000350: cecc 17bd 18b1 a43d 8e49 673d 801d 76bd
00000360: 02d6 6dbc 5405 0d3d 300a bd3d 1269 3f3d
00000370: 57e1 3abd 4ca2 f73c f0c4 aa3b 23be 613c
00000380: 2543 4cbb 8532 653d f6de a73d 349c a53d
00000390: 7e6d 083d efaf 8dbc ef36 74bc a3a0 d2bc
000003a0: 422d f73c d0e4 e5bb 73ee 7abd bee8 8c3d
000003b0: eef0 8abd 0353 aa3c dbce c6ba 5a4c 493d
000003c0: e466 043d f927 aa3d 1420 963d f2d2 fe39
000003d0: 4537 81bd 50f5 493d 1fdc 91bd 978c 95bd
000003e0: f992 98bc 47b5 8f3d 4bb3 07bd 7d4f 9dbc
000003f0: 8e02 36bd bd37 a53d fa15 18bc 81f4 0d3d

bias f4 [32]
-0.015057518 -0.0055849026 0.04023691 0.0697558 -0.0051353113 0.016410407 0.045650512 -0.0731192
0.055884477 0.058840286 0.028030757 0.059864122 -0.082410865 0.07296295 0.039282266 -0.04664992
-0.049373735 0.02323701 -0.005847596 -0.01995462 -0.021481792 0.055042602 -0.05273231 0.032908853
-0.04051296 0.035543043 0.00759876 0.03856765 -0.075107865 0.083494835 0.052341215 0.055895038
00000000: cfb3 76bc 8f01 b7bb 75cf 243d 21dc 8e3d
00000010: 1d46 a8bb 1e6f 863c 08fc 3a3d 85bf 95bd
00000020: 1fe7 643d 8302 713d c2a0 e53c 1534 753d
00000030: 07c7 a8bd 996d 953d 71e6 203d fd13 3fbd
00000040: 1d3c 4abd 8b5b be3c 319d bfbb df77 a3bc
00000050: 95fa afbc 5a74 613d d6fd 57bd 6fcb 063d
00000060: ebf0 25bd 9595 113d 05ff f83b 1df9 1d3d
00000070: 27d2 99bd 57ff aa3d be63 563d 32f2 643d

weight f4 [32, 32, 3, 3]
0.059540186 0.034507997 -0.02171905 0.010212658 0.03549783 0.032341614 -0.032507483 0.033356335
-0.026343472 -0.010549028 -0.031182313 -0.012554921 0.006081199 0.0026488064 -0.049653992 -0.023448838
0.060472883 -0.021729687 -0.040699556 0.03438233 -0.059605848 -0.03865431 0.019435143 -0.018891335
0.049294773 -0.0063911476 0.01659977 -0.02675153 -0.05378904 0.028996378 0.021737756 -0.018881768
0.021441111 -0.05597872 0.002282291 0.017945586 -0.055008814 -0.0027942993 -0.010258006 -0.015914222
-0.056300823 0.037112996 -0.0052116723 -0.047749154 -0.026231589 -0.02675075 0.04094497 0.052939348
-0.0008968874 -0.00528241 0.03326306 0.03475883 0.0012915585 0.01758776 0.026243981 -0.0024770696
-0.018017652 0.023674477 -0.020659829 -0.037134588 0.0071046315 0.020370133 -0.0077265394 0.015296283
0.0386544 0.062235996 -0.026389578 0.0673124 0.05961091 -0.03732997 0.032222148 -0.032247517
-0.021111181 -0.024486283 0.07129865 0.051216766 0.069869645 0.06443864 -0.0012858524 -0.031013144
-0.044602253 0.024443783 0.038281225 0.028613219 0.02960779 0.0106799565 0.004086636 0.06435159
0.009527334 -0.016968112 0.04754339 -0.054503936 -0.055579912 0.019475067 0.049164042 -0.017492337
-0.048500698 -0.02721256 0.056139264 -0.038227115 0.02897898 -0.0635702 0.009416221 -0.002765456
-0.03560037 -0.0009513621 0.033807237 0.014142383 0.031298228 0.00857743 0.05500686 -0.023391904
-0.037203256 -0.006488448 0.058537148 -0.03024052 0.006616112 0.021800924 0.0010968344 0.024134332
-0.040497355 0.02591535 0.007799832 -0.012871226 -0.044486377 0.047781315 -0.014862012 -0.03136267
-0.01730853 0.018851122 0.051998083 -0.030972632 0.007397923 -0.0043050186 0.060791414 -0.017517516
-0.02489865 0.06312177 0.000420962 -0.038783293 0.010352313 -0.0101135615 -0.03810188 -0.021527931
-0.0058040745 0.024610417 0.050147697 0.06146234 0.03640939 -0.029769707 0.0114228055 -0.037401628
-0.034774233 -0.027733779 0.007280352 0.023418091 0.057400145 0.023885451 0.053223416 -0.0072112484
-0.005145683 -0.0068765148 0.022011913 -0.019352864 0.06993339 -0.0020611107 0.062227637 0.06565402
-0.04774221 0.02574609 0.013902173 0.056454644 -0.034988455 0.05881326 -0.030283794 -0.037429284
0.034831304 0.022282396 0.042500064 0.0458415 -0.030990984 -0.015414847 0.0066098385 0.045338813
-0.00078369124 0.036708716 0.061964717 0.0047454475 0.035047945 -0.051156912 -0.010417003 -0.068012044
0.018289117 -0.051947135 -0.040315002 0.021310987 -0.049208112 -0.0624119 -0.06836208 -0.017395051
0.003204224 0.022855261 -0.070994526 0.033313923 -0.029987102 -0.013036134 0.0005975484 -0.0101424055
0.012087574 0.06831823 0.025872152 -0.00576588 -0.008746378 0.02806898 0.038238656 0.016613994
-0.050680175 -0.060497902 -0.06310316 -0.021633247 -0.053439133 0.0013315504 -0.00020698372 0.025407113
-0.019212209 -0.014847419 -0.025303032 -0.009359874 -0.041052055 -0.027611407 0.032812502 -0.015860708
-0.023825277 -0.038454585 0.04513271 0.044132426 0.04598711 0.02540273 0.02920196 0.0026208586
0.019101819 0.036762495 -0.035641897 -0.034963753 -0.050653104 0.03319062 -0.058326047 0.0069128275
-0.009493003 0.039043617 -0.015146612 0.0156811 -0.02438129 -0.025999058 0.039018154 -0.00972257
00000000: 69e0 733d 4258 0d3d 26ec b1bc fe52 273c
00000010: 2c66 113d a478 043d 9126 05bd a7a0 083d
00000020: 44ce d7bc d5d5 2cbc 0d72 ffbc 28b3 4dbc
00000030: cb44 c73b 9997 2d3b fc61 4bbd c717 c0bc
00000040: 6ab2 773d 7502 b2bc 94b4 26bd 7cd4 0c3d
00000050: 4325 74bd fb53 1ebd 7336 9f3c 00c2 9abc
00000060: 51e9 493d d56c d1bb 3efc 873c 0626 dbbc
00000070: e551 5cbd d089 ed3c 6113 b23c f0ad 9abc
00000080: 45a5 af3c f149 65bd 7d92 153b 9f02 933c
00000090: ec50 61bd 9020 37bb 3211 28bc 8b5e 82bc
000000a0: b19b 66bd cc03 183d adc6 aabb 9e94 43bd
000000b0: a1e3 d6bc 6424 dbbc eab5 273d eed6 583d
000000c0: 181d 6bba 1118 adbb d93e 083d 465f 0e3d
000000d0: 8349 a93a 3514 903c 9efd d63c 5556 22bb
000000e0: c199 93bc faf0 c13c cd3e a9bc 701a 18bd
000000f0: f8cd e83b 44df a63c e92e fdbb 439d 7a3c
00000100: 1354 1e3d 2ceb 7e3d f52e d8bc 15db 893d
00000110: 922a 743d 50e7 18bd 5ffb 033d f915 04bd
00000120: 5bf1 acbc 7597 c8bc 0705 923d acc8 513d
00000130: d117 8f3d 68f8 833d 0c8a a8ba 470f febc
00000140: dab0 36bd 543e c83c c6cc 1c3d 4566 ea3c
00000150: 098c f23c fcfa 2e3c 30e9 853b c4ca 833d
00000160: 8918 1c3c b600 8bbc dcbc 423d 853f 5fbd
00000170: c3a7 63bd 2d8a 9f3c 3c60 493d 174c 8fbc
00000180: aba8 46bd e0ec debc 49f2 653d 0994 1cbd
00000190: 5365 ed3c 1831 82bd 7e46 1a3c a73c 35bb
000001a0: b2d1 11bd d464 79ba 7579 0a3d 74b5 673c
000001b0: 9232 003d 5988 0c3c e04e 613d 61a0 bfbc
000001c0: 7162 18bd 0c9d d4bb a6c4 6f3d f8ba f7bc
000001d0: f8cb d83b da97 b23c a8c3 8f3a 5db5 c53c
000001e0: 8ee0 25bd 6e4c d43c bc95 ff3b d6e1 52bc
000001f0: 5937 36bd 57b6 433d cc7f 73bc 2576 00bd
00000200: 9eca 8dbc ab6d 9a3c f1fb 543d 51ba fdbc
00000210: 476a f23b 1d11 8dbb 6b00 793d e580 8fbc
00000220: 41f8 cbbc fd45 813d 90b4 dc39 3bdb 1ebd
00000230: bf9c 293c 5ab3 25bc b810 1cbd 585b b0bc
00000240: 1b30 bebb c99b c93c ac67 4d3d efbf 7b3d
00000250: 0322 153d 9adf f3bc b826 3b3c 7332 19bd
00000260: 6d6f 0ebd f331 e3bc 0590 ee3b 4cd7 bf3c
00000270: 6a1c 6b3d 6cab c33c cc00 5a3d 564c ecbb
00000280: 1e9d a8bb 6354 e1bb 5452 b43c e689 9ebc
00000290: 3d39 8f3d b313 07bb 68e2 7e3d 9d75 863d
000002a0: 568d 43bd 77e9 d23c f1c5 633c fc3c 673d
000002b0: 0e50 0fbd 2ce6 703d b815 f8bc 734f 19bd
000002c0: 45ab 0e3d 9289 b63c 8c14 2e3d 4cc4 3b3d
000002d0: cee0 fdbc 8e8e 7cbc 5897 d83b 31b5 393d
000002e0: a170 4dba e15b 163d b7ce 7d3d b37f 9b3b
000002f0: 6f8e 0f3d e989 51bd 14ac 2abc e649 8bbd
00000300: 0fd3 953c 85c6 54bd 5821 25bd 6194 ae3c
00000310: 728e 49bd 9fa3 7fbd 6b01 8cbd 1180 8ebc
00000320: f5fd 513b f53a bb3c 9465 91bd 2e74 083d
00000330: 83a7 f5bc 8295 55bc cba4 1c3a 552c 26bc
00000340: f60a 463c 6eea 8b3d d6f1 d33c b5ef bcbb
00000350: f84c 0fbc ebf0 e53c 23a0 1c3d 121a 883c
00000360: 0496 4fbd a6cc 77bd 3b3c 81bd 3538 b1bc
00000370: fee2 5abd 6b87 ae3a c509 59b9 9422 d03c
00000380: ec62 9dbc 9742 73bc 4e48 cfbc 285a 19bc
00000390: 3326 28bd 5131 e2bc 6766 063d 51ee 81bc
000003a0: 3a2d c3bc 8e82 1dbd 14dd 383d 34c4 343d
000003b0: fb5c 3c3d 6319 d03c f338 ef3c b6c2 2b3b
000003c0: 6b7b 9c3c 4594 163d 3dfd 11bd 2736 0fbd
000003d0: a179 4fbd e3f2 073d 4be7 6ebd 0085 e23b
000003e0: 8a88 1bbc 33ec 1f3d 7f29 78bc a675 803c
000003f0: 45bb c7bc fafb d4bc 80d1 1f3d 6a4b 1fbc

bias f4 [32]
-0.054085646 -0.01843212 -0.020550549 0.00951843 0.042115692 -0.029598767 -0.009498975 0.03133779
-0.005890175 -0.022652652 0.032373887 -0.021618202 -0.05164908 -0.052593723 -0.013398191 -0.02257959
0.010055881 0.020598516 -0.01349056 -0.012096019 0.020259237 -0.04414667 -0.06306796 0.025844371
0.066881925 -0.031720858 -0.048008792 0.021555841 -0.048566934 0.0017271746 -0.00066615385 -0.019451927
00000000: e988 5dbd f5fe 96bc a059 a8bc 30f3 1b3c
00000010: 8181 2c3d 1d79 f2bc 97a1 1bbc 0e5c 003d
00000020: 5e02 c1bb 0e92 b9bc 7b9a 043d a818 b1bc
00000030: fc8d 53bd 846c 57bd 1684 5bbc d5f8 b8bc
00000040: 6cc1 243c 38be a83c 8307 5dbc 622e 46bc
00000050: b3f6 a53c 23d3 34bd c629 81bd 93b7 d33c
00000060: 64f9 883d bbed 01bd dea4 44bd e095 b03c
00000070: 1fee 46bd 5d62 e23a d4a0 2eba a659 9fbc

weight f4 [3, 8192]
-0.020762516 -0.00011368609 0.0060997386 0.010329501 0.012322555 0.011681432 0.02041391 0.013215747
-0.0018288747 -0.002961728 0.0013069718 0.01591434 0.0066897394 0.004827834 0.0065699695 -0.018225528
-0.012789688 -0.0063284733 0.0032426468 -0.0049981372 -0.004737103 0.008166026 0.005526508 0.007417967
0.008728651 -0.0035474384 -0.0024244906 0.011645499 -0.00045884418 -0.007824013 -0.004675867 -0.0017024734
-0.01366398 0.009533692 -0.014772697 -0.005700526 -0.008704668 -0.007073138 0.008409924 -0.005136434
0.008791655 0.0028954227 -0.00090850436 -0.0010761787 -0.0037518647 0.000379177 0.015156452 -8.149845e-05
-0.012267509 0.0036561694 -0.011614857 0.00045143475 -0.0014954994 -0.005500572 0.004145992 -0.0018326709
0.0014551978 0.015397608 0.009149642 0.010174241 0.0063043307 -0.008237391 0.0020726323 0.0037706625
-0.0127498675 -0.0024498247 -0.0070760734 -0.0061488915 -0.007004917 -0.0013690621 -0.017464595 -0.00047299606
0.004667738 0.0038922934 0.0002706477 -0.0059474926 0.0012289977 0.012169074 0.009805494 -0.0060330634
-0.010891745 -0.0023061812 0.004978229 0.004796932 0.00048052173 -0.0072793765 -0.01352942 -0.013267493
0.011632315 0.009189461 -0.008564425 -0.005390477 -0.0004230205 0.0067282026 -0.002685006 -0.0051307934
-0.005585809 -0.008369 -0.0021814667 -0.008816046 -0.0035240927 0.0057521868 -0.013289484 -0.0056948964
-0.01264247 -0.009985265 -0.018896967 -0.002581404 -0.004638185 -0.0022011322 0.0057564513 -0.0032680142
-0.017449409 -0.016073313 -0.0081135705 -0.009679018 -0.008738406 0.0076795015 -0.007538639 -0.016140725
-0.00437539 -0.0069997273 -0.0044008326 0.0019751345 0.011054823 0.0017114519 0.007531661 -0.0120675145
-0.014941797 -0.018361988 -0.011988265 0.0015859553 -0.015366232 -0.014207672 -0.009739032 -0.010853523
-0.007258565 -0.010772345 0.0034673563 0.009990982 0.010240895 0.003402039 0.011113529 0.0021827898
-0.0055309827 -0.016305303 -0.01145959 -0.005061603 -0.013012619 -0.0056623416 -0.022577744 -0.017405454
-0.012623812 -0.0075464444 -0.002801748 0.013437872 -0.00286484 -0.0036668319 0.000905399 0.004286391
-0.00547603 -0.0015918014 -0.0061807344 -0.008153511 -0.0139440745 -0.009772328 -0.002746616 -0.009197174
-0.010747934 -0.00035066597 -0.010715681 0.011964203 0.005521087 -0.00021871016 0.005792136 -0.027408797
-0.023734828 -0.008151725 -0.012680343 -0.012303486 0.0005975309 0.007956829 -0.0019264596 -0.004692219
-0.0028569088 0.008652418 -0.0023323009 0.0021807505 -0.0074094688 0.00780455 0.0060960264 -0.01734588
-0.021235 0.0038299456 -0.004160699 -0.01892481 0.0014412135 -0.008354584 0.0039066905 -0.0076800915
-0.00649478 0.013793105 0.0036546944 -0.0051817284 0.0017536127 0.0014193181 -0.00729303 -0.018482791
-0.002859187 0.0018110855 -0.017193094 -0.012621654 -0.00079106813 -0.006784234 0.007121668 0.010692511
-0.0073161726 0.007420102 0.012906884 -0.009824349 0.0010625524 0.0020566399 0.006700463 -0.019863876
-0.019002995 -0.0075545693 0.0052160937 -0.012853563 -0.009987586 -0.004401663 0.0015197454 -0.0028718149
-0.0026294591 0.00820401 0.0032799372 -0.003958997 -0.011409841 0.00082531944 -0.000560495 -0.024919925
-0.021335801 -0.008133294 -0.0133587625 0.0013387038 0.001091117 -0.003859875 0.0054548844 -0.0015580059
-0.0005915048 0.0033968592 -0.0026338326 0.011926593 0.0085188495 -0.007765908 0.00037144948 -0.024877362
00000000: 2716 aabc c16a eeb8 51e0 c73b 113d 293c
00000010: 8be4 493c 7a63 3f3c 123b a73c dc86 583c
00000020: dab6 efba 8d19 42bb b24e ab3a ca5e 823c
00000030: 9a35 db3b cf32 9e3b e648 d73b b44d 95bc
00000040: d78b 51bc 155f cfbb 9682 543b 6ac7 a3bb
00000050: b339 9bbb ccca 053c b617 b53b 6b12 f33b
00000060: 9e02 0f3c 247c 68bb 34e4 1ebb c3cc 3e3c
00000070: 0691 f0b9 4a30 00bc 0438 99bb 8725 dfba
00000080: e3de 5fbc 3433 1c3c 2f09 72bc 7acb babb
00000090: 069e 0ebc c8c5 e7bb c7c9 093c 884f a8bb
000000a0: e00a 103c 22c1 3d3b b228 6eba 910e 8dba
000000b0: d8e1 75bb 47cc c639 c452 783c 26ea aab8
000000c0: a9fd 48bc 589c 6f3b 3e4c 3ebc 8cae ec39
000000d0: a204 c4ba 243e b4bb 1adb 873b 3b36 f0ba
000000e0: 56bc be3a 4046 7c3c 61e8 153c dcb1 263c
000000f0: 8f94 ce3b 1ff6 06bc 00d5 073b 381d 773b
00000100: d2e4 50bc 3d8d 20bb 68de e7bb a47c c9bb
00000110: 8189 e5bb 1a72 b3ba e911 8fbc 75fc f7b9
00000120: d3f3 983b d915 7f3b b8e5 8d39 2fe3 c2bb
00000130: 5216 a13a cc60 473c 39a7 203c 01b1 c5bb
00000140: 4a73 32bc 4d23 17bb 6920 a33b 952f 9d3b
00000150: 89ee fb39 d687 eebb 80aa 5dbc e65f 59bc
00000160: 7795 3e3c 658f 163c cd51 0cbc 99a2 b0bb
00000170: dac8 ddb9 4178 dc3b edf6 2fbb 3720 a8bb
00000180: 2909 b7bb 211e 09bc f0f6 0ebb 2d71 10bc
00000190: 77f4 66bb d77c bc3b 23bc 59bc 419c babb
000001a0: 5d22 4fbc 3d99 23bc d0cd 9abc c62c 29bb
000001b0: eafb 97bb df40 10bb 9da0 bc3b 2e2c 56bb
000001c0: 10f2 8ebc 2eac 83bc c8ee 04bc be94 1ebc
000001d0: 882b 0fbc 54a4 fb3b b006 f7bb 8e39 84bc
000001e0: 6e5f 8fbb f85d e5bb dc34 90bb 4271 013b
000001f0: 4a1f 353c cc52 e03a 27cc f63b d3b6 45bc
00000200: 70ce 74bc e16b 96bc 6e6a 44bc d4df cf3a
00000210: a6c2 7bbc 4cc7 68bc 7690 1fbc fad2 31bc
00000220: 42d9 edbb 7d7e 30bc 963c 633b 37b1 233c
00000230: 6dc9 273c bef4 5e3b 8515 363c 230d 0f3b
00000240: 3f3d b5bb b392 85bc 01c1 3bbc cedb a5bb
00000250: e132 55bc 2a8b b9bb f6f4 b8bc e295 8ebc
00000260: 1bd4 4ebc 2a48 f7bb 889d 37bb 852a 5c3c
00000270: 0ac0 3bbb 3b4f 70bb 4c58 6d3a db74 8c3b
00000280: 4570 b3bb fea3 d0ba c287 cabb 4e96 05bc
00000290: b075 64bc 1d1c 20bc 9200 34bb beaf 16bc
000002a0: 1a18 30bc 97d9 b7b9 d390 2fbc 8105 443c
000002b0: 3cea b43b 9055 65b9 f5cb bd3b 6a88 e0bc
000002c0: 8b6f c2bc d08e 05bc 37c1 4fbc 8f94 49bc
000002d0: 9fa3 1c3a 5c5d 023c 4281 fcba 30c1 99bb
000002e0: fa3a 3bbb dfc2 0d3c 84d9 18bb ecea 0e3b
000002f0: 21cb f2bb 50bd ff3b 2dc1 c73b f218 8ebc
00000300: 06f5 adbc d3ff 7a3b 7956 88bb 3408 9bbc
00000310: 1ae7 bc3a aae1 08bc b203 803b 47a9 fbbb
00000320: 2ad2 d4bb 7afc 613c 9983 6f3b 7dcb a9bb
00000330: 7ad9 e53a 6a08 ba3a 5ffa eebb 3969 97bc
00000340: 3361 3bbb f261 ed3a 88d8 8cbc 0ecb 4ebc
00000350: af5f 4fba 484e debb e25c e93b a42f 2f3c
00000360: 81bc efbb 5424 f33b 6577 533c 4ef6 20bc
00000370: 5845 8b3a b1c8 063b 8f8f db3b 91b9 a2bc
00000380: 2bac 9bbc 528c f7bb c4eb aa3b c097 52bc
00000390: f9a2 23bc d33b 90bb 3232 c73a 0f35 3cbb
000003a0: 0153 2cbb 1d6a 063c 37f4 563b 79ba 81bb
000003b0: 57f0 3abc 405a 583a 2fee 12ba df24 ccbc
000003c0: 6bc8 aebc 8241 05bc b6de 5abc 7277 af3a
000003d0: d003 8f3a f5f5 7cbb e3be b23b 0136 ccba
000003e0: 370f 1bba d79d 5e3b 619c 2cbb c267 433c
000003f0: a592 0b3c 2879 febb 1bbf c239 9ccb cbbc

bias f4 [3]
0.0019371337 -0.012484292 0.013211724
00000000: 6ce7 fd3a ea8a 4cbc fd75 583c
