Neural_network_Projects/plant_disease_recognition/recognize_disease_25_12.pt (torch, 171224 bytes, 10 tensors)

weight f4 [16, 3, 3, 3]
-0.05172981 -0.17154108 0.1069934 0.008846426 -0.097838655 -0.043674435 0.12002285 -0.068099335
-0.124001704 -0.091061175 0.18124536 0.052768752 -0.081488565 0.16857304 -0.16306181 -0.17547712
0.16828544 0.055054992 -0.02452423 -0.16022596 0.13061129 0.0077401483 0.17718089 0.0059198583
0.15918876 -0.14384459 0.10690195 -0.048462078 0.04200865 0.047375992 0.0658179 -0.06696922
-0.110173754 0.18892385 0.08429112 -0.10091011 0.16963907 0.17419113 0.11777396 0.18530396
0.17542496 0.027923923 0.17027053 0.17325595 -0.11728686 -0.1594462 -0.08868358 -0.07982875
0.038950052 0.005104829 -0.14347374 0.15406314 0.028250672 -0.13675174 -0.0060683656 -0.004803932
-0.09161502 -0.03540372 0.109415755 -0.17141348 0.028182972 0.090145916 -0.0018848112 0.07918407
-0.09912895 -0.106797405 -0.15618977 0.15546763 0.0337801 0.09659257 0.052864313 -0.00034792064
0.07077882 -0.004329996 0.016097372 0.062797226 -0.105983965 -0.12818833 0.08055568 -0.034929466
0.15239349 0.087553695 -0.07085938 0.15636344 -0.1880369 0.11138004 -0.0838737 0.01938346
-0.087260924 0.1925213 -0.1223418 -0.014170798 0.12827116 0.18510877 0.1766156 -0.056211412
-0.16616584 0.12877399 0.04267197 0.06362978 0.09905744 -0.1579139 -0.1585921 0.009853881
0.0039544413 -0.025806472 -0.096105896 0.12189697 0.14625716 -0.1102578 0.1510974 0.16695881
0.13775824 0.18743916 0.11488266 0.15216984 -0.00060668885 -0.0010549712 -0.1536979 -0.09023465
-0.009858307 0.109791495 -0.07653015 -0.09874181 -0.14337002 0.09889562 0.18229108 0.18877952
0.025357988 0.08541981 -0.083433814 -0.15347399 0.085207015 0.06981005 0.10405732 -0.1546085
-0.18241705 0.16482429 0.019629326 -0.11747976 0.18151301 -0.15594882 0.14062178 0.11058197
-0.10511451 0.07880916 -0.15803787 -0.16620275 0.020724015 0.03275889 -0.006656242 -0.033440355
0.15916483 0.055711154 -0.14663851 -0.108478904 0.17560908 0.087328754 0.1001533 -0.06192266
0.13967434 -0.08059071 -0.018294925 0.0112292105 -0.043008916 -0.15697895 0.0996068 0.14529426
-0.18862502 -0.059094522 0.15373796 0.16496988 0.15083882 0.021914788 -0.12981114 -0.0048574177
0.10657153 0.07898184 0.1325577 -0.004807792 -0.08290004 -0.17397648 -0.113515414 0.084844366
0.018436195 -0.04514431 0.020449203 -0.1223398 -0.056319352 0.15591297 0.17535868 5.0335548e-05
0.05335699 0.16572301 0.07136941 -0.06637998 -0.028633535 0.10279884 -0.17442004 0.098840564
-0.029476075 -0.13055977 0.10394973 -0.0463291 0.12197593 0.13685714 0.044353396 -0.114134625
0.11622003 -0.057465114 0.036222402 0.1426185 -0.048960544 0.04712972 0.053973302 -0.064072
-0.12647453 -0.121707015 -0.014203313 -0.073729225 -0.10989304 -0.005224629 0.03788188 -0.16082902
0.04396981 -0.02484794 0.089698665 -0.0331086 0.07421575 0.017236868 -0.16188166 -0.08306102
0.12991594 0.14903641 0.025796557 -0.09536722 -0.08157079 -0.05406601 -0.13480599 -0.056849148
-0.1728824 -0.13469057 0.005838703 -0.18666388 0.0016948624 0.055402424 -0.17549714 0.09672443
-0.12366981 -0.020483943 0.018502826 -0.011140102 0.072906926 0.15242852 0.009586769 -0.05307292
00000000: a3e2 53bd 77a8 2fbe 5b1f db3d 9af0 103c
00000010: a25f c8bd f7e3 32bd 8ace f53d aa77 8bbd
00000020: 9bf4 fdbd 487e babd 6298 393e 0c24 583d
00000030: 7ae3 a6bd 699e 2c3e adf9 26be 46b0 33be
00000040: 0553 2c3e 5881 613d 0ae7 c8bc 4612 24be
00000050: f7be 053e 12a1 fd3b e86e 353e 5ffb c13b
00000060: 6102 233e ff4b 13be 69ef da3d 2c80 46bd
00000070: 4311 2c3d 540d 423d 89cb 863d 2927 89bd
00000080: c7a2 e1bd 4175 413e d3a0 ac3d f6a9 cebd
00000090: ddb5 2d3e 295f 323e 7933 f13d 52c0 3d3e
000000a0: 9aa2 333e b6c0 e43c 665b 2e3e 026a 313e
000000b0: 1834 f0bd dd45 23be bd9f b5bd 417d a3bd
000000c0: 178a 1f3d 6946 a73b c8ea 12be bac2 1d3e
000000d0: f46d e73c a608 0cbe 24d9 c6bb 4d6a 9dbb
000000e0: a8a0 bbbd 7e03 11bd 5e15 e03d 0487 2fbe
000000f0: fadf e63c 6c9e b83d c50b f7ba 422b a23d
00000100: 1e04 cbbd 99b8 dabd 36f0 1fbe e832 1f3e
00000110: 015d 0a3d 53d2 c53d 4088 583d 1e69 b6b9
00000120: 7cf4 903d a4e2 8dbb a3de 833c d59b 803d
00000130: 1f0e d9bd cd43 03be 60fa a43d 3312 0fbd
00000140: 0a0d 1c3e 5a4f b33d b91e 91bd bd1d 203e
00000150: bf8c 40be 381b e43d f9c5 abbd 10ca 9e3c
00000160: dbb5 b2bd 4e24 453e 568e fabd a22c 68bc
00000170: 8459 033e 278d 3d3e b8da 343e f03d 66bd
00000180: 6127 2abe 54dd 033e cec8 2e3d 5550 823d
00000190: a1de ca3d 2eb4 21be f865 22be 2c72 213c
000001a0: 4294 813b 1868 d3bc 2bd3 c4bd 1ea5 f93d
000001b0: 70c4 153e d7ce e1bd 47b9 1a3e 40f7 2a3e
000001c0: 7f10 0d3e 0df0 3f3e 9a47 eb3d 69d2 1b3e
000001d0: 330a 1fba f646 8aba fb62 1dbe f2cc b8bd
000001e0: bd84 21bc 5dda e03d d7bb 9cbd 2539 cabd
000001f0: 97cf 12be c989 ca3d 83aa 3a3e 6b4f 413e
00000200: 8ebb cf3c 95f0 ae3d 59df aabd 4928 1dbe
00000210: 0481 ae3d 92f8 8e3d 011c d53d b151 1ebe
00000220: 89cb 3abe b3c7 283e aecd a03c 3a99 f0bd
00000230: 8cde 393e 0cb1 1fbe 28ff 0f3e cd78 e23d
00000240: 4746 d7bd b266 a13d aed4 21be 0e31 2abe
00000250: 69c5 a93c 302e 063d 9b1c dabb c1f8 08bd
00000260: 1bfc 223e 6131 643d 6828 16be 302a debd
00000270: ded2 333e 6bd9 b23d 2c1d cd3d 9da2 7dbd
00000280: ca06 0f3e be0c a5bd 3ddf 95bc b9fa 373c
00000290: 1e2a 30bd 17bf 20be a6fe cb3d 05c8 143e
000002a0: eb26 41be 190d 72bd 7c6d 1d3e dded 283e
000002b0: 7e75 1a3e a486 b33c 36ed 04be f92a 9fbb
000002c0: 2d42 da3d 3bc1 a13d 35bd 073e af8a 9dbb
000002d0: 7fc7 a9bd e426 32be c57a e8bd e2c2 ad3d
000002e0: 8107 973c 3de9 38bd 1685 a73c 4a8d fabd
000002f0: 1faf 66bd a6a7 1f3e 3a91 333e 621f 5338
00000300: dc8c 5a3d 4bb3 293e 202a 923d 3af2 87bd
00000310: e090 eabc 3388 d23d 2b9b 32be ec6c ca3d
00000320: cf77 f1bc 76b1 05be 99e3 d43d 95c3 3dbd
00000330: 84ce f93d 4724 0c3e e8ab 353d 6abf e9bd
00000340: c404 ee3d 8a60 6bbd f15d 143d 960a 123e
00000350: da8a 48bd 180b 413d 1c13 5d3d 2e38 83bd
00000360: 8a82 01be 8741 f9bd 03b5 68bc 59ff 96bd
00000370: 9a0f e1bd 5d33 abbb 082a 1b3d 5db0 24be
00000380: b019 343d e88d cbbc efb3 b73d e29c 07bd
00000390: 6dfe 973d 5534 8d3c 4ec4 25be e51b aabd
000003a0: af08 053e 009d 183e 4d53 d33c e44f c3bd
000003b0: 960e a7bd 5274 5dbd 950a 0abe a7da 68bd
000003c0: 1508 31be 53ec 09be 9752 bf3b d124 3fbe
000003d0: 2526 de3a a7ed 623d 86b5 33be 7517 c63d
000003e0: 9946 fdbd f1cd a7bc 3d93 973c f984 36bc
000003f0: 3a50 953d 3916 1c3e d311 1d3c fd62 59bd

bias f4 [16]
-0.019112127 0.06605216 -0.023532795 0.15023287 -0.080423206 -0.16024056 0.15457883 0.1926446
-0.012350735 -0.025718832 0.04389376 -0.02497133 0.07622302 -0.103715315 -0.10980243 0.09626994
00000000: 0991 9cbc 5b46 873d d9c7 c0bc a5d6 193e
00000010: ecb4 a4bd 1a16 24be ea49 1e3e a044 453e
00000020: bd5a 4abc 4db0 d2bc f1c9 333d ad90 ccbc
00000030: d11a 9c3d b268 d4bd 19e0 e0bd 2d29 c53d

weight f4 [16, 16, 3, 3]
0.05770659 0.07669175 -0.05713502 -0.077225015 0.011388707 -0.007241974 -0.03662932 0.054668374
0.054271523 0.024781488 -0.0034176086 -0.08060501 0.022692787 -0.0039192825 -0.0055947993 -0.017596867
0.018635707 -0.069158584 -0.0138418395 -0.069200195 0.011233951 0.051649492 -0.022925057 0.03310709
-0.008614674 0.04123655 -0.013998899 0.08092559 0.040753167 0.028263023 0.07986465 0.034845572
0.07245324 -0.04353744 0.01320539 0.053547066 0.06448515 0.042264145 0.026272845 0.021410458
-0.050963532 0.06624851 -0.048640605 0.040291786 -0.051493675 0.07458029 0.008569711 -0.016059296
-0.038103294 0.007825231 -0.03611227 0.039475873 -0.025866639 -0.035953797 0.070939854 0.03333251
0.06652011 0.04817894 -0.04966516 -0.025122952 0.06740313 -0.013060503 -0.047681276 0.0025777023
0.07057263 -0.045372475 0.02169694 -0.02066463 -0.026846861 0.06304336 0.06822456 0.034216303
-0.06358359 -0.024279984 0.055727474 -0.03966148 -0.039306626 -0.034219664 -0.031902216 0.07684198
0.05517 -0.023041409 -0.075099036 -0.0029416538 0.011539275 -0.06341554 -0.06354966 -0.0071044993
0.045189857 0.01835057 0.038163837 0.007361951 -0.0024955005 -0.045658197 0.00043368016 -0.064701155
-0.041839726 0.035169024 -0.07878612 0.057149064 0.0002074173 -0.04774307 0.02869296 -0.05667477
0.03250675 -0.016573168 -0.040543992 -0.04813547 -0.022317288 0.058968935 0.043880437 0.006049497
0.036896367 0.04542142 -0.05332576 0.07680887 -0.068578444 0.047652 -0.043547224 -0.059406366
-0.04920124 -0.021051431 -0.025960332 -0.0043834974 -0.06864594 -0.05752254 0.07514906 -0.0399736
-0.0018271707 -0.00025224936 -0.00014110343 0.00874693 -0.058008637 0.05455109 0.011759954 -0.013208386
-0.0739663 -0.0767077 -0.049896203 0.048772972 -0.05479695 -0.058501355 0.07564255 0.0644714
0.040886782 0.05445626 -0.039718177 0.033364106 0.07185812 0.00092461094 -0.038813245 -0.008594567
-0.0030995943 -0.054927286 -0.031134814 -0.06442591 0.046054017 0.022978308 0.005655327 -0.063231684
0.07319732 0.029789297 0.02743922 0.01884845 0.0050732736 -0.0051071285 0.06249345 0.027292565
0.06188451 -0.075500675 0.07757429 0.049936526 -0.011861725 0.052153394 0.023508605 0.06596589
-0.03194997 0.05928655 0.012228783 0.080471076 -0.016774192 0.04696265 0.064417586 0.049761396
-0.040756218 -0.025907353 -0.04791886 0.010635747 0.0010567696 -0.025860103 0.04777358 -0.03553791
0.07367614 -0.03760702 -0.06296164 -0.0065296963 0.039354738 0.057610463 -0.06313784 0.060797468
-0.07316298 -0.072954275 0.053536832 0.004707228 0.06471323 0.07078948 0.017203836 -0.0061847554
0.002021079 -0.05363178 -0.018228114 0.07626207 0.02659398 -0.0064728237 0.034417573 0.05768171
-0.060538676 0.02634905 -0.043065187 0.07362438 0.0016064486 3.6976307e-05 0.049267463 -0.0001896778
0.04970306 -0.00048738104 0.07988914 0.0011737923 -0.01110938 -0.050040264 -0.022298887 -0.03875586
0.013633664 -0.07931681 0.0050133904 0.02459955 0.07259951 0.05015082 0.07956772 -0.0076635065
-0.014338825 0.044753972 0.08078451 -0.0627696 -0.05941548 0.037907235 0.06143837 0.06589933
0.069245815 -0.044265643 -0.07050256 0.081066005 -0.0676152 0.07711083 -0.0013433789 -0.06999386
00000000: bf5d 6c3d 9010 9d3d 6906 6abd 2628 9ebd
00000010: b397 3a3c 154e edbb a008 16bd f2eb 5f3d
00000020: d14b 5e3d 8c02 cb3c f5f9 5fbb 3d14 a5bd
00000030: 39e6 b93c 536d 80bb 9454 b7bb 4e27 90bc
00000040: e9a9 983c 04a3 8dbd e2c8 62bc d5b8 8dbd
00000050: 9b0e 383c 6b8e 533d 54cd bbbc 4d9b 073d
00000060: 9024 0dbc a8e7 283d a35b 65bc 51bc a53d
00000070: cbec 263d db87 e73c 1490 a33d 3bba 0e3d
00000080: 5d62 943d 5154 32bd 6c5b 583c 2b54 5b3d
00000090: ca10 843d 2b1d 2d3d 263a d73c fc64 af3c
000000a0: 23bf 50bd 4cad 873d 5f3b 47bd 0009 253d
000000b0: 08eb 52bd 8dbd 983d f967 0c3c c98e 83bc
000000c0: 3312 1cbd 6635 003c 76ea 13bd 74b1 213d
000000d0: 46e6 d3bc 4a44 13bd ea48 913d ac87 083d
000000e0: b23b 883d 4857 453d b26d 4bbd a6ce cdbc
000000f0: a70a 8a3d b8fb 55bc 714d 43bd abee 283b
00000100: 6288 903d 7dd8 39bd c8bd b13c df48 a9bc
00000110: f3ed dbbc e11c 813d 51b9 8b3d 6526 0c3d
00000120: 1d38 82bd d1e6 c6bc 7e42 643d 1374 22bd
00000130: fcff 20bd eb29 0cbd e6ab 02bd 545f 9d3d
00000140: f0f9 613d 56c1 bcbc 86cd 99bd c3c8 40bb
00000150: 3a0f 3d3c 02e0 81bd 5326 82bd dccc e8bb
00000160: 0019 393d ef53 963c af51 1c3d 853c f13b
00000170: 8d8b 23bb 1704 3bbd 915f e339 0a82 84bd
00000180: 2260 2bbd 650d 103d 9e5a a1bd 2315 6a3d
00000190: 287e 5939 3d8e 43bd 800d eb3c ce23 68bd
000001a0: cc25 053d 74c4 87bc 7511 26bd b329 45bd
000001b0: bfd2 b6bc 6989 713d f9bb 333d dc3a c63b
000001c0: a520 173d d00b 3a3d 1d6c 5abd f84d 9d3d
000001d0: db72 8cbd be2e 433d 935e 32bd 1754 73bd
000001e0: 3d87 49bd 0d74 acbc c3aa d4bc 71a3 8fbb
000001f0: 3e96 8cbd c19c 6bbd c0e7 993d 5cbb 23bd
00000200: ad7d efba 5640 84b9 2af5 13b9 494f 0f3c
00000210: 779a 6dbd f770 5f3d d2ac 403c fc67 58bc
00000220: a57b 97bd ed18 9dbd f65f 4cbd 2bc6 473d
00000230: c472 60bd 1e9f 6fbd 7bea 9a3d 9509 843d
00000240: e678 273d 870d 5f3d 87af 22bd cda8 083d
00000250: 5a2a 933d 9761 723a a3fa 1ebd 3ad0 0cbc
00000260: 9022 4bbb 6ffb 60bd 700e ffbc bbf1 83bd
00000270: 23a3 3c3d 013d bc3c 5250 b93b 9d7f 81bd
00000280: 7ae8 953d af08 f43c 37c8 e03c 1168 9a3c
00000290: b43d a63b b359 a7bb 22f9 7f3d a894 df3c
000002a0: 9d7a 7d3d 19a0 9abd 45df 9e3d 3e8a 4c3d
000002b0: ae57 42bc cc9e 553d 1e95 c03c 2019 873d
000002c0: f9dd 02bd 74d6 723d 3c5b 483c 05ce a43d
000002d0: 086a 89bc e85b 403d 5eed 833d 9bd2 4b3d
000002e0: feef 26bd a83b d4bc 9146 44bd 8e41 2e3c
000002f0: 4e83 8a3a 91d8 d3bc 3bae 433d 3390 11bd
00000300: 84e3 963d d209 1abd 08f2 80bd 10f7 d5bb
00000310: 6f32 213d f3f8 6b3d 694e 81bd c406 793d
00000320: 79d6 95bd 0d69 95bd 7049 5b3d 173f 9a3b
00000330: 5f88 843d 13fa 903d 0fef 8c3c 7da9 cabb
00000340: 1474 043b ffac 5bbd 2053 95bc 4a2f 9c3d
00000350: 9edb d93c fb19 d4bb 71f9 0c3d a843 6c3d
00000360: 67f7 77bd f7d9 d73c 1f65 30bd 61c8 963d
00000370: 788f d23a 0217 1b38 aecc 493d 3fe4 46b9
00000380: 7095 4b3d 2d87 ffb9 eb9c a33d efd9 993a
00000390: 1e04 36bc 05f7 4cbd 28ac b6bc 77be 1ebd
000003a0: bb5f 5f3c da70 a2bd 5e47 a43b ff84 c93c
000003b0: 0daf 943d f26a 4d3d 67f4 a23d 271e fbbb
000003c0: 64ed 6abc f14f 373d 5972 a53d 598d 80bd
000003d0: a55d 73bd 9e44 1b3d cda6 7b3d 3af6 863d
000003e0: c0d0 8d3d e44f 35bd a563 90bd ef05 a63d
000003f0: d779 8abd 48ec 9d3d 5114 b0ba f158 8fbd

bias f4 [16]
0.0068536797 0.016779717 0.050534245 0.048619084 0.0006093978 -0.025802577 -0.07525688 -0.06651372
0.052160796 0.048789665 0.014222127 0.006122181 -0.0066351774 -0.072562695 -0.035832934 -0.06450615
00000000: d594 e03b 9e75 893c fffc 4e3d ce24 473d
00000010: febf 1f3a ed5f d3bc 4720 9abd 5838 88bd
00000020: 8fa6 553d acd7 473d ed03 693c 949c c83b
00000030: e76b d9bb c09b 94bd 8ec5 12bd cd1b 84bd

weight f4 [32, 16, 3, 3]
-0.047888167 -0.038357347 -0.0023699356 -0.0059832805 -0.06390358 0.015859177 0.03545737 0.01426724
0.05799214 0.06771576 -0.052512065 -0.0032480492 -0.04360824 0.030694637 0.058733683 0.070108354
0.075738385 0.08152347 0.033986915 -0.03351432 0.047489535 0.0033935208 -0.07435705 -0.062122792
-0.07256642 0.010083818 -0.053318523 -0.011042363 0.05558416 0.0037265662 -0.046745352 -0.076038264
0.054219984 -0.010482594 0.05881035 -0.036564376 0.06436997 0.029094918 -0.04668321 0.013696919
0.011929355 0.018648084 0.047974158 0.014996288 0.06516682 -0.012768908 0.08185406 0.041175306
-0.04297774 -0.005393529 0.06685086 0.06371499 0.005203896 0.07762804 -0.064154014 -0.03352881
0.052917283 0.024895292 -0.06487211 -0.052562498 -0.017900037 -0.06658057 -0.05743138 0.050487384
-0.036959074 0.0338833 -0.074548826 0.019520646 0.053212993 -0.03154574 -0.06360469 -0.06911544
-0.016633153 -0.044504605 0.079699144 0.05738526 -0.008881615 0.030155309 0.06470907 -0.015248648
0.011216229 0.083858155 -0.0143731 0.07337326 0.057952426 0.02678489 -0.03122248 0.07908418
-0.032968935 0.04647522 0.03079035 -0.05669031 0.06818562 -0.06754158 -0.07261244 0.0037625078
-0.01171351 0.08270116 0.025508199 -0.037672516 -0.01153848 -0.007305745 0.04779076 -0.062608905
0.02687494 -0.008587665 0.08085633 0.035499237 -0.07944707 -0.031077674 -0.02117452 0.0048153545
-0.013931193 0.054089513 -0.06992934 0.040420413 -0.014156877 -0.008578164 -0.07670668 0.0035845318
-0.05086639 -0.0166678 0.023624541 0.014935417 -0.06285914 -0.048216727 0.07001749 0.023082739
0.058002062 -0.078442186 0.011024681 0.03919956 2.9137078e-05 -0.06264533 0.031994887 -0.048844423
-0.07520637 0.06838702 0.060806755 0.05696229 0.025167126 -0.07390934 -0.06498407 0.051506028
-0.08097218 0.042902976 0.03414782 -0.048213482 0.016541438 -0.024360554 -0.08249479 -0.018464636
0.012906933 -0.07716528 -0.04529897 0.07528307 -0.074483775 0.040536366 0.01722946 -0.061586775
0.042772133 0.019339316 -0.055126015 -0.04958669 0.027908096 -0.026519625 0.021589532 0.0029248975
0.027716132 0.07534377 0.060679186 -0.03956403 0.023675593 0.007660132 0.0034017763 0.014311399
0.021441571 -0.07208853 -0.07113078 -0.06570469 -0.004904811 -0.0179405 0.07761382 -0.036778525
0.08001845 -0.050962076 0.008099837 -0.049495064 0.07989417 -0.05632112 0.051385053 0.0575368
-0.040550824 -0.038557082 -0.047940977 0.0016701417 -0.059133053 0.03439877 -0.07477783 -0.07007068
-0.0648669 0.06296548 -0.05038449 -0.079453535 0.0596727 -0.012419294 -0.032531958 -0.031055124
0.05281179 0.006891389 0.07024668 0.018969512 -0.011692842 -0.015565869 -0.05819311 -0.0061669336
0.010562383 -0.08134095 -0.014091623 -0.072110295 -0.008819844 0.07388166 0.056666516 0.071622126
0.031230904 -0.03235027 -0.019150961 -0.08128838 0.061886508 0.039551813 -0.016571144 -0.013182985
0.05428561 -0.03640604 -0.058018673 0.06212712 -0.01169886 0.042257555 0.024743797 -0.009646143
-0.022664499 -0.030899694 -0.07596739 -0.039976124 -1.9341618e-05 -0.0025606696 -0.01392283 -0.040132385
-0.009611038 -0.05048522 -0.045963097 0.06177574 -0.020468194 -0.021163352 -0.02024992 -0.054636534
00000000: 6226 44bd 981c 1dbd ec50 1bbb 650f c4bb
00000010: e1df 82bd 1beb 813c bf3b 113d 24c1 693c
00000020: 2b89 6d3d 8fae 8a3d e416 57bd 39dd 54bb
00000030: 8e9e 32bd 5273 fb3c bb92 703d f894 8f3d
00000040: ba1c 9b3d c7f5 a63d dd35 0b3d 5046 09bd
00000050: 6384 423d d565 5e3b 8248 98bd 7874 7ebd
00000060: b49d 94bd 9936 253c 8664 5abd 07eb 34bc
00000070: 37ac 633d 6839 743b 0e78 3fbd f3b9 9bbd
00000080: c615 5e3d 30bf 2bbc 1fe3 703d 87c4 15bd
00000090: 67d4 833d 7758 ee3c e536 3fbd 0b69 603c
000000a0: 5773 433c dec3 983c 8d80 443d feb2 753c
000000b0: 2f76 853d af34 51bc 1aa3 a73d 70a7 283d
000000c0: 6d09 30bd 33bc b0bb 1be9 883d 017d 823d
000000d0: 7285 aa3b 73fb 9e3d 2e63 83bd 8155 09bd
000000e0: cbbf 583d 36f1 cb3c abdb 84bd c64b 57bd
000000f0: 19a3 92bc 655b 88bd 2b3d 6bbd dccb 4e3d
00000100: 6662 17bd 37c9 0a3d 0ead 98bd c3e9 9f3c
00000110: def5 593d 1b36 01bd 2d43 82bd 658c 8dbd
00000120: 4042 88bc 764a 36bd 4e39 a33d ce0c 6b3d
00000130: 3184 11bc 4408 f73c 3086 843d 77d5 79bc
00000140: 46c4 373c d3bd ab3d 277d 6bbc b844 963d
00000150: 865f 6d3d fc6b db3c 49c6 ffbc e3f6 a13d
00000160: 6f0a 07bd cd5c 3e3d 0b3c fc3c 1934 68bd
00000170: e7a4 8b3d 3d53 8abd d5b5 94bd 6894 763b
00000180: 06ea 3fbc 3a5f a93d 92f6 d03c 7f4e 1abd
00000190: e50b 3dbc 0865 efbb 3ec0 433d 1939 80bd
000001a0: d628 dc3c 47b3 0cbc 0198 a53d a667 113d
000001b0: 25b5 a2bd 9b96 febc 3076 adbc 1fca 9d3b
000001c0: a93f 64bc f78c 5d3d 1d37 8fbd e08f 253d
000001d0: 3ff2 67bc 6d8b 0cbc 6418 9dbd 77ea 6a3b
000001e0: 4759 50bd e98a 88bc 4188 c13c aeb3 743c
000001f0: 4bbc 80bd e77e 45bd 5465 8f3d 0318 bd3c
00000200: 9293 6d3d 4ca6 a0bd dda0 343c b88f 203d
00000210: 666b f437 324c 80bd 120d 033d 1711 48bd
00000220: cc05 9abd 7e0e 8c3d 8110 793d 4a51 693d
00000230: 4a2b ce3c c85d 97bd 5e16 85bd fcf7 523d
00000240: bed4 a5bd 08bb 2f3d 96de 0b3d 807b 45bd
00000250: e981 873c c98f c7bc 07f3 a8bd 2643 97bc
00000260: 9a77 533c d508 9ebd 6a8b 39bd 032e 9a3d
00000270: f38a 98bd 7609 263d cc24 8d3c 6a42 7cbd
00000280: d531 2f3d 7c6d 9e3c d1cb 61bd 6a1b 4bbd
00000290: 859f e43c af3f d9bc 88dc b03c a3af 3f3b
000002a0: f10c e33c d64d 9a3d bd8a 783d e40d 22bd
000002b0: 51f3 c13c d801 fb3b 56f0 5e3b 5c7a 6a3c
000002c0: 3ca6 af3c 27a3 93bd 04ad 91bd 2e90 86bd
000002d0: 89b8 a0bb f5f7 92bc fff3 9e3d 14a5 16bd
000002e0: b7e0 a33d 9cbd 50bd 2eb5 043c 56bb 4abd
000002f0: 8e9f a33d fab0 66bd 2279 523d b5ab 6b3d
00000300: 9f18 26bd 08ee 1dbd c25d 44bd a8e8 da3a
00000310: 8035 72bd bae5 0c3d 1e25 99bd 3781 8fbd
00000320: f0d8 84bd 0cf4 803d f85f 4ebd 89b8 a2bd
00000330: 5c6b 743d 4b7a 4bbc 3b40 05bd 5167 febc
00000340: 2d51 583d 29d1 e13b 7edd 8f3d f365 9b3c
00000350: 5593 3fbc fd07 7fbc e65b 6ebd fd13 cabb
00000360: d80d 2d3c 1696 a6bd 8de0 66bc 90ae 93bd
00000370: 1b81 10bc 454f 973d 261b 683d 9fae 923d
00000380: f4d7 ff3c b781 04bd 7ae2 9cbc 867a a6bd
00000390: b57c 7d3d 1501 223d 35c0 87bc 72fd 57bc
000003a0: 965a 5e3d 801e 15bd fda4 6dbd 0279 7e3d
000003b0: 93ac 3fbc 4216 2d3d 81b3 ca3c db0a 1ebc
000003c0: e6aa b9bc 5b21 fdbc ca94 9bbd 01be 23bd
000003d0: cf3f a2b7 e8d0 27bb 951c 64bc db61 24bd
000003e0: 9d77 1dbc 97c9 4ebd cd43 3cbd 8f08 7d3d
000003f0: eaac a7bc c45e adbc 29e3 a5bc 8fca 5fbd

bias f4 [32]
-0.01652168 0.06024048 0.02629615 -0.07704405 -0.059128083 0.03465104 0.045888703 -0.026524343
0.025761848 0.022290152 -0.025141511 0.08147182 -0.075438894 -0.038262513 -0.07338955 -0.06636511
-0.06933496 0.0085704755 0.0017828376 -0.007720968 0.0705054 0.016268985 -0.008993502 -0.048817124
0.03671727 -0.02599522 -0.07000674 -0.044036366 -0.008728887 -0.027670495 -0.029826716 -0.06604387
00000000: 7958 87bc b9be 763d 066b d73c 45c9 9dbd
00000010: 4a30 72bd 40ee 0d3d cbf5 3b3d 9449 d9bc
00000020: 830a d33c d699 b63c 92f5 cdbc b3da a63d
00000030: b57f 9abd 27b9 1cbd 434d 96bd 6eea 87bd
00000040: 7dff 8dbd 2e6b 0c3c 1aae e93a 2d00 fdbb
00000050: 2365 903d 8946 853c 7b59 13bc 77f4 47bd
00000060: d964 163d edf3 d4bc b25f 8fbd 7a5f 34bd
00000070: 9b03 0fbc 3cad e2bc 2857 f4bc 0242 87bd

weight f4 [32, 32, 3, 3]
-0.050712924 0.057123367 0.051139254 -0.058255758 -0.05198935 0.05432196 0.009721155 0.04198114
0.029176107 -0.012612644 -0.046721626 0.015687658 0.010936527 -0.014515861 -0.015386411 -0.04491136
0.006523049 -0.03570209 -0.0017949952 -0.017145371 -0.02960354 0.038820405 0.035974007 -0.05308503
0.021609116 0.02410121 0.048730742 0.057045087 -0.022342296 0.030481704 0.013120331 0.048609085
0.054052513 -0.029169716 0.05037923 0.023513492 0.030352022 0.022432432 0.016971972 -0.044110708
0.04881685 -0.03554523 0.0038649295 -0.051088452 -0.022941533 -0.0053476975 -0.016721977 -0.030867942
-0.011594657 -0.012912017 -0.030353032 -0.034398388 0.031509425 0.006986352 0.02221747 0.02432091
-0.056010652 -0.00030082802 -0.035666946 0.02388371 0.019568533 -0.055145293 -0.04457256 -0.012327614
0.04862293 0.0014295833 -0.0009984731 -0.008572345 -0.0059571047 0.013206306 -0.01513274 0.01952119
-0.047815427 0.014796847 0.042515855 -0.052352455 -0.04331248 -0.037337713 0.023902085 0.05127018
0.038217794 -0.051198937 0.02503899 0.012104376 0.051653594 -0.030208338 -0.04752825 0.021649912
0.05500928 0.050251715 -0.00028465147 -0.000766336 0.04067616 0.044844244 0.02404969 -0.028953433
0.041033216 -0.047198128 -0.051036395 0.055776197 -0.05350675 -0.0025630328 0.0064904927 0.049930304
0.039597746 -0.033066276 -0.025992725 -0.045771334 0.0015116489 0.009387353 -0.01823446 -0.04241575
0.0036366135 -0.03160673 -0.055648945 -0.031116052 -0.02548807 -0.029501995 0.03935334 -0.05628023
-0.020343298 -0.004106296 -0.052363686 0.024575302 -0.021370647 -0.048567373 0.022568038 -0.015351988
0.02494437 -0.049688227 0.0092159705 0.003153025 0.018296547 -0.03204998 -0.030707695 0.04290136
0.015176108 0.04418429 -0.03208272 -0.047711037 -0.030714503 0.031078385 -0.028203154 0.011339979
0.029765561 -0.011121238 -0.03886012 0.043444894 -0.04972406 0.031583164 0.03052773 -0.026021594
0.019058881 -0.03160523 0.05261505 0.045033704 -0.023068236 0.043186363 -0.004118771 0.043914046
-0.05797017 0.0519504 0.009366103 0.05854549 0.039855562 0.03929652 0.03547337 -0.045183454
0.008347262 0.027357357 -0.026521392 -0.038138386 0.05272585 0.024727538 -0.055639397 -0.01175589
0.020542523 -0.014341252 0.032396957 0.02386934 -0.051028404 -0.0008822813 -0.036871824 -0.0064181187
-0.045252755 0.048426438 0.04511844 0.040758602 0.03698596 0.013423206 -0.012088869 0.026571792
-0.049767062 -0.03675673 -0.044084772 -0.045973502 -0.011480513 -0.031081252 -0.034541886 0.048505656
0.048059776 0.035077214 -0.03194243 -0.024549294 -0.011136778 -0.026325082 0.032751564 0.02882845
-0.013906473 -0.040993895 0.015303894 -0.016011676 -0.014808374 0.023120843 0.05138377 0.01285118
-0.004885986 -0.01699985 -0.037167497 0.04883467 0.025429362 -0.018984944 0.0253799 0.054816328
0.048974037 -0.012129486 -0.01914362 0.026260128 -0.009829612 -0.033559263 -0.035881102 0.04770221
0.022627635 -0.00686384 0.0054623163 0.038750555 -0.010529953 -0.01461907 -0.011149651 0.012746789
0.046276625 0.050355673 0.05137762 0.026903577 0.010894754 0.0038078928 0.03969215 0.015950974
-0.049417097 -0.0246166 0.026916228 -0.008663324 0.035146516 -0.016607925 -0.052120253 -0.032070868
00000000: 5bb8 4fbd 31fa 693d 6577 513d 979d 6ebd
00000010: c9f2 54bd b480 5e3d 7b45 1f3c 6af4 2b3d
00000020: bb02 ef3c 43a5 4ebc 2d5f 3fbd 6783 803c
00000030: 1e2f 333c efd3 6dbc 4917 7cbc f9f4 37bd
00000040: 4dbf d53b 5b3c 12bd 0b46 ebba 7374 8cbc
00000050: 2083 f2bc 2502 1f3d 7b59 133d b06f 59bd
00000060: 9a05 b13c e76f c53c e399 473d 1ca8 693d
00000070: 3107 b7bc c4b4 f93c a8f6 563c 521a 473d
00000080: 2b66 5d3d 54f5 eebc 745a 4e3d 5e9f c03c
00000090: cea4 f83c 38c4 b73c ce08 8b3c 6ead 34bd
000000a0: 2df4 473d e097 11bd c24a 7d3b 2042 51bd
000000b0: e2ef bbbc bd3b afbb 87fc 88bc c4de fcbc
000000c0: 84f7 3dbc ed8c 53bc eca6 f8bc 53e5 0cbd
000000d0: 0710 013d c5ed e43b 6901 b63c a53c c73c
000000e0: 6d6b 65bd 74b8 9db9 8117 12bd c5a7 c33c
000000f0: 304e a03c 08e0 61bd b791 36bd c3f9 49bc
00000100: d628 473d db60 bb3a 33df 82ba 0573 0cbc
00000110: d133 c3bb 435f 583c 50ef 77bc e7ea 9f3c
00000120: 1cda 43bd 796e 723c 1b25 2e3d 876f 56bd
00000130: 6d68 31bd 6eef 18bd 4ece c33c ae00 523d
00000140: 438a 1c3d fab5 51bd 911e cd3c 6f51 463c
00000150: b892 533d 7a77 f7bc fbac 42bd 285b b13c
00000160: 6951 613d bed4 4d3d 463d 95b9 f0e3 48ba
00000170: 0c9c 263d 99ae 373d db03 c53c c02f edbc
00000180: 7212 283d d352 41bd 8a0b 51bd 9575 643d
00000190: e529 5bbd 8ef8 27bb 33ae d43b b883 4c3d
000001a0: 3f31 223d 8170 07bd b2ee d4bc b97a 3bbd
000001b0: 8522 c63a 6acd 193c 6f60 95bc 23bc 2dbd
000001c0: 4054 6e3b 0f76 01bd 26f0 63bd 17e7 febc
000001d0: 5bcc d0bc 2bae f1bc f830 213d 1986 66bd
000001e0: fda6 a6bc 1c8e 86bb 4e7b 56bd 2552 c93c
000001f0: 7f11 afbc 95ee 46bd 9be0 b83c e886 7bbc
00000200: 2358 cc3c e285 4bbd 95fe 163c fba2 4e3b
00000210: a4e2 953c d746 03bd b48e fbbc 56b9 2f3d
00000220: 36a5 783c 96fa 343d 2c69 03bd a66c 43bd
00000230: fb9c fbbc 1998 fe3c 4d0a e7bc 52cb 393c
00000240: e8d6 f33c da35 36bc ca2b 1fbd 46f3 313d
00000250: 75ab 4bbd 595d 013d 4a15 fa3c 3d2b d5bc
00000260: 5f21 9c3c 7c74 01bd e182 573d 4375 383d
00000270: 99f9 bcbc 2fe4 303d c1f6 86bb 37df 333d
00000280: 2172 6dbd f1c9 543d 4974 193c 65cd 6f3d
00000290: 963f 233d 63f5 203d 864c 113d 4912 39bd
000002a0: f4c2 083c 891c e03c 6443 d9bc ff36 1cbd
000002b0: 10f7 573d 6891 ca3c 23e6 63bd c79b 40bc
000002c0: cb48 a83c 92f7 6abc acb2 043d a289 c33c
000002d0: 2903 51bd e548 67ba e906 17bd 154f d2bb
000002e0: f45a 39bd cd5a 463d 1dce 383d 7ef2 263d
000002f0: 977e 173d 02ed 5b3c 6410 46bc 16ad d93c
00000300: 8cd8 4bbd 3a8e 16bd 3c92 34bd b64e 3cbd
00000310: c318 3cbc 1c9e febc cb7b 0dbd dead 463d
00000320: 54da 443d 20ad 0f3d 11d6 02bd 9a1b c9bc
00000330: 0877 36bc b3a7 d7bc 8126 063d a429 ec3c
00000340: fad7 63bc 37e9 27bd 2fbd 7a3c eb2a 83bc
00000350: d39e 72bc ec67 bd3c ca77 523d c18d 523c
00000360: 9f1a a0bb 4543 8bbc f23c 18bd dd06 483d
00000370: 3d51 d03c 5086 9bbc 82e9 cf3c 1687 603d
00000380: 0099 483d c0ba 46bc 15d3 9cbc 7b1f d73c
00000390: 620c 21bc 7075 09bd 10f8 12bd 6463 433d
000003a0: 975d b93c 10ea e0bb 3bfd b23b e7b8 1e3d
000003b0: d385 2cbc d384 6fbc 07ad 36bc e8d7 503c
000003c0: 8f8c 3d3d c041 4e3d 5771 523d e464 dc3c
000003d0: e97f 323c d78d 793b 3c94 223d 9eab 823c
000003e0: 9569 4abd c0a8 c9bc 6c7f dc3c 9df0 0dbc
000003f0: cbf5 0f3d 580d 88bc 0c7c 55bd be5c 03bd

bias f4 [32]
-0.016959079 0.041919723 -0.00017289341 -0.038190924 -0.034789693 -0.042283274 -0.026957244 -0.044083472
0.035074163 0.04886307 -0.026697373 -0.04436527 0.049393117 -0.011921973 -0.051656127 -0.0025256565
-0.04835527 0.0023750418 -0.035491116 -0.004484045 -0.02308605 -0.023146106 0.009337239 -0.0076293247
-0.026646886 0.0021778923 -0.014135421 0.015280491 -0.05037912 -0.023502579 0.034513697 -0.04653178
00000000: c4ed 8abc 04b4 2b3d b94a 35b9 166e 1cbd
00000010: a37f 0ebd 3a31 2dbd 70d5 dcbc df90 34bd
00000020: eda9 0f3d a424 483d 73b4 dabc 5bb8 35bd
00000030: 7050 4a3d 6154 43bc 6095 53bd 7c85 25bb
00000040: 2d10 46bd 97a6 1b3b 225f 11bd e5ee 92bb
00000050: f51e bdbc e79c bdbc 38fb 183c 6aff f9bb
00000060: 924a dabc f8ba 0e3b 4198 67bc 065b 7a3c
00000070: 565a 4ebd 7b88 c0bc 3c5e 0d3d 1c98 3ebd

weight f4 [3, 8192]
0.0005424247 -0.009326256 -0.00089788705 0.002274572 -0.004312672 0.005930624 0.00444804 -0.006663146
-0.003814345 0.00843322 -0.0042972346 0.004960674 -0.0062904903 0.001116633 0.003723114 -0.0037673071
0.009022832 0.009633014 -0.0010947232 0.0017728474 0.008401565 -0.005138014 0.007562033 0.0023783792
-0.0018489014 0.002005425 0.006475536 -0.0017699833 -0.001271639 0.0083416235 0.0028629028 0.00033312882
-0.007953191 0.011507252 0.0036445681 0.005287463 -0.0033500006 0.005486717 -0.0080537135 0.0032836099
0.0008131651 -0.004697053 0.0004158919 -0.0035627214 -0.008366635 -0.0041376348 -0.008903482 0.0075220084
-0.004755142 0.00068755774 0.009700402 -0.0053286576 0.010236112 0.00034757413 -0.0076996298 0.008923716
0.0054243365 -0.0074322345 0.0026948866 0.002460825 0.0066833873 0.0051318235 0.008548376 -0.0039704186
0.0014565826 -0.0008171013 -0.0009664541 -0.010699464 0.010181525 -0.0053815553 -0.005946109 0.010958063
-0.004759734 0.008044098 -0.0013995202 0.0037479217 0.008383879 0.007816907 -0.003984852 0.0022213846
-0.005704137 -0.0042777136 0.010812818 0.0014061974 -0.00971069 0.0016552518 0.01031876 0.007029408
-0.010684182 -0.00616695 -0.008046216 -0.0020784528 -0.007126824 -0.007135818 -0.0010457336 -0.0073625883
-0.00029637973 0.006138495 0.010328344 -0.008130902 0.0006831427 0.008650315 0.0049004396 -0.01151032
-0.0043426775 -0.0032375716 -0.008709694 -0.001913256 0.0016855777 -0.008382662 -0.010486201 0.0067125317
0.00421797 -0.0082109785 0.0031634918 0.0062468634 -0.0033286738 -0.0070760576 0.0042088875 -0.0023329603
-0.0053062523 0.010631019 -0.008722913 -0.0028795898 -0.0048077707 -0.004903732 0.009580831 0.0023907253
-0.0010947419 0.004459842 0.009519724 -0.0035762188 0.0036717802 -0.008922492 0.008131046 0.008758487
-0.0031816252 0.0063143694 0.0005915842 0.0057702055 0.003977652 0.0023626906 0.0052577816 0.0012159403
-0.009284408 -0.0037067016 0.0069178394 -0.0008587713 -0.004767697 -0.00023855684 0.004827542 0.007864175
-0.0025903888 -0.0060509685 -0.009313449 -0.001770976 -0.004798005 0.007754012 0.0011732336 0.009833205
-0.006282409 0.00448921 -0.004696957 0.0016330209 -0.0011840264 -0.009728319 -0.009961178 -0.0049621332
-0.0032966218 0.008907998 -0.008251608 0.0099255545 0.0041882843 0.0057781297 -0.0051986906 -0.00617759
-0.0027781178 0.007552403 -0.0047659227 -0.0044749803 0.0041921656 -0.006846212 -0.0087536555 0.009221715
-0.0062684454 0.006288592 0.004936054 -0.0039025946 -0.0032745013 0.006030988 -0.009944581 -0.00078772695
0.0010853217 0.0010660015 0.010164554 -0.010722866 -0.00433925 0.002891331 0.00962422 -0.0058261105
0.009307513 -5.8979927e-06 0.011161649 0.0017669552 0.0029049108 0.007473233 -0.0014558331 -0.006089673
-0.006754747 0.0047319485 0.0008287382 0.008110029 0.0031573419 -0.007869602 -0.010064925 0.010338218
-0.005570722 -0.008382495 0.0066404687 -0.00085227366 0.0015360975 0.008467971 0.011086931 -0.01021339
-0.004880589 -0.0016973576 0.0048909644 0.0012793202 -0.007976864 -0.0034737652 0.005058735 0.00012171973
0.011730071 -0.002216436 -0.010897462 0.011403293 0.0015129257 -0.004700139 0.0052656247 0.0037276815
0.004499567 0.007000549 0.0068337684 0.0026144392 -0.0002610684 0.0043306192 0.0016750946 0.0068505877
-0.009396707 0.008069955 -0.0027508305 0.0107277315 -0.00427571 0.0065170033 0.0032262832 -0.00882438
00000000: 8131 0e3a 27cd 18bc 2e60 6bba fc10 153b
00000010: 5151 8dbb ae55 c23b ddc0 913b 8556 dabb
00000020: 17fa 79bb 7d2b 0a3c d1cf 8cbb 268d a23b
00000030: 7520 cebb fc5b 923a 7dff 733b ede4 76bb
00000040: 80d4 133c cad3 1d3c d17c 8fba e35e e83a
00000050: b8a6 093c c95c a8bb eeca f73b 95de 1b3b
00000060: d656 f2ba 736d 033b bc30 d43b c9fe e7ba
00000070: 20ad a6ba 4eab 083c 8a9f 3b3b cba7 ae39
00000080: 1a4e 02bc ea88 3c3c b5d9 6e3b 7442 ad3b
00000090: af8b 5bbb ebc9 b33b b9f3 03bc d531 573b
000000a0: 962a 553a bde9 99bb 110c da39 8c7c 69bb
000000b0: 3614 09bc ff94 87bb e9df 11bc 2e7b f63b
000000c0: 06d1 9bbb 383d 343a 6fee 1e3c 059c aebb
000000d0: 5eb5 273c 9c3a b639 2d4d fcbb c734 123c
000000e0: a2be b13b 1a8a f3bb b29c 303b cb45 213b
000000f0: 5100 db3b db28 a83b 7d0e 0c3c 491a 82bb
00000100: cdea be3a bd32 56ba a359 7dba ce4c 2fbc
00000110: 69d0 263c c257 b0bb 94d7 c2bb 7389 333c
00000120: 8bf7 9bbb 64cb 033c 1b70 b7ba b19f 753b
00000130: 8a5c 093c 7c12 003c 5d93 82bb a694 113b
00000140: c5e9 babb 102c 8cbb 3f28 313c 2850 b83a
00000150: 9619 1fbc 09f5 d83a 0410 293c f356 e63b
00000160: b50c 2fbc 2014 cabb 47d4 03bc a736 08bb
00000170: 2288 e9bb 94d3 e9bb ff10 89ba de41 f1bb
00000180: 6a63 9bb9 6e25 c93b 3738 293c 7a37 05bc
00000190: ee14 333a 0dba 0d3c de93 a03b c895 3cbc
000001a0: 054d 8ebb 702d 54bb 1bb3 0ebc 38c6 faba
000001b0: 9aee dc3a 6f57 09bc 51ce 2bbc ccf4 db3b
000001c0: e636 8a3b 5787 06bc 9652 4f3b 7db2 cc3b
000001d0: e125 5abb 46de e7bb b5ea 893b 94e4 18bb
000001e0: 12e0 adbb ba2d 2e3c 8dea 0ebc 80b7 3cbb
000001f0: 818a 9dbb 7caf a0bb ebf8 1c3c b7ad 1c3b
00000200: 717d 8fba de23 923b 9ef8 1b3c ff5e 6abb
00000210: 40a2 703b a52f 12bc 1438 053c c27f 0f3c
00000220: d082 50bb c5e8 ce3b 8b14 1b3a fe13 bd3b
00000230: f756 823b 5fd7 1a3b 7849 ac3b 3060 9f3a
00000240: a11d 18bc 22ec 72bb 0baf e23b 2b1f 61ba
00000250: 573a 9cbb 1d25 7ab9 5c30 9e3b bed8 003c
00000260: 83c3 29bb 3447 c6bb 7097 18bc 1820 e8ba
00000270: 9538 9dbb 5e15 fe3b 30c7 993a 731b 213c
00000280: abdc cdbb 391a 933b eee8 99bb 170b d63a
00000290: 5531 9bba 8763 1fbc 3534 23bc 6499 a2bb
000002a0: 230c 58bb daf2 113c c131 07bc cb9e 223c
000002b0: e03d 893b 7756 bd3b c759 aabb 626d cabb
000002c0: 1511 36bb 267a f73b 752b 9cbb dba2 92bb
000002d0: 6f5e 893b 3056 e0bb 7e6b 0fbc ad16 173c
000002e0: 8867 cdbb 8810 ce3b 9fbe a13b acc2 7fbb
000002f0: 0499 56bb 989f c53b 99ee 22bc 767f 4eba
00000300: 5a41 8e3a 13b9 8b3a 3b89 263c f6ae 2fbc
00000310: 4430 8ebb 7c7c 3d3b e8ae 1d3c f5e8 bebb
00000320: 8a7e 183c 5fe7 c5b6 59df 363c 2e99 e73a
00000330: 5160 3e3b 06e2 f43b a7d1 beba e18b c7bb
00000340: ed56 ddbb 760e 9b3b ae3f 593a eddf 043c
00000350: 68eb 4e3b 81ef 00bc 5be7 24bc a161 293c
00000360: 9a8a b6bb bb56 09bc 4a98 d93b 1e6b 5fba
00000370: e156 c93a 3fbd 0a3c f6a5 353c 1056 27bc
00000380: 59ed 9fbb df79 deba 6244 a03b ddae a73a
00000390: 65b1 02bc 1ca8 63bb bfc3 a53b c843 ff38
000003a0: 7c2f 403c a041 11bb 458b 32bc e1d4 3a3c
000003b0: 5d4d c63a a003 9abb 438b ac3b 1e4c 743b
000003c0: 1b71 933b dd64 e53b ceed df3b 0357 2b3b
000003d0: 02e0 88b9 dee7 8d3b d98e db3a e57a e03b
000003e0: a5f4 19bc d837 043c 4747 34bb 5ec3 2f3c
000003f0: 411b 8cbb 968c d53b 0d70 533b 2294 10bc

bias f4 [3]
0.00073394465 -0.00611878 0.009062434
00000000: 3166 403a 0c80 c8bb 9a7a 143c
